pretrained_models/ddpg_medium1_extended/policy.pt (torch, 521621 bytes, 5 tensors)

weight f4 [400, 21]
00000000: f7b7 0dbf 3c15 e73e 8280 adbf 4d64 6b3b
00000010: b885 d3bd 542e 9b3e ac1a bbbe a050 a83d
00000020: ce4e 413e a038 503f 9e0f 92be c783 22be
00000030: 8926 a2be 2482 1d3f 71c7 89be 8b62 d93c
00000040: 81a6 9fbb 7f62 45be 0119 093e 15fa 7ebf
00000050: 2b86 8abe 3648 23bd 485b cc3d f429 96be
00000060: 373f ebbb 255d 303e 6660 203e ef23 66be
00000070: fa91 8d3d 35a2 e43d bd69 34be 6d27 8d3e
00000080: d4e9 f3bc ab6f 3f3e 48d9 5d3d ac77 843e
00000090: a565 443d 01fd bdbd df53 8c3d 1f20 b4bd
000000a0: f466 523e 1ebe 6a3c b6aa 88bc 7dc8 a4be
000000b0: 4ac8 03bf d50a 3e3e 4fd2 b23c 3d28 0fbf
000000c0: ce06 04bf 4b28 12be 790a 4c3e f365 32be
000000d0: 7bec 73be 89c8 3fbd 4004 59be 6ee4 bdbe
000000e0: b0ae 18bd 0261 273e e89f 163e 0d1d 933d
000000f0: 2b02 e63e 2906 98be 3f08 763e dc46 c53d
00000100: e6fb df3e 614e 3640 dac3 c0bb 0ce8 e2bb
00000110: c17e e03e 2e29 5a3e 1371 0e3e 441c 1ebd
00000120: 15e0 32be 8658 033e cb5b b8bb eee6 36be
00000130: 2493 6d3e 5fd0 943e 1d15 10be 1d86 03be
00000140: b06d 01be 214d 323d c58e 50bf 9c37 43bd
00000150: 5098 4b3e bacc 173e f40a b2bf f3ab 0d3d
00000160: 4325 0b3e cd7a 2dbe 0a93 16bf 8cdb 4fbe
00000170: a2d2 f93e 498d 663e e4ea 9e3d 2b0d d4bc
00000180: 7b49 883e 6121 04be a81e 15be e2cb 8d3d
00000190: 2ff3 19be 31d0 ca3e bad4 cc3b 3391 06bf
000001a0: ed06 b8be dfd1 09be a651 aebd 4100 19c0
000001b0: e1da 08bd 74f7 32bd 957a 80be 510b a4be
000001c0: efd0 6d3d 33f1 1c3d f778 45be 51fb 23be
000001d0: 3caa 55bd b83f fc3e ed89 c2be 4c74 b4bd
000001e0: c939 58be b326 843e e4c4 a33e 3eaf 92bf
000001f0: 0452 c83f b5b2 c9be f16c 503e 7e86 34be
00000200: ad41 ad3e 8ec3 7dbe 8969 6d3d 8b26 03be
00000210: 4bf2 7dbd d48f 0abe 9f66 06bf d375 a9be
00000220: 1161 19be 3551 4dbe 9106 49bf 4ab9 0abf
00000230: d85d 3fbe 1ed2 1ebe 371a 5b3e 5de7 aabd
00000240: 27fd 1e3f a446 acbf f914 02be 4454 9bbe
00000250: de20 09be bc96 74bc b602 183e 4d86 0e3e
00000260: 9b70 873d 19dd e0bd 31d4 54bd af50 aebe
00000270: 6f78 fa3e 2325 cf3d eb0f 22be 96e6 a13c
00000280: ff72 873e 8d15 edbd 6fda 553d 2b3f d23d
00000290: 2d03 ea3e 3f1b 43bf faa0 2d3f 8dcc dabe
000002a0: f02b 893d 34a0 7ebe 05e6 1cbe 0006 c5bd
000002b0: 816a 12be 0679 f73d 39bb 2c3d bb3c ea3d
000002c0: 6c56 ec3e 37db f43d a4da 403e fe14 2cbd
000002d0: 11ba eb3c 0313 0cbe 4c62 013c f170 47be
000002e0: dc17 0cbd 6cd1 73bd 492f 6abe 0a7f a838
000002f0: cdda 633e d01e 853e 92bf 0f3f 84bc 61bf
00000300: 5cbc 9c3d 16e1 dbbd daea 173f 41da 24be
00000310: 74c1 b7bd 9ef7 99be 03dd d5be b1e3 5dbe
00000320: 8711 9abd 8239 3fbf 4494 36bd f5d1 40be
00000330: 27ad 7a3e 5dfe 9ebe bca0 663f 9ba8 89bd
00000340: 460d 8fbf 172f 043e 7454 07bc 19bc 8e3d
00000350: e6e5 18be f756 01be 82c5 333e 67df 293e
00000360: d5f2 ba3e 03ef 0abd cfa4 f2be 0827 3fbf
00000370: 76ff a53d 2f01 583d deb9 043e 911a adbe
00000380: c8c7 d13d e774 5fbc 4d7f c2be 23af 8d3e
00000390: ce70 67bd 604e 22bf dd96 a13c 03f6 bdbe
000003a0: b770 b13b 3612 64bf c545 bc3d cfbb 3dbd
000003b0: 709e 8a3e 2d44 91bd 106c b53c f240 c93e
000003c0: e655 aabe d1ef 593d 3c12 1bbe 4422 903e
000003d0: e037 93be 92f6 203e fe9f 573d 1220 22bc
000003e0: 17bc 893f 3516 d43e 1392 84bf aa26 963d
000003f0: e0a2 4a3e 4b6a 41be 525d 24bf 8ac5 82bc
-0.55358833 0.45133388 -1.3554842 0.0035917938 -0.10328239 0.30308783 -0.36543787 0.08218503
0.18877718 0.813364 -0.2852754 -0.15870582 -0.31670025 0.61526704 -0.26909974 0.026536247
-0.0048721437 -0.19275855 0.13388444 -0.99600345 -0.27055487 -0.039863788 0.09978348 -0.29328883
-0.0071791667 0.17223032 0.15661773 -0.22474645 0.069126084 0.11163751 -0.17618461 0.27569142
-0.029774584 0.18694942 0.054162294 0.25872552 0.0479485 -0.09276772 0.06851935 -0.08795189
0.20547086 0.014327554 -0.016682964 -0.3218421 -0.5147749 0.1855882 0.021828799 -0.55920774
-0.51572883 -0.14273183 0.1992587 -0.17421703 -0.23820679 -0.046822105 -0.21193027 -0.3708834
-0.03727597 0.163456 0.14709437 0.07183275 0.4492353 -0.296922 0.24026583 0.09632656
0.4374687 2.8485339 -0.0058827223 -0.006924635 0.43846706 0.21304771 0.13910322 -0.038601175
-0.17468293 0.12826738 -0.005626177 -0.1786153 0.23200661 0.29065225 -0.14070554 -0.12844129
-0.12639499 0.043530587 -0.8146785 -0.047660455 0.19882321 0.1482419 -1.3909593 0.03458781
0.13588433 -0.16941376 -0.58818114 -0.20298594 0.48793513 0.22514834 0.077596456 -0.025885185
0.2661856 -0.12903358 -0.14562476 0.06923653 -0.15034173 0.39611962 0.006250945 -0.52565306
-0.35942784 -0.13458966 -0.08511667 -2.3906405 -0.033411864 -0.04369302 -0.25093523 -0.32039884
0.058060583 0.038315963 -0.19284426 -0.16013838 -0.0521643 0.49267364 -0.37995854 -0.08811244
-0.21115793 0.25810775 0.31986153 -1.145973 1.5650029 -0.39394155 0.20354058 -0.1762943
0.3383917 -0.2478163 0.057961974 -0.12807672 -0.061998647 -0.13531429 -0.5250034 -0.33097705
-0.14978434 -0.2005051 -0.78525645 -0.5418898 -0.18688142 -0.15509841 0.21396719 -0.0834491
0.6210503 -1.3459058 -0.12703313 -0.30337727 -0.13391444 -0.014928516 0.14844784 0.13918419
0.06613275 -0.10979671 -0.051960174 -0.34045932 0.4892001 0.10114505 -0.15826385 0.019763272
0.26454923 -0.11576376 0.052210268 0.102659546 0.45705548 -0.7621345 0.67823756 -0.42734185
0.066978335 -0.248658 -0.1532212 -0.09620285 -0.1429844 0.1208363 0.042170737 0.11437365
0.46159685 0.119558744 0.18833405 -0.042012207 0.028775247 -0.13679127 0.007896971 -0.19476677
-0.03420244 -0.059525892 -0.228696 8.034527e-05 0.22251435 0.2600007 0.5615169 -0.88178277
0.07653114 -0.10736291 0.5934273 -0.16098882 -0.08972445 -0.3007173 -0.4177018 -0.21668889
-0.07522874 -0.74697125 -0.04457499 -0.18830092 0.24480115 -0.3105344 0.9008901 -0.06721612
-1.1175926 0.12908588 -0.008259881 0.069694705 -0.1493145 -0.1263083 0.17555812 0.16589127
0.3651339 -0.033919346 -0.47391364 -0.7466893 0.08105366 0.052735504 0.12961528 -0.3380933
0.102431834 -0.013638712 -0.37987748 0.2767268 -0.056504063 -0.6340084 0.019725258 -0.37101755
0.005415048 -0.8909029 0.09192995 -0.046321686 0.27074003 -0.070930816 0.022146255 0.39307362
-0.3326866 0.053207222 -0.15143675 0.28151143 -0.28753567 0.15719059 0.052642815 -0.0098953415
1.0760525 0.41423193 -1.0357078 0.07331593 0.19788694 -0.18888204 -0.64204895 -0.015963335

bias f4 [400]
00000000: 09c4 d73d d2e3 00be d3cf d7bd ecf0 8f3d
00000010: 2d50 60be 8d45 5e3a 6491 ca3c e653 1dbe
00000020: eec4 f2bd f895 1a3d afcf 7c3e 47b4 1d3d
00000030: 1519 083c d9b4 1bbe ce51 143c f1f0 03be
00000040: c667 76be 0599 ea3d cc93 e2bd 0035 9dbe
00000050: 583a 063d 014e cbbd 1de1 d2bd 4e25 89bd
00000060: a79f 283e 75d1 023e 83b5 c33c d25e 5c3c
00000070: 89a1 adbd 0ff7 01bd d6d3 2d3e fc55 2cbe
00000080: eda3 9abd 0498 66bd f4f9 c5bd 1b26 3fbd
00000090: b236 83bd 446c 9abc 64d7 943d a808 bb3c
000000a0: 6ab0 b03d 4e9f b4bd 3888 813a 2b37 05bd
000000b0: 5c79 203e 7284 95be e7ec c83c aca9 c93d
000000c0: bc34 94bd eb60 073e 901e 1ebe 6cb1 babc
000000d0: 9eb2 2a3e 4cd6 00be ac84 653d ea9b 6fbe
000000e0: c740 3c3e 5466 053e bcda d63d 5169 c7bd
000000f0: 818b 5abe e248 0e3e 44c4 2fbe 8e35 0a3e
00000100: 9d79 11be 5d4c 6cbe 9d3c fabc 69d6 a4bc
00000110: 7465 513d ed33 45bd 7043 1dbe 2590 99be
00000120: c453 80bd cadd 24be 3b78 79be 646d bb3d
00000130: fff4 a8bd 6a33 a43d f699 a03c 5f9b 6fbe
00000140: 5e89 ebbd 82b0 f0bd 7549 cc3d ba55 d3bd
00000150: f383 2ebc 94b5 bb3d 2659 12be da04 bc3d
00000160: bce9 cbbd 9cf6 b0bd 324e 79be b0d1 14be
00000170: 8497 69bc 8afc 63be 1b7e 1fbe d6e4 7e3d
00000180: f1d9 69bd e1cf 0d3d 8945 d63d c753 f3ba
00000190: 2179 a9bd 71a5 05be 23c1 a1bd d4e9 8dbd
000001a0: 955d 163e 410f f5bc e6d7 10bd 6833 11be
000001b0: d9e7 63bd 4a04 9b3d 3594 19bc 605d d0bd
000001c0: 7a0e 01be 9ad5 a6bd 933f 7f3d 18b1 f63d
000001d0: 056a 153e 9c0e abbd 7dfc 46be 787f a23c
000001e0: 2f07 81be 61e7 cdbd 9a7a d2bd 6f74 85bd
000001f0: deb3 c2be b979 42be 1687 95be 3e8c 303b
00000200: 4941 b6bd e480 8fbe 20db 953d 8fd5 32bd
00000210: f032 e63d 4b30 643d a3ce 41be c35b 0a3e
00000220: 7f30 19be 3f1a 9bbe 8bd8 81be b083 fa3d
00000230: 2284 533e 2b0b 21be 01ea f63d 7e82 273e
00000240: 9695 e53d 2c5f 39be dd1e c6bd a2b0 9f3c
00000250: fb2c 2abe fcbb 9e3c b8ef 7bbe 0c89 a2be
00000260: 2667 b2bd b9a7 bbbd 4020 f93d ce4d a13d
00000270: 54f9 813c ad17 bbbd d3c7 b83d 8c03 25bd
00000280: c8bd 57be e640 473e 1c93 2dbe c39f cdbd
00000290: 5d6e 5fbe 95de f4bc 5e78 d2bd 1f85 3bbe
000002a0: c64c 2dbd 8bca aa3d e6a3 5dbe d135 39be
000002b0: 5624 96be 1eb5 07bd c209 a7bd c12c 54bd
000002c0: b8ac aa3d 892e 233e cb64 3a3e 0d63 cabd
000002d0: f16e da3d 2bc9 413c 58ce f7bc 55af c5bd
000002e0: 3ec2 3abd 790e 78be d84b 0ebe cbea a3be
000002f0: d6ed 2e3e 4f72 e63c edde cc3d bcfb 14be
00000300: 9278 9b3d 7e11 3abe 154c 14be 663f b5bd
00000310: c1bd b83d e4ff e3bd a78d da3d cb83 41be
00000320: 997a f1bd e6b9 d7bd 40d8 4abe 29c6 72bd
00000330: 2fcb 2bbe b98e e0bd 3f66 a43c 7955 ba3d
00000340: a14e 9bbd 2890 423d b93b 2cbd 1551 1ebe
00000350: 875c 44be 5db3 a0bd 5c72 09be 13b6 363c
00000360: 8b5e 813e 8fd6 80bd 0ade 883e eb4b bfbd
00000370: 5e16 d5bc 940c 803e ad9d 443e c010 11be
00000380: cec4 7cbe dfdb 9dbc 9cfb 203c 929d af3d
00000390: 98f3 89be 7169 283e b6aa b53d 17ef 58be
000003a0: c1da 9e3b d774 51be 6cfb 89bd d7d4 233d
000003b0: 1bda 9fbe 71c5 61be 5d5a 64bd d589 5abd
000003c0: 6783 683d 40fb b3bd 6666 7e3d c773 38bd
000003d0: 65f5 333e f47a 9f3d a248 dcbd 5541 a9bd
000003e0: 5003 22be 71bc c6bd 687d 2b3d f086 2fbe
000003f0: 97e6 5fbd 268d 01be 2285 0e3e 35e0 bbbd
0.105354376 -0.12586907 -0.10537686 0.07028374 -0.21905585 0.0008478992 0.02472753 -0.15364036
-0.118539676 0.037740678 0.246886 0.038502004 0.008306761 -0.15205707 0.009052707 -0.1288488
-0.24063024 0.114549674 -0.11063346 -0.30704498 0.032770485 -0.099269874 -0.10296843 -0.066965684
0.16467153 0.12775214 0.023890262 0.013450341 -0.08478076 -0.031729754 0.1697534 -0.16829675
-0.075507976 -0.056297317 -0.096668154 -0.0466672 -0.06406917 -0.018850453 0.07267645 0.022831276
0.08627398 -0.088194475 0.0009882515 -0.032523315 0.15671295 -0.2920261 0.024527026 0.098468155
-0.07236621 0.13220565 -0.15441346 -0.02278968 0.166697 -0.12581748 0.05603473 -0.2339932
0.18384086 0.13027316 0.10490939 -0.097368844 -0.21342279 0.1389499 -0.17164713 0.13496992
-0.14206548 -0.23076005 -0.03054648 -0.02012177 0.051122144 -0.048145223 -0.15357757 -0.29992786
-0.06265977 -0.16100231 -0.2436227 0.09151724 -0.08249854 0.08017619 0.019604664 -0.23399113
-0.1150081 -0.11752416 0.09974948 -0.103190854 -0.010651576 0.09165493 -0.1429182 0.09180613
-0.09956691 -0.08640787 -0.24346235 -0.14533114 -0.014257316 -0.22264305 -0.15575449 0.062229954
-0.05709261 0.034622077 0.104624815 -0.0018564396 -0.08275057 -0.13051392 -0.07898166 -0.06929365
0.14684136 -0.0299145 -0.035362147 -0.14179766 -0.05564103 0.075691774 -0.009373714 -0.1017406
-0.12603179 -0.0814621 0.06231649 0.12045497 0.14591224 -0.08352396 -0.19432254 0.019836172
-0.25200793 -0.10053898 -0.10277291 -0.065163486 -0.38027853 -0.18991746 -0.29204625 0.002693906
-0.08899171 -0.28028023 0.073171854 -0.043660697 0.11240184 0.05571012 -0.18926482 0.13511567
-0.14959906 -0.30293462 -0.25360522 0.12232149 0.20655873 -0.15726916 0.120563515 0.16358373
0.11210172 -0.18102711 -0.096738555 0.019493405 -0.16618721 0.019376747 -0.24603164 -0.31745183
-0.0871108 -0.0916285 0.12164354 0.07876168 0.01586596 -0.09135375 0.090224884 -0.040286586
-0.2106849 0.1945835 -0.16950649 -0.10040238 -0.21819444 -0.029891292 -0.102768645 -0.183125
-0.042309545 0.08339413 -0.21644554 -0.18086936 -0.29324597 -0.03313171 -0.08156158 -0.051800493
0.08333725 0.1593572 0.18202512 -0.09882174 0.10665692 0.011827747 -0.03024976 -0.096525826
-0.0455954 -0.24224271 -0.1389612 -0.3201507 0.17082915 0.028130678 0.10003457 -0.14549154
0.07591356 -0.18170735 -0.14482148 -0.08849983 0.09020568 -0.11132792 0.10671549 -0.18897931
-0.11790962 -0.10533504 -0.19809055 -0.05927101 -0.16776727 -0.10964722 0.020068286 0.09098334
-0.07583357 0.04750076 -0.042049143 -0.15460618 -0.19175921 -0.07846711 -0.13422531 0.011151808
0.25267443 -0.06290924 0.26731902 -0.09340652 -0.026011642 0.25009596 0.19200774 -0.14166546
-0.2468445 -0.019269882 0.009825613 0.08574976 -0.2694366 0.16446473 0.08870451 -0.21184956
0.004847855 -0.20454727 -0.06737408 0.0399979 -0.3122109 -0.22047974 -0.05575024 -0.053354103
0.05676594 -0.087881565 0.062109374 -0.04503229 0.1757408 0.07787123 -0.10756041 -0.08264414
-0.15821576 -0.09703911 0.041867644 -0.17141318 -0.054663267 -0.126515 0.13917974 -0.091736235

weight f4 [300, 400]
00000000: cccf 243c 205e 58bd 0a8e c03c 1a7e 3ebf
00000010: 97c5 0f3e f600 9ebc 13bc bf3e 59cd 73be
00000020: 7ba1 4fbd 3dfb 9b3e 6160 93bd fccc 873e
00000030: d7e6 eb3d 9df0 aa3c e75a 14be 5ccb 97bd
00000040: 7116 b3be 6583 33bd 783d 933c 88b9 8a3c
00000050: 583b 9a3d a78c e4bb 2771 513e 880a dd3c
00000060: afca cfbd 7a9a 393d 9246 1d3e 98dd 73be
00000070: be3d 1cbc ef49 ac3c 12fb 26bf b33e edbc
00000080: f1c7 1dbe b3b9 d8bc a88e bdbd c68a a13c
00000090: 5662 9f3d aa03 a9be d156 8c3d c8a5 6cbd
000000a0: 4688 febb 431e adbe 9910 03be f840 363d
000000b0: bec1 a2bc 2a82 11bf 0a10 dfbd f924 b5bd
000000c0: 249e 8a3d 1f7e 24be 4c0d 5e3c 7ac8 12bf
000000d0: 2081 a6be be22 f23e 2623 bebd d236 d2bd
000000e0: 3149 8abd 0d64 373e c0ac 813c dea0 503d
000000f0: f70d 61bd a84a 043d 28f0 1ebd e84f 963d
00000100: acbe 2ebf 4c75 aa3e 0ff0 333d bb09 24be
00000110: f99a 5d3b 71dd adba 17e1 a13b c9e0 b1be
00000120: 22e5 d5bc 5224 453d 0470 a7bd ab66 4bbe
00000130: 3d78 d8bc cca8 41bd 947f 8ebc fd98 ae3e
00000140: 20fe 06bd 6823 09bd 553d 11bd e33b af3c
00000150: 17d9 463c ea9f c8bd bc12 b7bc b059 d43d
00000160: 5fa5 2abe 7263 b83d 1d34 d43c 84cf f83c
00000170: 25a6 cbbd f6dc debd d77b dfbe b3fb d43c
00000180: 9795 d6be 192a 4cbe 72a8 39bd 29d7 9e3c
00000190: 885a 58bf a728 163e e04e 39bd 17e8 08bf
000001a0: 14ed 8c3d 17d8 afbb 10a3 e5bd 1bd1 023d
000001b0: c999 45be 6ab8 16bd ad76 06bc ba2c a83c
000001c0: 8d98 debb 22f3 043e ddf3 93bc 5e69 f8bd
000001d0: c965 6abe c7da 3f3e 6935 0f3e 0f91 c23d
000001e0: ffe2 243d 0ae4 e1bc 5f0c 1ebe ea6a 383d
000001f0: 3810 093d fb73 29bd a2ed 3dbe 401e 0ebf
00000200: 20f0 97be 5bc6 be3c 9afc 1bbc 90c9 103d
00000210: d69e 2bbe 5048 9bbe 2ea5 54bc 6387 08bd
00000220: 1359 333e 32fa b3bc 5363 afbd 40b9 fd3b
00000230: 5c9a 0ebe 3b3c 04bb dae7 313d 2250 df3d
00000240: 9fde 70be 286b 99bd 17ed 50bc 69ec c8bd
00000250: cd3b 703b a155 eabc ac17 aa3e 783c 89bc
00000260: dff4 263c ba6d 11be a70d 3ebd 1e6b a0bd
00000270: 9afa 9f3c ef72 53bb 616f 6f3e 4059 0e3e
00000280: 6759 033c 0dca 14be 5d42 f2bd 1205 63bd
00000290: ca8d 103d 9a83 b2bb 5a69 c53b 50ec ddbc
000002a0: 6009 b3be 7787 01bd 1522 2e3d 03cd 87bc
000002b0: 386e 92bc 4e60 ea3d d994 b03d 4a3d 38bf
000002c0: 0fb4 f6be 0d09 b73c d1b5 e1be c020 223c
000002d0: 1d13 343e 1fa7 f33c 00fa 19bc dcaa 00bd
000002e0: f067 fdbe b11d 2dbd ad99 5a3c 9140 83bd
000002f0: 6c53 2d3d 60fa 343e 6481 f03d ae66 efbd
00000300: c96a 1ebe e5ca 56bc d290 0c3e fa92 083d
00000310: 5e9f 9cbc 4341 f4bc 9ea1 c6be 4a00 f63c
00000320: d695 c7bb d2e3 fe3d bfaa fa3d 883c 963d
00000330: 2782 d7bc 9713 84bc 5e5c 803e d197 09bf
00000340: 24ca 3cbf b85e edbd 740d 9e3d 27a8 b83d
00000350: edf2 aabe 7023 3c3d 5bfd 38bd d24f a7bd
00000360: 08d2 c33d 572c 51bd 7dde d1bc b904 4f3d
00000370: 83d6 3dbd 3df4 823e bd44 e03d 8521 c6be
00000380: bbdc f43c c922 43be 6b54 893e e3d5 89be
00000390: 77df 353e 6964 71be ba42 0abc b260 463d
000003a0: 85e4 34bf 65d3 52be 6981 373e 2ba9 af3d
000003b0: 9edd bcbe 2390 f1bc af5f 3c3d d7dd 0dbd
000003c0: 3e76 ecbd cb28 c8be 21ce d03e 81c7 a73e
000003d0: 924d 82be b58e 04bd 9057 0dbd 204d ff3c
000003e0: a0ac 53bf 075a c7bd 0c78 21bd 7add a63c
000003f0: eac4 45be a479 7c3e 13a8 3e3c adf7 2fbc
0.010059308 -0.05282414 0.02350523 -0.74411166 0.14040218 -0.019287568 0.37448177 -0.23808803
-0.05069111 0.30465117 -0.07196117 0.26523578 0.115186386 0.020866686 -0.14487801 -0.074118346
-0.3497806 -0.04382648 0.017973647 0.016934171 0.0753085 -0.006974775 0.2045332 0.02698256
-0.10146081 0.045313336 0.15358952 -0.23815 -0.009536205 0.021031348 -0.6522685 -0.028960561
-0.15408303 -0.026455736 -0.09255725 0.019719493 0.07782428 -0.33010608 0.068524964 -0.05777529
-0.00776771 -0.3381215 -0.127993 0.044495553 -0.019867774 -0.5683924 -0.10891731 -0.088449426
0.06768444 -0.16063736 0.013552975 -0.5733715 -0.3252039 0.4729213 -0.09284048 -0.102643624
-0.067522414 0.1790926 0.015829444 0.050934665 -0.05494496 0.03229776 -0.03880325 0.0733946
-0.6825969 0.33292615 0.04393011 -0.16019337 0.0033814295 -0.0013264847 0.004940163 -0.3474181
-0.026110236 0.04813034 -0.08175662 -0.19863383 -0.026424522 -0.047280118 -0.017394818 0.34101096
-0.032957196 -0.03348103 -0.03545888 0.02139086 0.012136719 -0.09796126 -0.0223478 0.10368669
-0.16664647 0.09003343 0.025903756 0.030372389 -0.09943799 -0.10881989 -0.4364917 0.025998926
-0.41911003 -0.19937934 -0.045326658 0.019389706 -0.8451314 0.14663945 -0.045241237 -0.5347914
0.068811566 -0.005366336 -0.11212742 0.0319377 -0.19296946 -0.036796965 -0.008207005 0.02052914
-0.006793088 0.12983373 -0.018060619 -0.12129472 -0.2289039 0.187358 0.13985218 0.09500324
0.040255543 -0.027574558 -0.15434407 0.045023836 0.033462733 -0.041370373 -0.18547681 -0.5551491
-0.29675388 0.023287943 -0.009520674 0.035348475 -0.1675981 -0.30328608 -0.012978835 -0.03333224
0.17514448 -0.021969888 -0.085638665 0.007743031 -0.13926071 -0.0020177502 0.043434 0.10903956
-0.23522423 -0.074911416 -0.012751839 -0.09810717 0.0036656738 -0.028605284 0.33221185 -0.016752467
0.010190218 -0.14202014 -0.04639974 -0.07832931 0.019528676 -0.003226455 0.23382331 0.13901234
0.008016921 -0.14530201 -0.11829064 -0.055424757 0.03529147 -0.005447817 0.006024522 -0.027090222
-0.3496809 -0.03162333 0.042512972 -0.01657725 -0.017874822 0.1144415 0.086221404 -0.7196852
-0.4818425 0.022343183 -0.44084027 0.0098955035 0.17585416 0.029742775 -0.009397984 -0.031412944
-0.4949336 -0.042264644 0.013342303 -0.064087994 0.042315885 0.17673635 0.11743429 -0.116895065
-0.15470423 -0.013109897 0.1372712 0.033343293 -0.019118961 -0.029816275 -0.3879518 0.030029435
-0.00609086 0.12445797 0.122395985 0.07335764 -0.026307179 -0.016122622 0.2507047 -0.5374728
-0.7374594 -0.11590332 0.0771741 0.090164475 -0.33388463 0.045932233 -0.045163494 -0.081695214
0.09561545 -0.051067676 -0.025618786 0.050541613 -0.046347152 0.25576964 0.10950611 -0.38697448
0.029890409 -0.19056238 0.26822218 -0.26920995 0.17761026 -0.2357346 -0.00843876 0.04843206
-0.70661193 -0.20588453 0.1792046 0.08577188 -0.3688783 -0.029487675 0.04598969 -0.03463539
-0.115459904 -0.39093623 0.40782264 0.32769397 -0.25449806 -0.03236266 -0.034507334 0.031164706
-0.8268528 -0.09733968 -0.039421126 0.02036928 -0.19313398 0.24655777 0.011636752 -0.010740203

bias f4 [300]
00000000: d99e 023e 50a1 70bd da85 9a3e 2bc6 373e
00000010: 59c5 7bbd 44e1 c0bc 1fa9 8c3b 775a 5dbd
00000020: c509 b13e 21ac a73e caab 15bd 24c3 383e
00000030: 0bd0 b53b 10a5 c9bb 2e30 c9bd 45c4 8dbe
00000040: 0461 2b3f 7d95 bcbc 07f7 6ebd fa6b 95bd
00000050: e950 64bd 2ad6 9f3e c1b5 9bbd de1c d93e
00000060: 3fb6 73bd 5283 fcbd 397d 493e c78d c13e
00000070: e64a 29bc efed 4cbd 2173 933c 0b6a ffbc
00000080: 42af 74bb a8de 76bd 4409 d3bc ebe3 d2bc
00000090: 3904 c3bc 2d42 eabc 2f5e 81bd b889 76bd
000000a0: efb0 e13d 6cf8 bfbc 46e0 4bbd 2aab aebc
000000b0: 6f1f 883d 62ce b03e 7f1c 46bd fff7 1bbd
000000c0: 48aa 293c 338f a13d 320c 8cbc ba60 03bc
000000d0: 0697 97bd 9175 273d 13d6 72bd 2459 9c3b
000000e0: 81c4 5bbd 80a5 8c3e 2918 cfbc 51a0 36bd
000000f0: 7f7e 16bd 923a 0e3e 6408 dcbd 14f3 22bd
00000100: f171 77bd e7e1 11bd 7587 8fbb eaa1 73bb
00000110: 4add d0bb 86dc c5bd e4ce 203e 85ce 73bc
00000120: 4131 12be 9925 4a3c acfd 613c a43e a13e
00000130: b2f0 13be e62f 823e 0e79 473c 2937 06bd
00000140: e2dd 56bd 4691 f7ba 4060 a9bc dcaf e83c
00000150: dc0f 383e 2721 25bd 7329 0bbc 9db9 913b
00000160: ab5f 69bd fa3d bfbc ffb3 20bc c30f 1ebd
00000170: f4a9 82bc 69a4 83bd 5e5e d3be 1b98 86bd
00000180: 0a6f d1bc aeba 74bd f5a4 bfbd e991 653d
00000190: 8be8 cbbc ce29 4fbd 8c58 f3bb 6999 f4bc
000001a0: 85fd 093c 2618 c53b d1cc 22bd b151 99bd
000001b0: fadb dbbb abd7 17bd c706 e63e 64f6 e4bb
000001c0: 2f1a 32bd 7472 5cbd 9ee6 37bd 025f 74bd
000001d0: 35b0 b8bb c221 253d c90f 353e 0e30 cf3c
000001e0: fb7e 0cb9 6c49 5ebd 9576 083e f129 ffbc
000001f0: 8448 cb3d 939f 123e fac7 efbd c37d 6abd
00000200: 4833 60bd 9d7a 963e f934 bb3c e022 bc3c
00000210: 4147 943e 2a78 c7bd dd59 15bc d668 4dbd
00000220: e2ed 6abc 90af 28bd ad30 81bd 9eb1 503c
00000230: 559f 30be c888 1abd a6f7 d4bc 5b8c 37bd
00000240: 1387 a7bc ee6e cdbc c243 2d3c d085 af3d
00000250: 2183 313e 0d0a b93c 2d9b f1bc e8ae 68bd
00000260: e069 343e 0580 9839 f87a 563e 8a01 123f
00000270: ce8d 09be d6d7 d73d c090 cdbc 77ac 3dbc
00000280: 3f46 37bd 0a8f 8cbc 46f3 043e 9a03 a83b
00000290: 70c7 dd3e c938 31bd 7a1c a23d 1b9c 38bd
000002a0: dc3b 263c fa3b 483e 19e0 10bd 051d 85bc
000002b0: 524b 82bd f3a4 143e 5e69 3cbd 9506 7abc
000002c0: 531d 35bd a5ba 06be 370e a1bc 11c1 b4ba
000002d0: 0e69 0bbd 9689 12bc 0056 64bd 88ec 223e
000002e0: 906e 873e fce3 4abd 0341 acbb 3e5e 11be
000002f0: 61b9 803c a605 3ebd ed98 493e 1786 f0bd
00000300: 4c1e 84bd b434 20bc 1b9f 8abc cc4a 85bd
00000310: 0291 063d cfa7 4bbc bb84 0c3f b127 71bd
00000320: 5a39 703c a5f6 423e e617 883e ee17 66bd
00000330: 2e28 a4bd 9dba 57bd 42a2 133e f171 8d3e
00000340: 9365 fb3c 4257 83bc 83d3 903e 2afd 57bb
00000350: 30a4 82bd 969b 40bd 15c5 3cbb 99f7 61bd
00000360: 53e6 933e c2fc 64bc 16a9 beba 97bd d53e
00000370: 5d25 3f3d 42b9 debc 21e3 883e 8178 8b3b
00000380: 9f3f 073b 010e 9bbb 8819 383e c83d 953d
00000390: a3b4 1bbc 075f 78bb d066 3b3e 7e9e e13c
000003a0: 0af8 00bd 7160 4b3e 3a05 50bd 3cb3 6cbc
000003b0: daa4 15bc 10ce aabc 8f8b 9dbd 130e 91bd
000003c0: f597 92bd dfa9 b7bb 93af 9bbd eff2 60bd
000003d0: 6f1c a3bc 5048 e53e cf79 c63a 46d3 95bb
000003e0: 1196 2abd 2ae4 80bd 5080 d33e 2c1c 6a3c
000003f0: 812d 763e b37e 2d3e 258b 55bc dfce 5abd
0.12755908 -0.05874759 0.30180246 0.17946689 -0.061467502 -0.023544915 0.0042926217 -0.054041352
0.34577766 0.3274851 -0.036540784 0.1804319 0.0055484823 -0.00615371 -0.09823643 -0.27688804
0.6694491 -0.0230205 -0.058341052 -0.072959855 -0.055741224 0.31218082 -0.07603026 0.42404836
-0.059499975 -0.12329735 0.19676675 0.3780348 -0.010332799 -0.0500316 0.017999234 -0.031178495
-0.0037335907 -0.060270935 -0.025761254 -0.025743445 -0.023805724 -0.028596008 -0.06316792 -0.060189933
0.110200755 -0.023433886 -0.04977443 -0.021321852 0.066466205 0.34532458 -0.04836702 -0.038078304
0.01035554 0.07888641 -0.017095659 -0.008018667 -0.07401852 0.040883604 -0.05928619 0.0047713686
-0.053654198 0.27470016 -0.025280075 -0.044586483 -0.03674173 0.1388953 -0.10743788 -0.0397826
-0.060411397 -0.035615828 -0.0043801614 -0.0037175366 -0.006374036 -0.09661202 0.15703923 -0.014880781
-0.14276601 0.012338066 0.01379339 0.31493104 -0.14447287 0.2542717 0.012174858 -0.03276745
-0.052457698 -0.0018887899 -0.020675778 0.028404169 0.179748 -0.04031482 -0.008493769 0.0044471757
-0.056976 -0.023344982 -0.009808539 -0.03858925 -0.01595018 -0.06427843 -0.41282934 -0.065719806
-0.025565643 -0.059748344 -0.09357635 0.056047354 -0.024891159 -0.050576977 -0.007426327 -0.029858308
0.00842226 0.0060148416 -0.03974611 -0.074862845 -0.006709573 -0.03707091 0.44927046 -0.00698738
-0.043482002 -0.05382009 -0.044897668 -0.05966092 -0.00563624 0.040315397 0.17681803 0.025291469
-0.00013398744 -0.05426924 0.13326485 -0.031147929 0.09925941 0.14318685 -0.117080644 -0.057248842
-0.054736406 0.29390422 0.022852408 0.022965848 0.28960612 -0.09739716 -0.009115663 -0.050148807
-0.014338942 -0.041183054 -0.06308112 0.01273766 -0.1724828 -0.0377281 -0.025996994 -0.044811588
-0.02045015 -0.02507731 0.010575237 0.085704446 0.17335178 0.0225878 -0.029492939 -0.05680743
0.17618513 0.0002908708 0.20945346 0.570336 -0.13433 0.10539214 -0.025093436 -0.011576763
-0.044744726 -0.01715805 0.12983426 0.0051273825 0.4331622 -0.043267045 0.07915588 -0.04507075
0.0101461075 0.19554129 -0.035369966 -0.01624919 -0.063620225 0.14516048 -0.045998923 -0.015260358
-0.04421742 -0.13157137 -0.019660098 -0.0013790448 -0.034035735 -0.008943936 -0.05574608 0.15910542
0.2645154 -0.04953383 -0.0052567734 -0.14196107 0.015713396 -0.046392106 0.19687243 -0.117443256
-0.06451091 -0.00977819 -0.01692157 -0.06508407 0.032853134 -0.012430145 0.5489003 -0.058875743
0.014662111 0.190394 0.26580733 -0.056175165 -0.08015476 -0.052668203 0.14417365 0.27625993
0.030688083 -0.016032819 0.2828637 -0.0032957294 -0.063789725 -0.04702338 -0.0028803993 -0.05516777
0.2888666 -0.013976278 -0.0014546241 0.41746208 0.04666649 -0.027187947 0.26735786 0.0042563085
0.0020637286 -0.004731894 0.1797849 0.072871745 -0.009503516 -0.0037898438 0.18300939 0.027541395
-0.03148655 0.19861008 -0.050786234 -0.01444703 -0.009133542 -0.020850211 -0.07692634 -0.070827626
-0.0715789 -0.005604967 -0.076018475 -0.05491918 -0.01991102 0.44781733 0.0015142503 -0.004572305
-0.04164702 -0.06293519 0.41308832 0.014288943 0.24040796 0.16942863 -0.013033663 -0.053419944

weight f4 [1, 300]
00000000: 69ea f93e 66a2 33bb 9b9e ad3e cde0 243f
00000010: ebcc fbbc e15c ba3b 1589 19bb d5a4 a5bb
00000020: 455e 0dbf cae5 9b3e 2924 9937 1b4a 20bf
00000030: 470f 6fbf eb34 21ba 69b0 5c3e 55df 473f
00000040: ae6b 763f d933 e9bb 9ebf 143e acec e63d
00000050: 54af 9e3b 5018 323f 3fe0 36bd 714e 0bbf
00000060: f35e 67bb af58 903d 2ab9 13c0 9b1d 01c0
00000070: 1eb1 81bc c10f b7bb 9c28 2dbc 5180 8cbb
00000080: fb97 dfbc 84f9 3d3b 5936 a43b e3ea 633b
00000090: 0f5b 553b cd24 a4bc a66d 983f cb09 3a3b
000000a0: 23b4 883f 0d6c c638 645b 51b9 09fa 9dbc
000000b0: 047f eebe 3036 0dc0 ee2f 42ba a08b a7bb
000000c0: bd12 e2bc 1cbe 6fbf 4bd6 b8bb 403a 27bb
000000d0: cb7f 7b3d 79d3 2a3f 26c4 943d 42be af3b
000000e0: d4f1 d1b9 a25d d1be a559 063b fc93 8dbe
000000f0: 240d 07bb ccd7 203e fef9 183e 6827 46bf
00000100: 240f c0bc 31d3 82be cce2 b93b d94f 9dbe
00000110: 939a c0bd 35fd c03e efee 55bf 8653 a9bc
00000120: 64c0 bd3f 67d8 b03b 01dc 9ebd 304f ab3e
00000130: d8df 7a3f 5cf2 4a3f ae3c 8bbb cd1c 83bc
00000140: af6a c7bc 4270 743b 297e a9ba 3ed4 e4be
00000150: 0ad0 a2be 7d93 69bb ee6c 1fbb 5a12 583d
00000160: 54aa ddbc 67d3 b2ba c755 c1bd ddb3 91bb
00000170: 5023 2abc e343 25bc 30de b240 c821 99bc
00000180: eff9 9d3a bfce 19be d0db 5a40 003f 43bf
00000190: 3eb7 79be d910 2e3f 00c9 99bf 8aa3 8abf
000001a0: 36fa 8dbe e74a 2fba fdc0 873b 1a89 a63e
000001b0: 8cc3 523e 12d5 a4bd 0bb5 24bf d7bd ccbd
000001c0: fb7b aebb 38d1 23ba 5c04 823c d3f6 15bb
000001d0: 1023 b537 0c5f 3dbf 8643 64bf 14c0 7dbb
000001e0: 7ed2 0b3c e442 0cbb 95b3 d13e d6ec e83b
000001f0: ddc9 053f aac4 3cbf 9451 0040 8998 b8bb
00000200: 2372 02bb 478b 733f 65af af3e 02c8 9dbe
00000210: b7c7 ddbf a906 ba3e 1425 bb3b 79ca 81ba
00000220: 23e0 64bd a403 d43e d720 2d3c e2dd 19bb
00000230: 9e7a f73f d6ad afbc 4683 e3bd 7d0b 213b
00000240: c40a 093b 809a 62bc ac43 f2be f960 5f3f
00000250: f678 523e f801 0abf c76e cfbd 84bf 8eba
00000260: 3469 d73e 3e9a a33d 908c 513f d092 6cc0
00000270: 82b6 69bf ef4c 313f 094b 23bd ada9 8dbc
00000280: 9d35 86ba d72a fabc 96c4 0abf aed4 28bd
00000290: 9a84 15c0 d544 ffbb 9293 bbbe 05ca e0bc
000002a0: 9a61 db3b d48b 20c0 77c5 563b f8cd acba
000002b0: 1058 94bc 06bd f0bf 9e6f 10bc 30a4 1fbb
000002c0: 948f ff39 c50f 633f 1ccb ddbb f5e8 00bf
000002d0: cc39 37bb 907a dc3c 8d55 483c e032 de3e
000002e0: ffda f5bf c46b ba3a f346 aa3b 6274 45bf
000002f0: 7646 6abb 8f03 1fbe 71ad b9be d4fc 393f
00000300: cc6d 7bbe 9339 aebc 5b7c 523b 596b 04bd
00000310: 9e54 b2bf 4d94 16bd c258 1e40 9ddd 8fbb
00000320: 9599 09bf a6c0 bb3e 4a65 b8bf 0434 87bb
00000330: a68f 91bd 5fa4 b6bb 1ece afbf a2ad 96bf
00000340: 0795 ba3e 0b33 993b 758f 0f3f bdd4 acba
00000350: e15f 3d3b 40f7 83b9 d2e6 383b 7501 39bf
00000360: 29f2 08c0 8be2 543b b6b0 3b3b ce82 20c0
00000370: 226d 01bf e14f d6b8 aeea 1cc0 bd9f 83be
00000380: 90c5 2b3b 9088 78bc e491 153f 0f68 a6bd
00000390: de51 e33a 986e 19bb 2938 10bf a8c2 bb3e
000003a0: cedb b8ba c250 df3e 1bc3 91bb 572d 633c
000003b0: 4e6b 2d3c 508f 193f 752b 6cbe 94db 033b
000003c0: fcb7 1dbb 1a94 d0b9 ad64 57bb d829 eb39
000003d0: c58c 8dbe 6bb8 aebe 9208 c53a c2ff 14bd
000003e0: eee5 3f3e 6c76 33bc e620 a8bf 70d1 18bc
000003f0: de06 afbf ccfa 98be 524c d33e 3a22 51bb
0.48811653 -0.002741003 0.3391007 0.6440552 -0.030737361 0.0056873416 -0.0023427655 -0.00505505
-0.5522197 0.30448753 1.825586e-05 -0.62613076 -0.93382686 -0.0006149548 0.2155167 0.7807515
0.96258056 -0.0071167764 0.14526221 0.1127561 0.004842678 0.6956835 -0.04464745 -0.5441657
-0.0035304397 0.07048165 -2.3081765 -2.017432 -0.015831526 -0.005586595 -0.010568764 -0.0042877574
-0.02729415 0.0028987834 0.0050113616 0.0034777455 0.0032555496 -0.02003708 1.1908462 0.0028387185
1.0679973 9.461502e-05 -0.00019965839 -0.019284265 -0.4658128 -2.2064323 -0.0007407655 -0.00511308
-0.027596826 -0.9364946 -0.00564078 -0.0025516897 0.06140117 0.6672893 0.07263975 0.0053632567
-0.00040043762 -0.4089175 0.002050021 -0.27651966 -0.0020607198 0.1570732 0.14939114 -0.7740388
-0.02344472 -0.2555175 0.0056727882 -0.3072498 -0.09404483 0.37693182 -0.8356771 -0.02066971
1.4824338 0.005396891 -0.07756806 0.33458853 0.9799781 0.7927606 -0.004249177 -0.016004944
-0.024342863 0.0037298356 -0.0012931275 -0.44693178 -0.31799346 -0.0035640888 -0.0024326402 0.052751876
-0.027058758 -0.0013643325 -0.09440189 -0.00444649 -0.010384396 -0.010086986 5.5896225 -0.018692866
0.0012052635 -0.15020274 3.4196663 -0.76268005 -0.24386308 0.6799446 -1.2014465 -1.0831158
-0.27729958 -0.00066868815 0.004142879 0.32526475 0.20582408 -0.080484524 -0.6433875 -0.099971466
-0.005324838 -0.00062491326 0.01587122 -0.0022882714 2.1593209e-05 -0.73973155 -0.8916553 -0.0038719224
0.008534072 -0.0021402175 0.40957323 0.007108311 0.52261144 -0.73737586 2.0049791 -0.005633418
-0.0019904457 0.95134395 0.34313503 -0.30816656 -1.7326573 0.36333206 0.005711207 -0.000990226
-0.055877816 0.41409028 0.010566912 -0.00234782 1.9334295 -0.021445196 -0.11109023 0.0024573498
0.0020910958 -0.013830781 -0.47317255 0.87257344 0.20553955 -0.53909254 -0.10128551 -0.0010890816
0.4207245 0.07988404 0.81855106 -3.6964607 -0.9129411 0.69258016 -0.03986648 -0.017292822
-0.0010239367 -0.030538006 -0.54206216 -0.041218452 -2.3362184 -0.007790188 -0.36636025 -0.02744008
0.0066949846 -2.5085344 0.0032771507 -0.0013183942 -0.018108398 -1.8807685 -0.008815674 -0.0024359338
0.00048744364 0.8869594 -0.0067685973 -0.50355464 -0.0027958034 0.026913911 0.012227428 0.4339819
-1.9207457 0.001422279 0.005196446 -0.7713071 -0.0035747564 -0.15528701 -0.36265138 0.7265141
-0.24553603 -0.021267688 0.0032117579 -0.032328937 -1.3932073 -0.036762524 2.4741673 -0.004390432
-0.5374997 0.36670417 -1.4405911 -0.004126074 -0.07107477 -0.005573794 -1.3734777 -1.1771739
0.36441824 0.0046752742 0.56078273 -0.001318596 0.002889626 -0.00025170483 0.0028213752 -0.7226785
-2.1397803 0.0032483663 0.0028639263 -2.5079837 -0.5055715 -0.00010219194 -2.4518237 -0.25707808
0.0026210286 -0.015169278 0.58425736 -0.08125316 0.0017343124 -0.0023411866 -0.56335694 0.36671948
-0.0014103593 0.436163 -0.004448307 0.01386579 0.010584665 0.599843 -0.23063453 0.0020119892
-0.0024065962 -0.00039783196 -0.0032866404 0.0004485387 -0.2764646 -0.34125075 0.0015032461 -0.036376722
0.18740055 -0.010953527 -1.313504 -0.009327278 -1.3673971 -0.29878843 0.41269165 -0.003191127
