pretrained_models/ddpg_medium1_extended/q.pt (torch, 522573 bytes, 5 tensors)

weight f4 [400, 22]
0	0xbcc73ac6	-0.024320018
1	0xbe7e68f7	-0.24844728
2	0xbfbdf1b3	-1.4839386
3	0xbe5c86a7	-0.21535741
4	0xbdb72351	-0.08942283
5	0xbeab792c	-0.33490884
6	0xbe94af87	-0.29040167
7	0x3df87671	0.12131966
8	0xbd3637e2	-0.044486888
9	0xbe3b1c16	-0.18272433
10	0xbe32def3	-0.17467861
11	0xbddab7af	-0.10679566
12	0xbeb226f0	-0.34795332
13	0xbefd6d58	-0.49497485
14	0xbe897b73	-0.26851997
15	0xbd64ea93	-0.05588777
16	0x3e0e00ed	0.1386754
17	0x3db82251	0.0899092
18	0xbf892cbd	-1.0716778
19	0x3fb486c2	1.4103625
20	0x3e7377a8	0.23776114
21	0x3c023893	0.007948059
22	0x3b67fe7c	0.0035399487
23	0x3e5769bd	0.2103643
24	0xbf16cd21	-0.5890675
25	0xbc5831b5	-0.013195445
26	0x3e50b805	0.20382698
27	0xbe14e425	-0.14540155
28	0xbe1afed5	-0.15136273
29	0xbdabfff3	-0.08398428
30	0x3dbd022f	0.09228932
31	0x3e91a29c	0.28444374
32	0xbdcf1fd7	-0.10113495
33	0xbe19a030	-0.15002513
34	0xbd415a01	-0.047204975
35	0xbde6674b	-0.1125017
36	0xbda80040	-0.08203173
37	0x3e0689f5	0.13138564
38	0x3c253a29	0.010084667
39	0x3ede3c15	0.43405214
40	0x3f068252	0.52542603
41	0xbf469d36	-0.77583635
42	0x3e122d9f	0.14275216
43	0xbdfa93c4	-0.12235215
44	0xbe0a2767	-0.13491593
45	0x3c5955fc	0.013265129
46	0xbd870911	-0.06593526
47	0x3dd6cafd	0.10487936
48	0x3e08dc3a	0.1336526
49	0x3d9b9dd9	0.075984664
50	0x3e35692f	0.17715906
51	0x3e79ec2a	0.24406496
52	0xbe99ff80	-0.30077744
53	0x3f1b7845	0.6073039
54	0x3f9afd39	1.2108527
55	0xbe20d7be	-0.15707299
56	0x3e833278	0.25624442
57	0x3d11b98b	0.03557734
58	0xbda9e777	-0.082961015
59	0xbe204963	-0.15652995
60	0xbe33df5f	-0.17565678
61	0xbdd0d730	-0.10197294
62	0x3b77c89a	0.0037808777
63	0xc0106357	-2.2560632
64	0x3d697627	0.056997444
65	0xb97f870e	-0.00024369007
66	0xbc993625	-0.018702576
67	0xbe45620d	-0.19275685
68	0xbfa82aa7	-1.3138016
69	0x3db55fa7	0.08856135
70	0xbb9c817f	-0.0047761793
71	0xbea04b2c	-0.31307352
72	0xbd894382	-0.06702329
73	0x3d68c588	0.056829005
74	0x3d09c068	0.03363076
75	0x3d899e7b	0.06719681
76	0x3e5af24f	0.21381496
77	0xbea225fd	-0.31669608
78	0x3d1f7796	0.038932405
79	0xbe966c54	-0.29379523
80	0xbc76e534	-0.015069295
81	0x3d6d4555	0.05792745
82	0x3defbd41	0.11706019
83	0xbedc3e45	-0.43016258
84	0x3f25f22a	0.6482264
85	0xbf8caaf5	-1.0989672
86	0xbdcb345f	-0.09922098
87	0xbcb21d9f	-0.02174264
88	0x3dfd8607	0.12379079
89	0x3f3ea2af	0.74466985
90	0x3f1fb757	0.6238913
91	0x3da5c609	0.08094413
92	0x3e75bdb8	0.23998153
93	0x3f813fa4	1.0097547
94	0xbe17daac	-0.1482951
95	0xbe3e4647	-0.18581496
96	0xbe39c77a	-0.181425
97	0x3ef7070e	0.4824757
98	0xbecf5d57	-0.405009
99	0xbe0f951c	-0.14021724
100	0x3e820516	0.25394505
101	0x3f47933d	0.7795904
102	0xbe186b78	-0.14884746
103	0xbd8dc56b	-0.0692242
104	0xbf136b4c	-0.575856
105	0xbefc7cba	-0.4931391
106	0xbcfc411e	-0.030792769
107	0xbf3c2196	-0.7348875
108	0x3b98d318	0.004663836
109	0x3da43c3c	0.08019301
110	0xbe50465d	-0.20339341
111	0x3e1f7803	0.15573125
112	0xc00c2366	-2.1896605
113	0x3e4b1951	0.19833876
114	0x3ea1a2a1	0.31569389
115	0xbe17cae6	-0.14823493
116	0xbc09940e	-0.008397115
117	0x3c3d3f4c	0.011550736
118	0x3d6aa7b9	0.05728886
119	0x3dedcca3	0.11611297
120	0x3e01dd5e	0.12682101
121	0x3be2061c	0.006897701
122	0x3da0645e	0.078316435
123	0x3e28d932	0.16489103
124	0xbe1e7098	-0.15472639
125	0xbe05c7b2	-0.13064459
126	0xbda75774	-0.08170977
127	0xbddadf15	-0.10687081
128	0x3d6f5e63	0.058439624
129	0xbf1d7104	-0.61500573
130	0xbd7e2251	-0.062044445
131	0xbb0425e2	-0.0020164181
132	0xbdf567a0	-0.119826555
133	0xbd9b2f43	-0.07577374
134	0xbe316812	-0.17324856
135	0xbd83c3e1	-0.06433845
136	0x3be57de2	0.007003532
137	0xbd2c0b8f	-0.04200321
138	0xbdf76151	-0.120791085
139	0x3d9229c0	0.071368694
140	0x3f1c283f	0.6099891
141	0x3d6ae93a	0.05735133
142	0x3e8326d2	0.25615555
143	0xbd97485d	-0.07386849
144	0xbf560688	-0.83603716
145	0xbe76a622	-0.24086812
146	0x3e71fa50	0.23630643
147	0xbd8d4446	-0.06897788
148	0xbe9221a6	-0.28541297
149	0xbe1b6360	-0.15174627
150	0xbe94a1dc	-0.2902974
151	0xbe92e726	-0.28691977
152	0xbd1147a4	-0.035468712
153	0x3dff43f1	0.12464131
154	0x3dec1017	0.115265064
155	0xbeb18d2b	-0.34678015
156	0x3f429dca	0.76022017
157	0xbe4f0642	-0.20217231
158	0xbd389e48	-0.045072824
159	0xbe484bec	-0.19560212
160	0x3c8f1825	0.017467568
161	0xbdd47a18	-0.1037485
162	0xbe7b9eed	-0.24572344
163	0xbe8c7e48	-0.27440095
164	0xbdec16e6	-0.11527805
165	0xbd920060	-0.07128978
166	0xbeae218a	-0.34009963
167	0xbc0159b7	-0.007894925
168	0xbe3af7bf	-0.1825857
169	0xbdb48e9b	-0.08816262
170	0x3e660c4b	0.22465627
171	0x3d84d1d2	0.064853325
172	0x3f807991	1.0037099
173	0xbe68a13c	-0.22717756
174	0xbf05da11	-0.5228587
175	0xbb06b702	-0.0020555859
176	0xbd40356b	-0.046925943
177	0xbeacd4bd	-0.33756056
178	0x3ff090a5	1.8794142
179	0xbe2db4c3	-0.16963486
180	0x3e650002	0.22363284
181	0xbe8ead87	-0.27866766
182	0x3e14bae5	0.1452442
183	0x3d595510	0.053059638
184	0x3c50cbc5	0.012743895
185	0xbe43d7c2	-0.19125274
186	0xbd61e94d	-0.055154134
187	0xbd1c0b6e	-0.038096838
188	0x3d3fc662	0.046820052
189	0xbde14b91	-0.11000741
190	0x3e1d5b83	0.1536694
191	0x3e1bd48d	0.152178
192	0xbdbf5c60	-0.09343791
193	0x3d407b19	0.046992395
194	0xbeda8acd	-0.42684022
195	0x3c9d0d31	0.01917133
196	0x3d29f60c	0.041494414
197	0xbbd6fb92	-0.0065607512
198	0xbe55ad14	-0.20866805
199	0xbc1b692b	-0.009485523
200	0xbee7b966	-0.45258635
201	0x3df0ad37	0.11751788
202	0xbdb53de8	-0.08849698
203	0xbe6127ef	-0.2198789
204	0xbdcc4054	-0.09973207
205	0x3e23491c	0.15945858
206	0x3db82835	0.08992044
207	0x3ed16a3b	0.4090136
208	0x3ed15e39	0.408922
209	0xbd1c1a28	-0.038110882
210	0xbcdc0c3a	-0.026861299
211	0xbcf29ba6	-0.029615235
212	0x3e6de562	0.23232034
213	0xbde263fb	-0.11054226
214	0xbd9930b5	-0.07479993
215	0x3f13f2a0	0.5779209
216	0xbf93f4dc	-1.15591
217	0x3e3020f4	0.1720007
218	0x3ebb728f	0.3661084
219	0x3c9db346	0.019250523
220	0xbc7ad327	-0.015309132
221	0x3d97e856	0.074173614
222	0x3f353eae	0.70798767
223	0x3b3a1d8e	0.0028398964
224	0xbe8ea61a	-0.278611
225	0xbd5dcb7e	-0.054149143
226	0xbeb590e4	-0.35462105
227	0xbdc9ee2a	-0.09859879
228	0x3bc92870	0.0061388537
229	0xbd98d852	-0.07463135
230	0x3ea6812d	0.32520428
231	0x3e3f0abb	0.18656437
232	0x3e3cd9c7	0.1844245
233	0x3dc09156	0.09402721
234	0x3df29374	0.11844531
235	0xbdfd9c0b	-0.123832785
236	0x3d06fbfd	0.03295516
237	0xbef70a42	-0.48250014
238	0xbe8c18b0	-0.27362585
239	0x3e3da01b	0.18518107
240	0x3c0145eb	0.007890205
241	0x3dc9b4a5	0.09848908
242	0xbd46f2d0	-0.048571408
243	0xbd88d2f6	-0.066808626
244	0x3e2d709a	0.16937485
245	0xbe290c29	-0.16508545
246	0x3e688079	0.22705258
247	0xbe66fd06	-0.22557458
248	0xbe27d8a3	-0.16391234
249	0xbd181a68	-0.037134558
250	0xbb15f627	-0.0022882314
251	0xbb8d9728	-0.0043209977
252	0xbd993edb	-0.07482692
253	0xbcd7a99a	-0.02632599
254	0x3b3bdaf7	0.0028664449
255	0xbe07d1ca	-0.13263622

bias f4 [400]
0	0x3dd1e986	0.10249619
1	0xbe4068a4	-0.18789917
2	0xbd76c553	-0.060246777
3	0x3b0df1d3	0.002165903
4	0x3e1785f0	0.14797187
5	0x3de36ad2	0.11104359
6	0x3c210b95	0.0098294215
7	0xbd17bea9	-0.037047062
8	0x3cb77580	0.022394896
9	0x3df7d878	0.12101835
10	0x3c96143c	0.018320195
11	0x3df36942	0.11885311
12	0xbdc6504a	-0.09683283
13	0x3e217d43	0.1577044
14	0xbe7916c8	-0.24325097
15	0xbde7c4c6	-0.113168284
16	0xbe7d24ba	-0.24721041
17	0xbdc7ebfb	-0.097618066
18	0xbdcc6223	-0.099796556
19	0xbdd32229	-0.1030925
20	0xbe493076	-0.19647393
21	0x3d8d4aa6	0.06899004
22	0x3ddac141	0.106813915
23	0x3e343fb8	0.17602432
24	0x3d173f67	0.0369257
25	0xbe21b919	-0.15793265
26	0x3c53dbc6	0.012930816
27	0x3d2344b3	0.03986044
28	0xbd9932be	-0.074803814
29	0xbe404f99	-0.18780364
30	0xbe42da2f	-0.19028543
31	0xbe96282e	-0.2932753
32	0xbd0ec072	-0.0348515
33	0x3df93a89	0.12169368
34	0x3dae891f	0.085222475
35	0xbe040f4b	-0.12896459
36	0xbe377b44	-0.17918116
37	0x3cbacef4	0.022803761
38	0xbe0b6886	-0.13614091
39	0xbde114d8	-0.10990304
40	0x3cca9903	0.024731165
41	0xbe33ca2b	-0.1755759
42	0x3e01698b	0.12637918
43	0xbcd24f80	-0.025672674
44	0x3d913973	0.07091036
45	0xbe335fa0	-0.17516947
46	0x3cc09e36	0.02351294
47	0x3dc50a74	0.096211344
48	0xbe189584	-0.14900786
49	0x3d9f697c	0.077837914
50	0xbd523056	-0.051315628
51	0x3d702e0c	0.058637664
52	0x3d8138c2	0.06309654
53	0xbe2d491e	-0.16922423
54	0xbd632a3c	-0.0554602
55	0xbe8e3504	-0.27774823
56	0x3e2b44fe	0.16725537
57	0xbe130714	-0.14358169
58	0xbe3e8c50	-0.18608212
59	0x3dd3f7fd	0.103500344
60	0x3de602a8	0.112309754
61	0x3df72a7a	0.12068649
62	0x3da6777d	0.08128259
63	0xbe66e0ba	-0.22546664
64	0xbd7becaf	-0.061505016
65	0xbb23ecee	-0.0025013047
66	0x3df3bdc9	0.11901433
67	0xbe01b5c8	-0.12667
68	0xbc0d27b7	-0.008615426
69	0x3d27b46c	0.040943548
70	0x3dc9a58e	0.0984603
71	0xbe1927df	-0.14956616
72	0xbe634770	-0.2219522
73	0xbdedadb3	-0.11605396
74	0x3dd0ed72	0.10201539
75	0x3e360770	0.17776275
76	0x3e0ce8c2	0.13760665
77	0x3d227c0a	0.039669074
78	0x3d616802	0.05503083
79	0xbdb9659e	-0.09052585
80	0xbdcb7723	-0.09934833
81	0x3d3cdc91	0.046108786
82	0x3d1e98e9	0.038720045
83	0x3cd77f65	0.026305864
84	0x3d84a823	0.06477382
85	0x3de35c0e	0.111015424
86	0x3d6e09ba	0.058114745
87	0xbc8f388a	-0.017483015
88	0xbe007e54	-0.1254819
89	0xbe090d8d	-0.13384075
90	0xbda00511	-0.07813466
91	0x3df78cb2	0.120873824
92	0x3d76e976	0.06028124
93	0xbdeeecdd	-0.11666272
94	0x3ddfae29	0.1092189
95	0xbd8bcf92	-0.068267
96	0xbdde01db	-0.10840198
97	0x3c2b698f	0.010462179
98	0xbe393b99	-0.18089141
99	0xbe0bb37a	-0.13642684
100	0xbd4ba108	-0.04971412
101	0xbcbb045c	-0.022829227
102	0x3d851df8	0.06499857
103	0xbdac5d44	-0.084162265
104	0xbe37cb06	-0.17948541
105	0xbe8d3aae	-0.27583832
106	0x3e2c0461	0.16798545
107	0x3ca9b51b	0.02071624
108	0xbe8ca56b	-0.27469954
109	0xbe666f89	-0.22503485
110	0xbe25ad42	-0.16179374
111	0x3e330a9a	0.17484513
112	0xbbdcc715	-0.0067375996
113	0xbbb7925b	-0.0056021637
114	0x3dfb1182	0.12259199
115	0xbce0c838	-0.027439222
116	0x3d7cb8d5	0.061699707
117	0xbe8c5a0c	-0.2741245
118	0x3e2d47cb	0.16921918
119	0x3d9ffe95	0.078122295
120	0x3d154bae	0.036449127
121	0x3db44c39	0.08803601
122	0xbd3df563	-0.046376597
123	0xbe1ec466	-0.15504608
124	0xbd851fc0	-0.065001965
125	0xbe7b76a5	-0.24556978
126	0xbdcb290a	-0.09919937
127	0x3d9b33ca	0.07578237
128	0xbcce1faf	-0.025161592
129	0xbdbde179	-0.09271521
130	0x3d9c9a43	0.076466106
131	0xbe98bd99	-0.29832152
132	0xbe5cd9a8	-0.21567404
133	0xbe817d54	-0.2529093
134	0x3e05e09e	0.13073966
135	0xbe1900c5	-0.149417
136	0x3db9380e	0.09043895
137	0x3e436bff	0.19084166
138	0xbd8b16cb	-0.06791457
139	0xbdf9dcde	-0.1220033
140	0x3dff5927	0.12468176
141	0xbe778ca1	-0.2417474
142	0xbe9784c6	-0.29593486
143	0x3cdc2a5e	0.026875671
144	0xbb813981	-0.0039436226
145	0xbe1ba294	-0.15198737
146	0xbdb5a7b4	-0.088698775
147	0x3e0a507e	0.13507268
148	0x3dac214a	0.08404787
149	0xbded64b4	-0.11591473
150	0x3e11c6bf	0.14235972
151	0xbe270182	-0.16309169
152	0xbd91eaf2	-0.071248904
153	0xbbe3b615	-0.006949196
154	0x3d554b70	0.052073896
155	0xbe3a6068	-0.18200839
156	0x3e027270	0.12738967
157	0xbe45cde4	-0.19316822
158	0xbe2abea9	-0.16674294
159	0xbea65b31	-0.3249145
160	0x3d780447	0.060550954
161	0xbe38de1c	-0.18053478
162	0x3de7c49f	0.11316799
163	0xbe46aaeb	-0.19401138
164	0x3d85d15e	0.06534074
165	0x3df92a32	0.12166251
166	0x3e0470ab	0.12933604
167	0xba8e51d5	-0.0010858128
168	0x3d93d412	0.072181836
169	0x3d327339	0.043566916
170	0x3c117e94	0.008880276
171	0x3bd5ef33	0.006528759
172	0xbe1ec7a3	-0.15505843
173	0x3dbed521	0.09317995
174	0xbdadc47e	-0.084847435
175	0x3de0968e	0.10966216
176	0xbc9a6438	-0.018846616
177	0xbc33637d	-0.010949013
178	0x3b3d4ce0	0.0028884932
179	0x3d7e802e	0.06213396
180	0x3d999156	0.07498424
181	0xbe6e63d3	-0.23280267
182	0x3e36512e	0.17804405
183	0xbd6bdd77	-0.057584252
184	0xbe8f91a4	-0.28040802
185	0xbe2d0632	-0.16896895
186	0x3d27abde	0.04093539
187	0x3df9ff09	0.12206847
188	0xbe7a6d1d	-0.24455686
189	0xbd2ee612	-0.04269988
190	0x3dc2e68d	0.0951663
191	0xbe4ef84b	-0.20211904
192	0x3d27642d	0.04086702
193	0xbdd645c9	-0.10462529
194	0x3d03e67d	0.032202233
195	0xbe0b1924	-0.13583809
196	0x3e527777	0.20553385
197	0xbe815607	-0.25260946
198	0x3d843977	0.06456273
199	0xbdbca8b8	-0.09211868
200	0x3d2f8f45	0.04286124
201	0x3cc8e0d7	0.024521274
202	0xbe8b7ca1	-0.27243522
203	0xbe0ae011	-0.13562037
204	0x3d4929b8	0.04911205
205	0x3bc1a8b6	0.0059100045
206	0xbdc03335	-0.09384767
207	0x3e17f2a2	0.14838651
208	0xbd480296	-0.04883059
209	0xbdb01027	-0.08596831
210	0x3c1cd353	0.009571868
211	0xbd15b6e1	-0.03655136
212	0x3c01e427	0.007927931
213	0x3e4d3183	0.20038418
214	0xbe0e0c52	-0.13871887
215	0x3d24c6f9	0.040228818
216	0x3e27c117	0.16382252
217	0xbc8fe47e	-0.017565008
218	0x3e2273b7	0.15864454
219	0x3ce0b818	0.027431533
220	0x3dbcf074	0.0922555
221	0x3e3518ea	0.17685285
222	0x3ccbe251	0.02488819
223	0x3c3b037c	0.011414405
224	0x3d482571	0.048863832
225	0x3de9e4d1	0.114205964
226	0x3d15da82	0.03658534
227	0xbceb5785	-0.028728256
228	0xbe174981	-0.14774133
229	0xbdb488bd	-0.08815143
230	0x3d258a44	0.040415064
231	0xbc9c464e	-0.019076493
232	0xbd1a955a	-0.03774009
233	0xbd2cc3e0	-0.04217899
234	0xbe133f06	-0.1437951
235	0xbde43bc9	-0.111442156
236	0xbaac0ba5	-0.0013126029
237	0x3b75db72	0.0037514833
238	0xbd74a02a	-0.059723057
239	0x3d320201	0.043458942
240	0xbde41626	-0.11137037
241	0xbe83393b	-0.256296
242	0xbd29ddfe	-0.041471474
243	0x3b8556be	0.0040691784
244	0x3de17158	0.11007947
245	0x3d8051f6	0.06265633
246	0xbdc11ae8	-0.0942896
247	0xbe4e94af	-0.20173906
248	0xbdc663f6	-0.09687035
249	0x3d4988c5	0.0492027
250	0xbdad9b6d	-0.08476911
251	0xbe40931b	-0.18806116
252	0xbc82e2ed	-0.015977347
253	0x3d0fd5ab	0.03511588
254	0x3d680107	0.056641605
255	0x3dc6ce48	0.09707314

weight f4 [300, 400]
0	0xbe34ce9f	-0.17656945
1	0xbe84d8d9	-0.25946692
2	0xbea5cef6	-0.3238446
3	0xbe84063a	-0.25786
4	0xbe84a8e3	-0.259101
5	0xbd79f1aa	-0.061021484
6	0xbeb26f6b	-0.3485063
7	0xbf095a85	-0.53653747
8	0xbe147c3b	-0.14500515
9	0xbeb4ff09	-0.35350826
10	0xbde120d2	-0.10992588
11	0x3e2a04bd	0.1660337
12	0x3e842f9c	0.25817573
13	0xbbc71d7b	-0.0060765124
14	0xbe560042	-0.20898536
15	0xbef450d3	-0.47717914
16	0xbe613fd7	-0.21997009
17	0xbceabe11	-0.028655084
18	0xbdac3e61	-0.08410335
19	0x3e3d0141	0.1845751
20	0xbbc44e77	-0.005990799
21	0xbe91a5a1	-0.28446677
22	0x3e38ba18	0.18039739
23	0x3d26c64b	0.04071645
24	0x3df9fe52	0.12206711
25	0xbf10124c	-0.5627792
26	0xbd209f45	-0.03921439
27	0xbeda7bdb	-0.4267262
28	0xbcc3f376	-0.023919802
29	0x3e241fba	0.16027728
30	0x3df8598e	0.12126456
31	0xbe8d1fb1	-0.2756324
32	0x3e124857	0.14285408
33	0xbe8f0084	-0.2793008
34	0xbe840fd6	-0.25793332
35	0xbea72dcd	-0.3265213
36	0xbdb11b09	-0.08647735
37	0x3d811e0b	0.06304558
38	0x3e59d66c	0.21273202
39	0xbe02a002	-0.1275635
40	0xbe128f01	-0.14312364
41	0xbd771839	-0.060325835
42	0x3e94b826	0.29046744
43	0x3c041440	0.008061469
44	0xbe5eefd9	-0.21771182
45	0xbc612c53	-0.013743478
46	0xbd0a8e55	-0.033827145
47	0x3e92f727	0.28704187
48	0xbf3e3400	-0.74298096
49	0x3e161153	0.14655046
50	0x3c2935de	0.010327784
51	0xbf28a09b	-0.65870064
52	0xbccd7e5d	-0.025084669
53	0xbe0a5eb5	-0.1351269
54	0xbd4b0904	-0.049569145
55	0xbe33bc90	-0.175524
56	0xbf40dd29	-0.75337464
57	0x3ea25e95	0.31712785
58	0x3efe83b0	0.49709845
59	0xbdb4c218	-0.08826083
60	0xbf20d46a	-0.6282412
61	0xbdf8aa3c	-0.12141845
62	0x3d4b55bb	0.049642306
63	0xbca0e131	-0.01963863
64	0xbe8506fc	-0.2598189
65	0xbe2dd48b	-0.1697561
66	0xbf3ec668	-0.74521494
67	0xbd47451b	-0.04864989
68	0x3aad8a55	0.0013240079
69	0xbdb4aba8	-0.08821803
70	0xbf34b4b1	-0.70588213
71	0x3ea50fc4	0.3223859
72	0xbe1902f7	-0.14942537
73	0xbde5c6a3	-0.112195276
74	0xbe101f79	-0.14074506
75	0xbf2980a7	-0.6621193
76	0x3e0a51c8	0.1350776
77	0xbeb63928	-0.35590482
78	0xbe0cd4e2	-0.13753083
79	0xbd4b3bb1	-0.049617473
80	0xbe36fef8	-0.178707
81	0x3e13ebb0	0.14445376
82	0xbd769c43	-0.060207617
83	0xbe509165	-0.20367964
84	0xbdf223ab	-0.118232094
85	0xbc6d26df	-0.0144746
86	0xbd9148d7	-0.07093971
87	0xbf43cd40	-0.7648506
88	0x3e92bf78	0.28661704
89	0xbba9df55	-0.005184094
90	0xbe5bb386	-0.21455202
91	0xbe170f6d	-0.14751978
92	0xbbcbc0d3	-0.006218055
93	0xbe8df2fc	-0.27724445
94	0xbea1a99a	-0.31574708
95	0x3e8b0e2e	0.27159256
96	0xbeb596b2	-0.35466534
97	0x3e4e4056	0.2014173
98	0x3e912de9	0.2835534
99	0xbda1d31d	-0.07901595
100	0x3e3e7e25	0.18602808
101	0xbe562896	-0.2091392
102	0x3e22b914	0.15890914
103	0xbdcc67f1	-0.09980763
104	0x3d515373	0.051104974
105	0xbd236070	-0.03988689
106	0xbf18a166	-0.59621274
107	0xbed48461	-0.41507247
108	0x3dd68774	0.104750544
109	0xbe7e21d3	-0.2481759
110	0x3ed270ba	0.4110163
111	0x3de85396	0.11344068
112	0x3dcb1612	0.09916319
113	0xbe44228d	-0.19153805
114	0xbf291a13	-0.6605541
115	0xbe18250c	-0.14857882
116	0x3e59e954	0.21280414
117	0xbe3dd55f	-0.18538426
118	0xbe95a6a1	-0.2922869
119	0xbd4a8772	-0.049445577
120	0xbd78ae09	-0.060712848
121	0xbe19fd94	-0.15038139
122	0xbd88b977	-0.066759996
123	0xbe47bcc5	-0.19505604
124	0xbeab8902	-0.33502966
125	0x3ee1b5b4	0.4408394
126	0xbe2df2cd	-0.16987152
127	0x3ebdb7ff	0.3705444
128	0xbcf3efb1	-0.02977738
129	0xbf115638	-0.56772184
130	0xbe8d5f41	-0.27611735
131	0xbdb0197d	-0.085986115
132	0xbbbee3be	-0.005825489
133	0xbde53da9	-0.11193401
134	0x3d10a182	0.035310276
135	0x3e67cf77	0.22637735
136	0x3c906e47	0.01763071
137	0x3c167cca	0.0091850255
138	0xbea45812	-0.32098442
139	0x3e46c5b0	0.1941135
140	0xbe9dccf3	-0.30820426
141	0xbd33c095	-0.043884832
142	0xbe18a9c4	-0.1490851
143	0xbe132935	-0.14371188
144	0x3d18425b	0.037172657
145	0xbe81411b	-0.25244984
146	0xbe877963	-0.26459798
147	0xbe413e70	-0.18871474
148	0x3df3155b	0.118693076
149	0xbdf524d7	-0.11969917
150	0x3d9577c9	0.07298238
151	0xbd3ea750	-0.04654628
152	0xbea36928	-0.31916165
153	0x3e73effe	0.23822019
154	0xbddc6d9f	-0.10763096
155	0x3e519007	0.20465098
156	0x3cde7a7f	0.02715802
157	0xbd5c1f6a	-0.053740896
158	0x3e990708	0.29888177
159	0x3f605ce2	0.8764173
160	0xbe9ede25	-0.31028858
161	0xbe636fe7	-0.22210656
162	0xbdd3dd87	-0.10344987
163	0xbe93996b	-0.28827986
164	0xbef44a14	-0.47712767
165	0x3da3c0aa	0.07995732
166	0xbddb22ac	-0.106999725
167	0xbce51cef	-0.027967898
168	0xbec19955	-0.37812296
169	0x3dcaac83	0.09896185
170	0x3d0fa7af	0.035072025
171	0xbd1ec046	-0.038757585
172	0xbe96331a	-0.29335862
173	0xbccabfad	-0.024749601
174	0xbe81176c	-0.25213182
175	0x3c3bd796	0.011464974
176	0xbe321271	-0.17389847
177	0xbc54eec6	-0.012996381
178	0xbed32ff5	-0.41247526
179	0xbcbdb79a	-0.023158837
180	0xbdb7e4e1	-0.08979202
181	0xbd9a36c5	-0.07529978
182	0xbda40548	-0.0800882
183	0xbf7f4134	-0.9970887
184	0xbc212a49	-0.009836742
185	0xbc804230	-0.01565656
186	0xbb5dabe9	-0.003382439
187	0xbe1256d4	-0.14290935
188	0xbe317620	-0.17330217
189	0x3d2af1b8	0.041734427
190	0x3eb6f57b	0.35734162
191	0x3f15e63d	0.5855444
192	0xbfaa0e2e	-1.3285577
193	0x3ce9c510	0.02853635
194	0x3f27c03c	0.655277
195	0x3c1acd88	0.0094484165
196	0xbdd1d4d4	-0.10245672
197	0xbe0102f6	-0.12598786
198	0x3e1adb00	0.15122604
199	0x3e209aad	0.15684004
200	0xbe7248b3	-0.23660545
201	0xbfb1f245	-1.390206
202	0xbd34d03e	-0.044143908
203	0x3e4c5055	0.19952519
204	0x3e5d0995	0.21585687
205	0xbed36063	-0.41284475
206	0xbf2d5928	-0.67714167
207	0xbd890dc1	-0.066920765
208	0xbb647a98	-0.003486311
209	0x3de3c659	0.11121816
210	0xbe5b827e	-0.21436498
211	0xbe0493b1	-0.12946965
212	0xbe079cef	-0.13243459
213	0xbe671534	-0.22566682
214	0xbd53e5c7	-0.051732805
215	0xbe407ec7	-0.18798362
216	0xbe989b60	-0.29806042
217	0xbd6ef8fa	-0.05834291
218	0xbe8b6416	-0.27224797
219	0xbe14993b	-0.14511578
220	0xbebc9ab0	-0.36836767
221	0xbb2be788	-0.0026230533
222	0xbdfe6f6a	-0.12423594
223	0xbde7f4ce	-0.1132599
224	0x3c8c4710	0.017123729
225	0x3ddff047	0.10934501
226	0xbf7cd3ae	-0.987605
227	0xbd5f621c	-0.054536924
228	0xbd5cc2d0	-0.053896725
229	0xbdecc2d9	-0.11560602
230	0x3e8dad8a	0.27671462
231	0x3ca2e1cd	0.01988306
232	0xbd1e61f1	-0.038667623
233	0x3d36d1ba	0.044633605
234	0xbe418a8f	-0.18900512
235	0x3dd7b3fd	0.10532377
236	0x3dda3be3	0.10655954
237	0xbe6e7d4a	-0.23289981
238	0xbf1b828d	-0.6074608
239	0xbf5da998	-0.86586905
240	0xbe806e77	-0.25084278
241	0xbe99f16e	-0.3006701
242	0xbbbd1a33	-0.0057709455
243	0xbd77d5dc	-0.060506687
244	0xbe096a12	-0.13419369
245	0xbf696ca0	-0.91181374
246	0xbda74ec9	-0.08169324
247	0x3c1bc4ad	0.00950734
248	0xbd124d15	-0.035718042
249	0x3c80ba37	0.015713794
250	0x3d5fd9f1	0.054651204
251	0x3d77a4f9	0.060460065
252	0xbf9276b0	-1.144247
253	0xbde39596	-0.11112516
254	0x3e6c316d	0.2306573
255	0xbe1ad257	-0.15119301

bias f4 [300]
0	0x3e3014a2	0.17195371
1	0xbd46a3f5	-0.048496205
2	0xbc8ec2cc	-0.01742687
3	0x3e7df61c	0.24800915
4	0x3e10316d	0.14081354
5	0xbbda2d94	-0.0066582654
6	0x3e4d2424	0.20033318
7	0xbcf2e483	-0.029649979
8	0x3e2e6a01	0.17032625
9	0x3e323100	0.17401505
10	0xbd870613	-0.065929554
11	0x3d2b8990	0.041879237
12	0x3d07db59	0.03316817
13	0x3e4b369e	0.19845054
14	0x3e8573bd	0.26064864
15	0xbe4f597c	-0.2024898
16	0x3d852133	0.06500473
17	0xbc76747b	-0.01504242
18	0x3e213b11	0.15745188
19	0x3e3a145d	0.1817183
20	0x3c636b03	0.013880494
21	0x3d3ca78f	0.046058234
22	0x3e242408	0.1602937
23	0x3cfeb799	0.031093406
24	0x3da65675	0.08121959
25	0x3e60fc52	0.21971253
26	0xbd355d07	-0.04427817
27	0x3dbf5a13	0.09343352
28	0x3de5614f	0.11200201
29	0x3e0df31a	0.13862267
30	0x3ac23871	0.0014817846
31	0x3e1cabe2	0.15299943
32	0x3e34f1d7	0.1767038
33	0x3dffd554	0.12491861
34	0x3da0eb0f	0.07857334
35	0x3d86fba8	0.06590968
36	0x3e0db086	0.1383687
37	0xbe24be8c	-0.16088313
38	0x3d89412f	0.06701886
39	0x3e34899c	0.17630619
40	0x3e7b7ad6	0.24558577
41	0xbd392c72	-0.045208402
42	0x3d0f24b3	0.03494711
43	0x3e0b394b	0.13596074
44	0x3db6a94f	0.08919012
45	0x3e2735fa	0.16329184
46	0x3dce2b80	0.10066891
47	0xbadaa8f3	-0.0016682431
48	0x3e56fd02	0.20994952
49	0x3cd56c12	0.026052509
50	0xbe015704	-0.1263085
51	0x3dcaa20b	0.098941885
52	0xbe99a860	-0.30011272
53	0xbe06c567	-0.1316124
54	0x3d8a4762	0.067518964
55	0x3dd431c0	0.103610516
56	0xbdf3d73c	-0.11906287
57	0x3e35f78c	0.17770213
58	0x3e5219d3	0.20517664
59	0xbe33b5de	-0.17549846
60	0x3de789c8	0.113055766
61	0x3dfc21a1	0.12311102
62	0xbdc39f26	-0.095518395
63	0x3e44a0dc	0.19201988
64	0xbd43bc2c	-0.047786877
65	0x3e0bb78d	0.13644238
66	0x3c2a8784	0.010408286
67	0x3dce7c7d	0.10082338
68	0x39390a2b	0.00017646763
69	0x3cd6bcd6	0.02621309
70	0x3bcda146	0.006275329
71	0x3e27201d	0.16320844
72	0xbc83880a	-0.01605608
73	0x3dc58435	0.09644357
74	0x3e301317	0.17194782
75	0xbb272011	-0.002550129
76	0x3bda6d1d	0.0066658393
77	0x3e0805c7	0.13283454
78	0x3cd1118a	0.025521059
79	0xbd442a69	-0.047892008
80	0x3df3056a	0.11866267
81	0x3e83e203	0.2575837
82	0xba61eea2	-0.0008618628
83	0xbcf850b4	-0.03031192
84	0x3d2afe33	0.04174633
85	0xbbc124d4	-0.005894283
86	0x3e028e03	0.12749486
87	0x3d0c2c6c	0.03422205
88	0xbc76f5dd	-0.015073267
89	0x3b9030b9	0.0044003394
90	0xbcdd7407	-0.027032865
91	0x3d960471	0.07325066
92	0x3d8d87b0	0.06910646
93	0xbe8ddcc3	-0.2770749
94	0x3e2c5482	0.16829112
95	0x3e642968	0.2228142
96	0xbd9d8df3	-0.0769309
97	0x3e3c5c4f	0.18394588
98	0xbc353c5b	-0.011061753
99	0x3e35a4bd	0.17738624
100	0x3defb615	0.11704651
101	0x3e1a316e	0.15057918
102	0x3e3e4aef	0.18583272
103	0x3e2df7c6	0.1698905
104	0x3e095b7f	0.13413809
105	0x3e011d12	0.12608746
106	0x3e22cb47	0.15897857
107	0x3d381cb5	0.044949252
108	0x3dd456a1	0.10368086
109	0x3e43e0d7	0.19128738
110	0x3e3d9fcb	0.18517987
111	0x3d0f98ad	0.035057712
112	0xbca82f45	-0.020530352
113	0xbe3de512	-0.18544415
114	0x3e099429	0.13435425
115	0x3d853fd0	0.06506312
116	0x3c1d16cd	0.009587956
117	0x3e620fdd	0.22076364
118	0x3cad54d8	0.02115862
119	0x3e820172	0.25391728
120	0xbadbfc6e	-0.0016783604
121	0xbba02d4a	-0.0048882114
122	0x3e0ff4a6	0.1405817
123	0xbcbab198	-0.022789761
124	0x3d4852fe	0.048907273
125	0x3d12620a	0.03573803
126	0x3e7132ff	0.2355461
127	0xbbbac262	-0.005699442
128	0x3c057fe4	0.008148167
129	0x3e69d271	0.22834183
130	0x3d30a125	0.04312243
131	0x3e3d04e8	0.18458903
132	0xbdd00348	-0.10156876
133	0x3e29f685	0.16597946
134	0x3dab5423	0.08365657
135	0x3e2e8b74	0.17045385
136	0xbe80100d	-0.25012246
137	0xbdb1ec3b	-0.086876355
138	0xbb958c29	-0.0045638275
139	0x3d3b9723	0.045798432
140	0x3e590a0f	0.21195243
141	0xbe98fc03	-0.2987977
142	0xbbe70d6c	-0.0070511606
143	0x3dd5d27b	0.104405366
144	0x3ded5995	0.11589352
145	0x3d92f3d7	0.07175415
146	0x3dfd5081	0.123688705
147	0x3d4debe6	0.0502738
148	0x3d5bdfe9	0.053680334
149	0x3c7a7c48	0.01528842
150	0xbd462965	-0.04837932
151	0x3e196e9c	0.149836
152	0x3c22e3e2	0.009942027
153	0x3e4e3bcf	0.20140003
154	0xbabf743e	-0.0014606786
155	0xbd750341	-0.059817556
156	0x3e44b0fa	0.19208136
157	0xbd20e805	-0.03928377
158	0x3e09cbdc	0.13456672
159	0x3e0d1b50	0.1377995
160	0xbc1a87a8	-0.009431757
161	0x3dd7b0cc	0.10531768
162	0x3cc50820	0.024051726
163	0x3e258882	0.16165355
164	0x3b85ef67	0.004087377
165	0x3d3e75d5	0.046499092
166	0xbe74302f	-0.23846506
167	0x3e2dc3dc	0.16969246
168	0xbd86c813	-0.0658113
169	0xbc869229	-0.016427116
170	0x3d91b3e9	0.07114393
171	0x3e031b68	0.12803423
172	0x3d4919a0	0.049096704
173	0x3e2475a3	0.160605
174	0x3e0ea970	0.13931823
175	0x3e2332d1	0.15937354
176	0xbcdec946	-0.027195584
177	0x3cbad814	0.022808112
178	0xbd2281c0	-0.03967452
179	0xbc2826f1	-0.010263191
180	0x3ce6281f	0.028095303
181	0x3e18126a	0.14850774
182	0x3e10d66f	0.141443
183	0x3e56eb2b	0.20988147
184	0x3e3184b9	0.17335786
185	0x3e096828	0.13418639
186	0x3df8a89e	0.12141536
187	0xbd09dd0e	-0.03365808
188	0x3e44346c	0.19160622
189	0x3cdb9d68	0.026808456
190	0x3d455ad5	0.048182327
191	0x3e28e619	0.16494025
192	0x3e9ceca0	0.3064928
193	0x3ca813b9	0.020517217
194	0x3daab2e8	0.08334905
195	0xbd63d9eb	-0.055627745
196	0xbcaf41b9	-0.021393644
197	0x3b176e20	0.002310641
198	0xbb99bd8d	-0.0046917857
199	0x3d534b88	0.051585704
200	0x3e791cf3	0.2432745
201	0x3e385a6f	0.18003248
202	0xbd621654	-0.055197075
203	0x3cfbf73f	0.030757545
204	0xbe74141d	-0.23835798
205	0x3e00bff4	0.12573224
206	0x3e2e782b	0.17038028
207	0x3e531b05	0.20615776
208	0x3e8baa8b	0.2727855
209	0x3d52146f	0.05128902
210	0x3de35d1a	0.11101742
211	0x3e0ee964	0.13956219
212	0x3c194961	0.009355874
213	0xbcc4406c	-0.0239565
214	0x3dc00b94	0.09377208
215	0x3d70f931	0.058831397
216	0x3d4f733e	0.050647013
217	0x3e71e364	0.23621899
218	0x3d7bf6d9	0.06151471
219	0xbd675ff9	-0.05648801
220	0xbe0b7c96	-0.13621745
221	0x3e3d4598	0.18483579
222	0x3dd125e2	0.10212304
223	0x3e48411f	0.19556092
224	0x3e6b3d84	0.22972685
225	0x3e44c197	0.19214474
226	0xbd28a7fb	-0.041175824
227	0x3e4aaebd	0.1979322
228	0x3e5454da	0.20735493
229	0xbca968b9	-0.020679818
230	0x3d558f21	0.05213845
231	0xbdd3ec10	-0.1034776
232	0x3d64541b	0.05574427
233	0x3cb3cd8a	0.021948595
234	0x3d85f961	0.06541706
235	0x3c9f6bb1	0.019460531
236	0x3e0eddf4	0.13951856
237	0x3e75b05b	0.23993056
238	0x3e59f9f4	0.21286756
239	0xbc02c5e4	-0.007981751
240	0x3dea2a04	0.11433795
241	0xbd68dc5b	-0.056850772
242	0x3b23707f	0.002493888
243	0x3dc821cd	0.09772072
244	0xbd45b6ff	-0.04827022
245	0x3dbd7a9f	0.09251904
246	0xbd1d7e37	-0.038450446
247	0x3e4a749f	0.1977105
248	0x3d0fa055	0.035065014
249	0x3d85865e	0.06519769
250	0x3dbcafc2	0.09213211
251	0xbd8f6efa	-0.07003589
252	0x3a66372a	0.0008782024
253	0xbe0ce1e6	-0.13758048
254	0x3e2b1985	0.16708954
255	0xbe3bb6ae	-0.18331406

weight f4 [1, 300]
0	0xbf8e90a9	-1.1137897
1	0xbb96f3dd	-0.0046067075
2	0xbb4146df	-0.0029491705
3	0xbef3742d	-0.47549573
4	0x3ea2bdd2	0.31785446
5	0xbfdb7fe5	-1.7148405
6	0x3dc42cbb	0.09578844
7	0xbf1ad04e	-0.604741
8	0xbfe00863	-1.750256
9	0xbffef396	-1.9918087
10	0xbf3e6cf6	-0.7438501
11	0xc00a691c	-2.1626654
12	0xbf1469e7	-0.57974094
13	0xbed00de9	-0.40635613
14	0x3ea23bdf	0.31686303
15	0xbedec7ac	-0.43511713
16	0x3e8967fb	0.26837143
17	0xbfaef46c	-1.3668342
18	0x3ecf38e8	0.40473104
19	0xbf5bda26	-0.85879743
20	0x3aae8881	0.0013315828
21	0xbede9428	-0.4347241
22	0xbf85befa	-1.0448906
23	0x3e8b6351	0.2722421
24	0xbf8d0baf	-1.101919
25	0xbf22beba	-0.63572276
26	0x37050920	7.929542e-06
27	0xbf2766ad	-0.65391046
28	0xbf617357	-0.8806662
29	0xbe2dfa70	-0.16990066
30	0x3f179fb0	0.5922804
31	0x3e96910e	0.29407543
32	0xbee1cb69	-0.44100502
33	0xbff88142	-1.9414446
34	0xbfc70513	-1.5548424
35	0xc008ef55	-2.1396077
36	0xbe0d9fb3	-0.13830452
37	0x3ea87573	0.32902107
38	0xc00e4ae1	-2.2233202
39	0x3dbaa44f	0.091133706
40	0xbf1396cf	-0.5765199
41	0xbeb4983b	-0.35272393
42	0xbf6ac4c3	-0.91706485
43	0xbffcbf2c	-1.9745841
44	0xbf2562a9	-0.6460367
45	0xbf04e4de	-0.51911724
46	0xc00b0d54	-2.1726885
47	0xbddfe44e	-0.109322175
48	0xbcb0e261	-0.02159232
49	0xbeeae6fc	-0.45879352
50	0xbe649289	-0.22321524
51	0xbfe2398d	-1.7673813
52	0xbf0669aa	-0.5250498
53	0xbf4ac7c0	-0.79211044
54	0xc0342023	-2.8144615
55	0xbfb090a5	-1.3794142
56	0xbecc505b	-0.39905056
57	0xbff9f306	-1.952729
58	0xbf7dfe8d	-0.9921654
59	0xbf52157b	-0.82064027
60	0xbf7e0bd9	-0.9923683
61	0xbdb411df	-0.08792471
62	0xbea89f88	-0.32934213
63	0xbf59e9ab	-0.85122174
64	0x3bb4aa50	0.005513467
65	0x3dd60ae3	0.10451295
66	0xc00440f3	-2.0664642
67	0xbffdc20e	-1.9824846
68	0x3afd5236	0.0019326869
69	0xbf935adc	-1.1512103
70	0xc03a37cb	-2.9096553
71	0xbf199216	-0.59988534
72	0xbb15838c	-0.0022814004
73	0xbea56c67	-0.32309267
74	0xbfa2cf64	-1.271954
75	0x3b2e606c	0.0026607765
76	0xc0014902	-2.020081
77	0x3d973498	0.07383078
78	0xbe967f68	-0.29394078
79	0xba92af97	-0.0011191246
80	0x3e9da2c8	0.30788255
81	0xbfcf0aba	-1.6175148
82	0xc014297e	-2.3150325
83	0x3aa62478	0.0012675663
84	0xbf8965e8	-1.0734224
85	0xbb9f924c	-0.004869735
86	0xbf0bdf28	-0.54637384
87	0xbf945df4	-1.1591172
88	0x3b1527dd	0.0022759356
89	0xba1d4435	-0.00059992383
90	0x3e97bb97	0.29635307
91	0xbffaa75a	-1.9582322
92	0xbf0e9553	-0.556966
93	0xbf9a7cbf	-1.206932
94	0xbfb648c4	-1.4240956
95	0xbfc0ad0b	-1.5052809
96	0xbfa62844	-1.2981038
97	0xbfc684f0	-1.5509319
98	0xbb5fd08c	-0.0034151403
99	0x3e752cce	0.23942873
100	0xbfb5aad6	-1.419276
101	0xbf0bdaed	-0.5463093
102	0xbf9b12df	-1.2115134
103	0xbf060671	-0.5235358
104	0xbf7bafdd	-0.9831522
105	0xbfc49adf	-1.5359763
106	0xbfa3bf09	-1.2792674
107	0xbe340747	-0.17580901
108	0xbfa3ab08	-1.278657
109	0xbe94e5cc	-0.2908157
110	0x3db7a358	0.08966702
111	0xbfad97c5	-1.3561941
112	0xbdfdc03a	-0.1239018
113	0x3fb77274	1.4331803
114	0x3e0ac501	0.13551714
115	0xbe238a1c	-0.15970653
116	0xbf57f712	-0.84361374
117	0xbfba5325	-1.4556624
118	0xc012f3ee	-2.2961383
119	0xbf3aade9	-0.72921616
120	0xbf912d71	-1.1341993
121	0x3ac08623	0.0014688413
122	0xbe8b7600	-0.27238464
123	0xbfb6b8f0	-1.4275188
124	0xc0378999	-2.8677733
125	0xbf64ef29	-0.8942743
126	0xbf68a663	-0.90878886
127	0xb8f972ed	-0.00011894652
128	0xbfa6e6eb	-1.303922
129	0x3e5316e2	0.20614198
130	0xbf992363	-1.1963924
131	0xbfcd6be7	-1.6048554
132	0xbf0a26f3	-0.5396568
133	0xbfea1343	-1.8287128
134	0xbff3edda	-1.9056962
135	0xbfe9cc93	-1.8265556
136	0xbf484f47	-0.7824597
137	0xbec95631	-0.3932357
138	0xc023fd01	-2.5623171
139	0xbfc72d31	-1.5560666
140	0x3db354f7	0.0875644
141	0xbf8ac9ee	-1.0842874
142	0xbf908166	-1.1289489
143	0xbf281fc6	-0.6567348
144	0xbf8b8821	-1.0900918
145	0xbf5f2605	-0.8716739
146	0x3e3fc1b3	0.18726234
147	0xc009a278	-2.1505413
148	0xc01df0e8	-2.4678288
149	0xbfa0a22f	-1.2549495
150	0xbac73c86	-0.0015200533
151	0xbf36ca3f	-0.71402353
152	0xc0206586	-2.5061965
153	0x3e4a6d14	0.19768173
154	0xb8fac836	-0.00011958221
155	0xbad97667	-0.0016591073
156	0xbe0b94ed	-0.1363103
157	0xba1540d8	-0.00056935614
158	0xbfeaab30	-1.8333492
159	0xbef0f8df	-0.47064874
160	0xc003d8d3	-2.060109
161	0x3e7d116e	0.2471368
162	0xc011420e	-2.2696567
163	0x3e0cf158	0.1376394
164	0xbafc1c32	-0.0019234477
165	0xbf75a62d	-0.9595669
166	0xbf624835	-0.8839143
167	0xbff282f0	-1.8946209
168	0xbe767193	-0.24066763
169	0x3bb731e6	0.005590665
170	0xc01f2d56	-2.487142
171	0xbfdeaf3b	-1.7397226
172	0x3e9d9be6	0.30783004
173	0xbfd0a708	-1.6300974
174	0xbf3c395d	-0.7352503
175	0xbf883158	-1.0640059
176	0xbabd17a4	-0.0014426601
177	0xbe505ec9	-0.20348658
178	0x3bdf5100	0.006815076
179	0xbe94c4d1	-0.2905641
180	0xbec96b58	-0.3933971
181	0x3d886789	0.06660373
182	0xbf9ec725	-1.2404524
183	0xbfcf15ae	-1.6178491
184	0xbfd20b66	-1.6409729
185	0xbfa9f5dd	-1.3278157
186	0xbff70eb8	-1.9301367
187	0xbaab9ffb	-0.0013093943
188	0xbfd959fd	-1.6980587
189	0xbffe8ba5	-1.9886366
190	0x3e187e66	0.14891967
191	0xbf1fc0cc	-0.6240356
192	0xbe3da375	-0.18519385
193	0xbfe371e8	-1.7769136
194	0xbfb3e7e6	-1.4055145
195	0xbdece3e2	-0.11566903
196	0x3b1b0df8	0.002365945
197	0x3e2979ce	0.16550371
198	0xbf1f7f86	-0.6230396
199	0x3ea2f307	0.3182604
200	0xbf46b358	-0.77617407
201	0x3d812855	0.06306521
202	0x3afaf660	0.0019146912
203	0xc00daf51	-2.2138255
204	0xbf63b9b3	-0.8895523
205	0x3e7145c9	0.23561777
206	0x3ee8e93a	0.45490438
207	0x3d981366	0.07425575
208	0x3ea90b08	0.3301623
209	0xbe6254f3	-0.22102718
210	0xbfd90066	-1.6953247
211	0x3d917028	0.0710147
212	0xbb0ceebe	-0.0021504606
213	0xba1c0ffd	-0.000595331
214	0x3ea9a9ae	0.33137268
215	0xc00555c5	-2.08336
216	0xbf09b4b1	-0.5379134
217	0x3e9c2e06	0.30503863
218	0xbd3ed780	-0.046592236
219	0xbe2df534	-0.16988069
220	0xbf69b166	-0.91286314
221	0xbfc3af51	-1.5287877
222	0xbffd1f3d	-1.9775158
223	0xbf87e091	-1.0615407
224	0xbf1bc30e	-0.60844505
225	0xbfe6b793	-1.8024772
226	0xba8cff01	-0.001075715
227	0xbf8e5343	-1.111916
228	0x3fb92158	1.4463301
229	0xba3ff6fd	-0.0007322876
230	0xbe692d9d	-0.22771306
231	0xbaf4da16	-0.0018680717
232	0xbfb47d5b	-1.4100755
233	0xbf9dae22	-1.2318766
234	0x3e7223af	0.23646425
235	0xc03aec83	-2.9206855
236	0xbe0676be	-0.13131234
237	0xbf59eab7	-0.8512377
238	0xbed8b3a0	-0.42324543
239	0x3f109d21	0.5648976
240	0x3e725765	0.23666151
241	0xbeb5bdfd	-0.35496512
242	0x3b6e4c14	0.0036361264
243	0xbfe36dca	-1.776788
244	0x3b30c75c	0.0026974296
245	0x3ef30e36	0.4747178
246	0xbe06fd30	-0.13182521
247	0xbe196b1a	-0.14982262
248	0xbf83aa66	-1.0286376
249	0x3ea9bfd6	0.33154172
250	0xbfebd614	-1.8424706
251	0xbf0c0b76	-0.5470499
252	0x3923d9b8	0.00015625998
253	0xbf090dc5	-0.53536636
254	0xbf69743f	-0.91193
255	0x3f0a4394	0.54009366
