pretrained_models/ddpg_low1_extended/policy.pt (torch, 521619 bytes, 5 tensors)

weight f4 [400, 21]
000000 ba 9b 3b be 1a 5d 22 3e 80 35 93 be 42 95 b4 bd
       -0.18321124 0.15855828 -0.28751755 -0.08817531
000010 e2 34 cb bd c2 1a bd bb 40 ec e7 be b9 eb 72 bc
       -0.09922196 -0.005771012 -0.45297432 -0.0148267085
000020 f2 86 fc 3e 4d d8 73 3e da c8 5b 3d ce 07 83 be
       0.49321705 0.23812981 0.053658344 -0.25591892
000030 ce b2 f6 bd 46 64 a3 3e 8e af e9 bd 31 c5 8c bd
       -0.12045823 0.3191244 -0.114104375 -0.06873549
000040 a9 0a 31 bd 13 4c b4 be 2a 80 07 be ca fe 75 bd
       -0.043223057 -0.3521429 -0.13232484 -0.06005744
000050 8b a6 b6 be 36 48 23 bd 31 ed 7c 3f c1 92 1a 3f
       -0.35673937 -0.039863788 0.98799425 0.6038018
000060 26 a9 5a 3d 36 5e 30 3e f2 d9 6f 3f 53 f4 ef 3d
       0.05338397 0.17223439 0.93691933 0.11716523
000070 8a 99 0a 3e b2 2e 2f be 81 8c 52 3f 07 50 12 3f
       0.13535133 -0.17107657 0.8224564 0.5715336
000080 e3 a3 3c 3d cc 24 62 3e c6 2a 1c 3f 08 cf e4 3e
       0.046054732 0.2208435 0.6100277 0.44689202
000090 87 e6 e7 3d 53 2f 90 be f5 81 a0 3f 8a 37 a8 be
       0.113232665 -0.28161106 1.253966 -0.32854873
0000a0 1c de a6 be 1c 22 4a bd b6 aa 88 bc bd c7 73 3d
       -0.3259133 -0.049348935 -0.016682964 0.059516657
0000b0 d2 db 8c 3f af a6 cf 3d 7f 29 b4 bc 77 fc 27 be
       1.1004584 0.10139214 -0.021992443 -0.16404901
0000c0 b9 a0 ae 3c 71 69 39 be d3 01 03 3d cf 54 3f 3e
       0.021316873 -0.18106629 0.03198416 0.18684696
0000d0 1c 76 45 3d 73 4c 9b bd 24 45 4e 3e e3 f5 3c bc
       0.04820834 -0.07582941 0.20143563 -0.011533233
0000e0 23 16 02 3e 7c 44 0f 3e 61 b6 b4 bd 83 a2 c6 3d
       0.12703757 0.13990968 -0.088238485 0.096989654
0000f0 63 42 c9 3f a4 fa 3e bf 95 8f a9 3e 57 5f 47 bd
       1.5723385 -0.746012 0.33117357 -0.048674908
000100 5a 49 bc 3d 3d ec 8b 3f 0e 57 a3 bd 99 02 ee bd
       0.09193678 1.0931469 -0.07975589 -0.11621589
000110 0b 42 7d 3d 4f 30 d8 3e af 32 94 3d 15 9d a1 bd
       0.06183056 0.42224357 0.0723623 -0.07891289
000120 d1 cb a6 bd 80 d9 e8 3d c8 47 90 bd 54 e9 9c bd
       -0.08144344 0.1136961 -0.07044941 -0.07661691
000130 9b b5 16 be e5 38 1d 3e 5d 66 4f be e5 67 91 bb
       -0.14717714 0.15353735 -0.20253892 -0.004437434
000140 35 53 15 bf 2a 88 92 3e cb c4 bf bf 0c 03 53 be
       -0.5833009 0.2861951 -1.4981931 -0.20606631
000150 0b 60 23 3e dc 5f ad 3e 5b 30 fc be c4 97 30 3e
       0.15954606 0.33862197 -0.49255642 0.17245394
000160 62 e2 22 3e 58 a7 9f 3c 8f 91 83 be 44 d6 b8 bd
       0.1590667 0.019488975 -0.2569699 -0.09025243
000170 70 d7 77 3f 38 2a d2 3e 40 81 7f 3e d8 bb 56 3c
       0.96813107 0.41047835 0.24951649 0.013106309
000180 b5 4a 97 3f 23 de 69 3e 63 f5 21 be cd d3 dd 3d
       1.1819674 0.22838645 -0.15816264 0.108314134
000190 3d 34 7d be b8 93 c6 be 13 5e a3 3e 8d 6a b2 bf
       -0.24726959 -0.38784575 0.3190771 -1.3938767
0001a0 8a f2 7b be 7d 97 36 be a6 0e c5 3b 69 e4 e3 bf
       -0.2460424 -0.17831226 0.006013709 -1.780408
0001b0 a1 89 c8 bc c1 a1 f4 bd d6 53 1e be 40 a1 2d be
       -0.02447969 -0.119449146 -0.15461668 -0.16956043
0001c0 e1 cf 7e 3d 70 b0 e1 bc 93 4f 5e be 2a 5a d1 be
       0.062209968 -0.027549952 -0.21710043 -0.40889102
0001d0 ec 99 09 bd 70 80 58 3e 63 95 ac be 25 c7 16 bd
       -0.033594057 0.21142745 -0.33707723 -0.036811013
0001e0 5f 7b 3f be 7d 3b 5d 3e 45 b4 5b 3e 2b 71 35 bf
       -0.18699406 0.21604724 0.21455486 -0.70875806
0001f0 31 bb 42 3f eb f3 0e be f1 6c 50 3e d7 ad b8 bd
       0.7606688 -0.13960235 0.20354058 -0.09017532
000200 15 18 ba 3d f9 5a 68 be b2 7b 05 3d a9 78 da bd
       0.090866245 -0.22690953 0.03258867 -0.10667545
000210 38 df 72 be 74 06 05 be ff 79 f1 be 9d 5e 87 bd
       -0.23717964 -0.12990743 -0.47163388 -0.06609843
000220 bd fa ef 3e 34 07 60 be e8 03 11 bd 95 bf a5 be
       0.46870986 -0.21877748 -0.035404116 -0.32372728
000230 04 f8 bb bc 3f 99 31 be 65 77 15 3e ee d2 18 bf
       -0.022945412 -0.17343615 0.14596327 -0.59696853
000240 1e db a5 3e dd 78 79 bf 6c 46 b6 be fe 55 5e be
       0.32393736 -0.9745005 -0.35600603 -0.21712491
000250 c5 2f 79 be d2 35 6b 3d 01 22 5c 3d f4 66 0f 3e
       -0.24334629 0.057424374 0.053743366 0.14004117
000260 c1 68 39 bd d1 3f ca bc 70 42 b4 bd b2 fd 36 3d
       -0.045265917 -0.024688633 -0.088017344 0.044675536
000270 8b 6f a2 3d 62 5e 45 3f 1b 3a 7b be b0 3b 4a 3e
       0.079314314 0.7709714 -0.24533884 0.19749331
000280 5f 32 19 3d a9 67 bd 3d 37 ea da bc 08 22 bf 3d
       0.037401553 0.09248287 -0.02672301 0.09332663
000290 8f e1 ff 3d 62 61 a8 be fd 61 ff 3e 47 6b e6 be
       0.12494194 -0.32886797 0.49879447 -0.4500372
0002a0 f0 2b 89 3d 1b 45 dd 3e 39 c3 a5 3f fd 04 4c bc
       0.066978335 0.43216786 1.2950202 -0.012452361
0002b0 d9 24 08 be 3e ba 4b 3f fa 7d 45 3e fe 46 3a 3e
       -0.13295306 0.7958106 0.19286337 0.18191144
0002c0 88 c8 fa be 93 68 50 3f 7f 9c 60 3e 9c 03 4d 3d
       -0.48981118 0.8140957 0.21934699 0.05005227
0002d0 e4 c2 54 3f 1a a3 34 3f e1 00 26 3d 75 6b d9 bd
       0.8310988 0.70561373 0.040528182 -0.10616199
0002e0 c8 1c e6 bd a2 f0 18 bb 91 e7 da 3d b2 9d 66 bf
       -0.11235958 -0.0023336788 0.10688699 -0.90084374
0002f0 08 e2 66 3e 82 02 bc 3d 4c 50 11 3f 5c ae 4c 3e
       0.22547162 0.09180166 0.5676315 0.19988388
000300 56 30 a1 3d 6a 7f e6 bd b8 36 ef 3e 60 ab 23 be
       0.078705475 -0.11254771 0.46721435 -0.15983343
000310 c1 a8 40 be d4 67 ff be 02 19 20 bf cd a9 9e be
       -0.18814375 -0.49883902 -0.6253816 -0.30988923
000320 ae 03 ca bd a9 39 e1 3e b9 b5 93 3e e3 10 5d be
       -0.09863983 0.43989304 0.2884958 -0.21588473
000330 4b 75 62 3e 89 54 56 be 2f b7 4d bd a0 b7 1a 3f
       0.22115056 -0.20930685 -0.050223526 0.6043644
000340 29 62 10 bf 1d 1c 40 3d ce 73 bb bd 2c e1 b1 3e
       -0.5639978 0.04690181 -0.09152947 0.34742105
000350 58 1b a9 bd a1 50 a1 bd e4 0d 1d 3e c2 ce 87 3e
       -0.082571685 -0.07876707 0.1533733 0.2652493
000360 73 c8 c1 3e 67 ea 8c bd fe 44 b5 be b1 79 35 be
       0.37848243 -0.06880646 -0.354042 -0.17722203
000370 50 29 0b bd ab 63 97 3d 1b ab 72 be 16 ad 8f bc
       -0.033974946 0.07392057 -0.23698084 -0.017538588
000380 f0 8c 95 3e 4b ab a5 bb 1e 21 4f be db 71 8c 3e
       0.2920909 -0.00505582 -0.20227477 0.27430615
000390 13 72 09 bf fd 73 7c be 6b 88 18 3d 3a 73 2a be
       -0.5368969 -0.24653621 0.037239473 -0.16645518
0003a0 d9 2b 47 3f 77 1d be bf 9e c9 9d 3d 36 45 09 bd
       0.7780128 -1.4852742 0.07704471 -0.03351327
0003b0 0e 8b 73 3f c6 ab 7e be 6e c2 29 bd 27 16 cc be
       0.95134056 -0.24870214 -0.04144519 -0.3986065
0003c0 e8 8a 1e 3f 11 38 a6 3d 86 cb 39 be 2b ef e5 be
       0.61930704 0.081161626 -0.18144044 -0.44909033
0003d0 ef 02 07 3f 74 cf d6 3d 2c 22 9e 3c 4a 8c 96 be
       0.5273885 0.10488787 0.019303404 -0.29403907
0003e0 48 57 be be 6a 80 b6 3e af 78 01 bf 75 7d 53 be
       -0.37175965 0.35644847 -0.50574774 -0.20653327
0003f0 e0 a2 4a 3e 4f a5 69 3d 33 b0 73 bf 6c 51 19 bc
       0.19788694 0.057042416 -0.95190734 -0.009357791

bias f4 [400]
000000 c3 24 05 3c d6 f7 4c bd e2 9b 09 be 24 10 b3 3b
       0.00812644 -0.050041042 -0.13438371 0.0054645706
000010 d6 5f 38 be cd 11 9f 3c c4 d4 d3 3b ea 7d 76 be
       -0.18005309 0.019417668 0.0064645726 -0.2407147
000020 8c e7 d8 bc 5a b7 6a 3c 11 3f 89 3e c6 21 0b 3c
       -0.026477598 0.014325941 0.26805928 0.008491939
000030 b4 9c 8c bd d9 b4 1b be 4f e2 76 bd 37 fa 24 be
       -0.06865826 -0.15205707 -0.06027442 -0.16111074
000040 53 2e 6f be 60 80 b1 3d 08 7d 1f be a9 07 52 be
       -0.23357515 0.08667064 -0.1557504 -0.20510735
000050 26 c3 62 bc 01 4e cb bd e3 4c 61 3d e2 c5 b6 bd
       -0.013840472 -0.099269874 0.055004966 -0.08924462
000060 d7 c3 38 3e 79 c3 23 3e 77 b9 f6 3d db 01 98 bd
       0.18043457 0.15992536 0.12047093 -0.07422229
000070 e5 75 9d bd ad 1d 37 bd 65 47 4b 3e 55 1a da bd
       -0.07688502 -0.044706035 0.19851454 -0.10649554
000080 7c 11 c9 bd 74 ab 4c bd 5a df e2 bd c2 2d f7 bc
       -0.09817788 -0.049968198 -0.11077757 -0.030173186
000090 79 bb 9c bd 63 b0 22 be aa 77 0e 3d 72 12 57 3c
       -0.07652945 -0.15887599 0.03478209 0.013126956
0000a0 76 03 03 3c c5 f3 6c be 08 f8 7d bd 3a 2d f4 bc
       0.007996431 -0.23139866 -0.06200412 -0.029806722
0000b0 bc 60 ef 3c ab 76 7f be 6e 1d 24 3e 3c 34 53 bc
       0.029220931 -0.24947612 0.16026852 -0.012890872
0000c0 56 26 fb bd ec e3 82 3d c4 c8 68 be ff 35 8a 3c
       -0.122631714 0.06391129 -0.22732836 0.01687145
0000d0 c8 f5 d7 3d 65 2d 30 be 92 ea f0 bd 8c 38 54 bd
       0.10544926 -0.17204817 -0.11763491 -0.05181174
0000e0 dd ab 43 3d e4 f1 0f 3e 29 ff b7 3d af cd 90 bd
       0.047771323 0.14057118 0.08984215 -0.07070481
0000f0 78 8b 8a be c0 ec 8b 3d 44 c4 2f be d6 a0 9c 3d
       -0.2705953 0.06832266 -0.17164713 0.076478645
000100 c9 8a 37 be 81 ae 76 be be b0 08 be 52 45 20 be
       -0.17924036 -0.24090005 -0.13348672 -0.15651444
000110 d6 d3 e6 bd 25 bc 07 be c7 a9 a7 bd 46 60 2a be
       -0.11270873 -0.13255365 -0.08186679 -0.16638288
000120 38 05 34 be ca dd 24 be 51 f3 54 be b8 aa af 3d
       -0.17580116 -0.16100231 -0.20795943 0.08577484
000130 ff f4 a8 bd 11 86 59 3d 28 8f 56 bc a5 1a c1 be
       -0.08249854 0.05310637 -0.013095655 -0.3771564
000140 5e 89 eb bd 26 a5 f3 bd 18 11 00 3e ba 55 d3 bd
       -0.1150081 -0.11896734 0.12506521 -0.103190854
000150 53 0e 2c 3d 3b 54 03 3e be f0 f1 bd 02 91 97 bc
       0.04200585 0.128251 -0.11813496 -0.018501762
000160 8e e8 b8 bd 32 87 7e bd e9 9f 4e be 23 a4 5f be
       -0.09028731 -0.06214065 -0.20178188 -0.21839957
000170 df 76 e6 bd 04 27 4e be dc 62 af be 51 77 8b 3d
       -0.112531416 -0.20132071 -0.3425511 0.06809867
000180 51 dc a8 bc 6e e3 37 3c 1d 62 9b 3d 6d 59 0e 39
       -0.020612868 0.011223657 0.07587073 0.00013575489
000190 d0 0f c8 bd 32 05 05 be 2f f3 9b bd 34 0a 4d bd
       -0.09768641 -0.12990263 -0.07614743 -0.05005856
0001a0 78 86 52 be 0e 08 13 3d 4e 11 2b 3d 68 33 11 be
       -0.20559108 0.035896353 0.04176455 -0.14179766
0001b0 f5 70 cd 3d 4a 04 9b 3d 35 94 19 bc 60 5d d0 bd
       0.100313105 0.075691774 -0.009373714 -0.1017406
0001c0 7a 0e 01 be 9a 04 3f be 93 3f 7f 3d 28 a6 04 bd
       -0.12603179 -0.18654099 0.06231649 -0.03238502
0001d0 eb 59 34 3e b7 6f 0f be c9 bf 94 be 7f b8 97 3d
       0.17612426 -0.1400746 -0.2905257 0.07408237
0001e0 5b 0b 2c bd 61 e7 cd bd d1 4c 40 bd 71 40 d1 bd
       -0.042003017 -0.10053898 -0.046948258 -0.10217369
0001f0 7a 89 6b be b9 79 42 be 58 af 7f be c9 38 fb 3c
       -0.23001662 -0.18991746 -0.24969232 0.030666726
000200 f0 a3 ec bc 3b 78 9a be f3 42 ad 3d da 7a c6 bd
       -0.028886765 -0.30169854 0.08460035 -0.09691401
000210 f1 a1 0f 3e 5d e3 62 3d f2 91 3e be 93 be 40 3e
       0.1402662 0.05539261 -0.18610361 0.18822698
000220 f5 52 4b be 10 cf 58 be d5 58 79 be b0 83 fa 3d
       -0.19855864 -0.21172738 -0.24350293 0.12232149
000230 2f 89 72 3d fd 50 a4 3c c2 81 9b 3d 41 be 85 bd
       0.05921286 0.02005815 0.07593109 -0.06530429
000240 33 79 ce bc fd 3a bd bd d4 e7 75 bd 05 c3 35 be
       -0.025204277 -0.09239767 -0.06003554 -0.17750175
000250 fb 2c 2a be 77 be 8e bd 3f 34 a9 be 9f 61 94 be
       -0.16618721 -0.06969922 -0.33047673 -0.2898073
000260 7e 2e ba bd 26 82 93 bd fe b0 73 3e 75 7d e5 bc
       -0.09090899 -0.07202558 0.23797986 -0.028013924
000270 c6 18 b5 3c 09 7f 80 bc 25 0b b7 3d 15 e9 ea bd
       0.02210654 -0.015685575 0.089376725 -0.11470238
000280 c8 bd 57 be bc 4e d0 3d 29 02 0b be c8 ab e5 bd
       -0.2106849 0.101712674 -0.13575043 -0.11214405
000290 32 1d 83 be 95 de f4 bc 20 50 c4 bd 1f 85 3b be
       -0.25608212 -0.029891292 -0.09585595 -0.183125
0002a0 47 3f e5 3a a9 fd 86 3e e6 a3 5d be 71 cf af be
       0.0017490172 0.26365402 -0.21644554 -0.34337953
0002b0 d5 6b bb be 0d ed cd 3b 8b 2a a2 bd a9 8d 8f bd
       -0.36605707 0.006284362 -0.07918271 -0.070094414
0002c0 04 6a a7 3d f5 be 0e 3e 0b 67 5e 3e 0d 63 ca bd
       0.08174518 0.13940032 0.21718995 -0.09882174
0002d0 b0 fb b9 3d 36 7a 9a 3c 58 ce f7 bc db a3 0e be
       0.09081209 0.018857103 -0.03024976 -0.13929693
0002e0 91 f6 50 bd 78 35 13 be d8 4b 0e be 96 ac ae be
       -0.051016394 -0.14375865 -0.1389612 -0.34116048
0002f0 43 55 3c 3d 57 68 90 bd 33 7f 32 bd 39 8f c2 bd
       0.04597975 -0.07051151 -0.043578338 -0.09499974
000300 ce d0 cf 3d bb 79 18 be e6 5b 04 be 66 3f b5 bd
       0.10147248 -0.14890186 -0.12925681 -0.08849983
000310 3b 66 a9 bc ec 87 2d be b2 36 89 3d cb 83 41 be
       -0.02067863 -0.16946381 0.066998854 -0.18897931
000320 0f 59 03 be f1 7b 2e be 6f 76 ae be 79 33 a7 bd
       -0.12826942 -0.17039467 -0.34074733 -0.081641145
000330 23 40 0f be b9 8e e0 bd 35 58 1d be 0a d0 8a bb
       -0.1398931 -0.10964722 -0.1536568 -0.004236226
000340 49 bf db bd 06 7f 0b be f5 28 a0 bc f6 8a f4 bd
       -0.10729844 -0.13622674 -0.01955078 -0.11940567
000350 52 21 4c be 5d b3 a0 bd 99 0e 87 3d b3 70 32 3d
       -0.19934586 -0.07846711 0.06594581 0.04356451
000360 db b3 16 3e be ce f8 bd 6a 06 4c 3e ba d3 3c be
       0.14717047 -0.12148808 0.19924322 -0.18440142
000370 7d 18 9d bc 02 87 05 3b c0 d9 16 3d 66 01 90 be
       -0.019176716 0.002037466 0.036828756 -0.28126067
000380 e1 d6 49 be 7b 47 d0 3a 27 7b 70 bd 3b 9e b5 bc
       -0.19710876 0.0015890443 -0.058711197 -0.022170177
000390 81 ca 76 be a9 e3 c1 3d 9f 3a 11 3d 17 ef 58 be
       -0.24100687 0.09467251 0.035456296 -0.21184956
0003a0 08 98 3b 3d 5a 9e 05 be 7a 23 f3 bd 85 fc cc 3d
       0.045799285 -0.13048688 -0.11872001 0.10009102
0003b0 4b b0 5b be d9 49 5e be 5d 5a 64 bd d5 89 5a bd
       -0.21453969 -0.21707858 -0.05575024 -0.053354103
0003c0 b1 d9 8d 3d 65 f5 07 bd 9e 2d 9e 3d 4b 4e 7f bd
       0.06926287 -0.03319301 0.077235445 -0.062330525
0003d0 22 19 4d 3c d9 4e 1e 3d a2 48 dc bd 55 41 a9 bd
       0.012518199 0.038649414 -0.10756041 -0.08264414
0003e0 ed 64 40 be 04 81 86 3c 9d 34 b3 bb f0 86 2f be
       -0.187885 0.016418941 -0.0054689185 -0.17141318
0003f0 fc 4f 93 bd 47 ab 2e be 22 85 0e 3e 35 e0 bb bd
       -0.0719299 -0.17057525 0.13917974 -0.091736235

weight f4 [300, 400]
000000 45 ae 33 bd 29 b9 90 bd fd 85 78 bd 93 73 16 3c
       -0.04386737 -0.070665665 -0.060674656 0.0091828285
000010 a4 bd f2 3b 22 cd 08 3d ae c3 54 bd dd 36 88 bd
       0.007407861 0.033398755 -0.051944427 -0.06651089
000020 56 57 93 bd da d3 ac bc c5 8f 27 bd 09 47 0b 3d
       -0.071943924 -0.021097112 -0.040908594 0.03400329
000030 d9 23 8a 3c 9d f0 aa 3c b9 75 86 3c de c5 96 3c
       0.016862797 0.020866686 0.016413556 0.018404897
000040 e5 45 9b 3b af 63 1a b9 e8 89 b0 ba 6a 3c a7 3d
       0.0047385567 -0.0001472372 -0.0013468834 0.0816582
000050 ba f9 6b bd a7 8c e4 bb bf cc d7 bc ee 7b 25 3d
       -0.057611205 -0.006974775 -0.026342748 0.04040139
000060 b9 1e a5 3b 47 f5 4c 3c b4 84 85 bd 7b 44 5a bd
       0.005039063 0.012509651 -0.06519452 -0.053287964
000070 96 d0 80 bb 02 39 2f 3c 3e 82 97 bd ae 5f d8 bc
       -0.0039311154 0.010694744 -0.073978886 -0.026412811
000080 ca bb 8a 3c b3 b9 d8 bc dd 79 a7 bc e0 93 61 bd
       0.016935248 -0.026455736 -0.020443851 -0.055072665
000090 1b 90 5b bc 8e 19 4c 3c 53 95 26 bd 3b c4 2d bd
       -0.013401057 0.012457265 -0.04066975 -0.042423468
0000a0 73 be ef bb 2c 0f d8 bc 5f 86 9d bc f8 40 36 3d
       -0.0073164045 -0.026374422 -0.019229112 0.044495553
0000b0 bb 71 3e 3d 10 f0 9c 3b 7d 6f 92 3c 13 99 dd 3b
       0.04649518 0.00478936 0.017875427 0.0067626326
0000c0 97 ae a0 bc c4 eb 1a bc e0 4a f1 bc f6 63 58 bc
       -0.0196145 -0.009455625 -0.029454648 -0.013207426
0000d0 90 a1 a2 3c fd f6 05 3d 44 ab 5b bd ba 64 84 bc
       0.01985243 0.03270625 -0.05363013 -0.016161311
0000e0 4b 27 f2 3c 79 62 86 bd 82 dc 0e bd c4 ba ab bc
       0.029559752 -0.06561751 -0.03487826 -0.02096308
0000f0 ff 64 69 bd f3 03 b5 bc 28 f0 1e bd f0 c7 8c bd
       -0.056981083 -0.02209661 -0.03880325 -0.068740726
000100 57 b2 4d bc e0 a2 aa 3c 0d a1 86 3d 33 a5 51 bd
       -0.012554727 0.020829618 0.06573687 -0.051182937
000110 93 49 0d bd 67 8c d3 3b 4f 1f ce bc ed 8e 41 bd
       -0.034493994 0.0064559462 -0.025161413 -0.047255445
000120 7b 74 cc bc 52 24 45 3d ee 93 47 bd 4e a0 44 bd
       -0.024957886 0.04813034 -0.04872506 -0.04800444
000130 3d 78 d8 bc 1c 8c 5d bc 43 61 15 3d 8c f4 40 bc
       -0.026424522 -0.013522174 0.03646971 -0.0117770545
000140 20 fe 06 bd 2f 92 49 bd eb 68 14 bd e3 3b af 3c
       -0.032957196 -0.049211677 -0.03623287 0.02139086
000150 92 86 01 3d d9 df 68 bd cd ee 22 bd 11 56 af 3c
       0.031622477 -0.056854103 -0.03977852 0.021403344
000160 14 ca 90 ba 79 f6 05 3d 9b 52 23 3d bf 54 db 3c
       -0.0011046552 0.032705758 0.0398737 0.026773809
000170 28 11 8a 3d 8a 50 ed bc ed 5f 87 bd b3 fb d4 3c
       0.067415535 -0.028969068 -0.06610093 0.025998926
000180 9b 3c 35 bc 3b f5 23 bd 15 3f 73 bd f8 28 b3 3c
       -0.011061813 -0.040028792 -0.05938633 0.021870121
000190 b1 50 c2 3c 34 c6 29 ba e0 4e 39 bd 25 ee 86 bd
       0.023720117 -0.0006476373 -0.045241237 -0.06588391
0001a0 99 06 29 3d 49 58 6a 3c 10 b9 10 bd 1b d1 02 3d
       0.041266058 0.014303275 -0.03533274 0.0319377
0001b0 87 a0 00 bd 6a b8 16 bd ad 76 06 bc ba 2c a8 3c
       -0.03140309 -0.036796965 -0.008207005 0.02052914
0001c0 8d 98 de bb 97 9b 19 bd dd f3 93 bc f6 2d 8b bd
       -0.006793088 -0.037501898 -0.018060619 -0.06795876
0001d0 0a 0f 62 bc a3 f2 c2 3c d9 4c 40 3c d3 47 ce 3c
       -0.013797531 0.023797339 0.011737072 0.025180733
0001e0 a7 ae bb 3c 0a e4 e1 bc b2 2b a3 bc 17 ab e8 3c
       0.02291043 -0.027574558 -0.019918296 0.028401894
0001f0 a8 e9 c8 bc fb 73 29 bd 32 b2 2e bd 66 ac ff bc
       -0.024525478 -0.041370373 -0.04265041 -0.031210136
000200 86 ac ee 3b 57 45 fc 3c 83 07 75 bc 8b 4a 36 3d
       0.00728375 0.030794783 -0.014955404 0.044504683
000210 34 4e 57 3c db 04 51 bd d3 7e 25 bc e4 f4 77 bd
       0.013141204 -0.05103002 -0.010101038 -0.06053628
000220 dc de b6 bc a4 de c5 bb e1 70 43 bd 40 b9 fd 3b
       -0.022323065 -0.0060385037 -0.04771507 0.007743031
000230 0c 9d 77 3c 72 46 92 bc 28 f2 3c 3d 25 98 29 bd
       0.0151131265 -0.017855857 0.046129376 -0.041404862
000240 68 b8 00 bd 15 9a 5b 3b 8d 67 4b bc 17 37 b4 bc
       -0.031425864 0.0033508588 -0.012414825 -0.021998925
000250 cd 3b 70 3b aa f1 1d bb d3 f1 59 bd d5 21 41 bb
       0.0036656738 -0.0024100342 -0.053209137 -0.0029469628
000260 a7 bd 21 3c e2 ec 3e bd b6 a5 48 bd eb 84 37 bd
       0.009871877 -0.046612628 -0.04898616 -0.044804495
000270 9a fa 9f 3c 23 14 89 bc 92 32 ae bc 96 66 0c bd
       0.019528676 -0.016733235 -0.021264348 -0.03427752
000280 67 59 03 3c cb 42 b9 3a 33 a7 96 bc ee 56 2f bc
       0.008016921 0.0014134286 -0.018390274 -0.010701878
000290 b8 fb 1e bd 9a 83 b2 bb 5a 69 c5 3b 50 ec dd bc
       -0.038814276 -0.005447817 0.006024522 -0.027090222
0002a0 81 46 4b bd 4e 32 84 bd 15 22 2e 3d 0b 08 2a 3c
       -0.049627785 -0.06454907 0.042512972 0.010377894
0002b0 fe 34 27 3d 10 df 5c bd ba d1 3c 3c a4 0b 53 bd
       0.04082202 -0.053923666 0.011524612 -0.051524773
0002c0 53 54 19 3c 39 eb 42 bc 49 d4 6b bd c0 20 22 3c
       0.009358483 -0.011896902 -0.057575498 0.0098955035
0002d0 35 52 a9 3c 82 e1 22 bd 00 fa 19 bc 97 52 3d bd
       0.020669082 -0.039765842 -0.009397984 -0.046221342
0002e0 6f af dd 3c e0 04 27 bd ad 99 5a 3c 49 6f 24 bc
       0.027061192 -0.040776134 0.013342303 -0.010036298
0002f0 de 6b b0 3c 0b e9 51 bc 88 f9 51 bd 2e 6b d5 bb
       0.02153581 -0.012811909 -0.051263362 -0.006513021
000300 54 cb 78 bd 4c 7c 79 3d f3 88 40 bc fa 92 08 3d
       -0.060740784 0.060909554 -0.011751401 0.033343293
000310 bf ad 89 3c b3 43 3e bd 2c f4 71 bd 4a 00 f6 3c
       0.016806481 -0.04645128 -0.05907075 0.030029435
000320 76 6e 56 bb cf 0d 2f 3c 4a 4d f5 bc bc 5c e3 3c
       -0.0032719648 0.010684445 -0.02994408 0.02775418
000330 9c c2 20 bd 97 13 84 bc 66 6d 64 3c 1a 8c 34 3c
       -0.039248094 -0.016122622 0.013942098 0.011019731
000340 7d e2 da bc 20 fe a1 3c 6d e5 29 3d df 40 51 3c
       -0.026719326 0.019774497 0.041478563 0.012771814
000350 6e 8d 45 3c 70 23 3c 3d f5 2c 03 bd f8 5e 91 bd
       0.012057645 0.045932233 -0.032025296 -0.07098192
000360 6c 83 1b 3c 0f 26 44 3b 48 2e aa bd c0 e7 89 bc
       0.009491783 0.0029929911 -0.08309609 -0.01683414
000370 0b 8f 36 bd ed 7f 3c bd c3 35 58 3a 6f 4d c5 bc
       -0.04457001 -0.046020437 0.0008247757 -0.024084775
000380 e3 56 23 bd 19 20 a1 bd 27 e9 9e bb 87 d1 17 bd
       -0.039877784 -0.0786745 -0.0048495713 -0.037065055
000390 15 6f 33 bd b2 ba 1c 3c ba 42 0a bc b2 60 46 3d
       -0.043807108 0.009565996 -0.00843876 0.04843206
0003a0 e3 b6 0c bd 37 d5 6c bc 1f 7d 0e 3c f4 61 51 bc
       -0.034354102 -0.014455131 0.008696823 -0.0127797015
0003b0 e2 72 37 bd e0 08 ef bc af 5f 3c 3d d7 dd 0d bd
       -0.044787295 -0.029179037 0.04598969 -0.03463539
0003c0 f4 86 31 bc 7a 46 4b bc 00 a1 ed bb 0d cb e3 3c
       -0.010835398 -0.01240694 -0.0072518587 0.027806783
0003d0 d1 9c 1f bb b1 ae ba 3c 90 57 0d bd 20 4d ff 3c
       -0.0024354944 0.022788377 -0.034507334 0.031164706
0003e0 65 e8 f6 bc c8 75 4d bc 47 88 79 bc 7a dd a6 3c
       -0.030140111 -0.012540288 -0.015230245 0.02036928
0003f0 97 5c 38 3d 00 39 30 bd 13 a8 3e 3c ad f7 2f bc
       0.045010176 -0.04302311 0.011636752 -0.010740203

bias f4 [300]
000000 aa 7d 29 bd 8a d6 2b be 29 29 85 3e ec f6 22 be
       -0.04137961 -0.16781059 0.26007965 -0.15914506
000010 08 6e 71 bd 3c 40 5e be e9 03 f2 3d 47 70 64 bd
       -0.058942825 -0.21704191 0.11817152 -0.05577114
000020 91 21 4d be a1 5e 11 3e 5f 6d 12 bd 1c 18 f6 bb
       -0.20032336 0.14196254 -0.035748836 -0.0075101983
000030 70 44 46 3e d8 fa d3 3e 98 10 83 bd b2 91 d9 3d
       0.19362044 0.41402316 -0.063996494 0.10623492
000040 4c 3c 36 bc 63 78 06 bd 5e 7e b7 be 07 c8 6e bd
       -0.011122774 -0.032829653 -0.35838598 -0.05829623
000050 80 38 80 be 34 7e 20 3d a7 f5 8a bd 33 23 65 3c
       -0.25043106 0.039182857 -0.06785136 0.013985443
000060 ec 91 74 bd bf 31 68 bd e5 85 6b 3c af b6 69 bc
       -0.059709474 -0.056688067 0.014375185 -0.014264747
000070 68 8a a1 bc e9 60 b1 bd 8a 3b ac 3c ce 91 a8 bd
       -0.019719318 -0.08661062 0.021024484 -0.08230935
000080 10 4c 23 bd 9c b7 13 bd b0 5e 04 bd 48 6c 25 bc
       -0.03986746 -0.036063775 -0.032316864 -0.010096617
000090 51 b4 da bc db fd 7f 3d fe 34 92 3e b9 a7 88 bd
       -0.02669731 0.062497955 0.28556055 -0.066726156
0000a0 81 c5 99 3e 74 ba e9 bc 12 05 c1 3d 9f 1f 70 bc
       0.30033496 -0.02853129 0.09424795 -0.014655977
0000b0 6d 7c 8d 3c eb 8c 67 3e 30 2e 78 bd eb 01 3f bd
       0.017271245 0.2261235 -0.060590923 -0.04663269
0000c0 6f 37 80 3a 6c 8e 2a bd 8a 27 63 3d ca 47 95 bc
       0.0009782145 -0.04163973 0.05545763 -0.018222708
0000d0 1f a1 4d bd b7 e2 94 bd f4 bd fd bc 15 f6 59 3c
       -0.050202485 -0.07269805 -0.030974366 0.013303299
0000e0 47 60 98 bd 25 72 43 3b 24 8d 89 bd 9e 99 a1 bc
       -0.074402384 0.0029822674 -0.067163736 -0.01972657
0000f0 29 a6 2f bd 1d 90 22 bd 13 af ff bd ff 19 f9 bc
       -0.042883072 -0.03968822 -0.12484565 -0.030407904
000100 cd 47 88 bd a5 b0 03 3e e5 7e 52 3d 6d c2 42 bd
       -0.0665432 0.12860353 0.051390547 -0.0475487
000110 fe 9a 48 ba 9c 29 25 bd e2 d0 91 bd c4 c0 32 bc
       -0.000765249 -0.040322885 -0.07119919 -0.010910217
000120 de 15 60 3e 02 55 0a bc 07 05 a3 3c b5 b7 53 be
       0.21883342 -0.008443119 0.019899858 -0.20675547
000130 89 1a 01 3d 9e f1 ed bd c2 d1 b3 bd 2d 0f 45 be
       0.031519447 -0.116183504 -0.087802425 -0.1924407
000140 9d c5 ca 3d d8 05 08 3e 8e 87 2b 3e 6a a4 89 3d
       0.09900973 0.13283479 0.16750929 0.067208126
000150 d0 29 7c bd 8c 47 ed 3d 4f 42 15 3d 50 9d 25 be
       -0.061563313 0.11585912 0.03644019 -0.16173291
000160 46 f4 14 bd 07 07 94 bc 68 04 8c 3d 47 2b 47 bd
       -0.03636577 -0.018069757 0.06836778 -0.048625257
000170 e6 c6 b5 bc 3c d0 5e bd 0e 1b 7d bd 0f 62 9d bd
       -0.022189569 -0.054397807 -0.06179338 -0.07684719
000180 c5 97 f9 bd 8c c1 67 bd 5a 07 91 bb c8 f7 3f 39
       -0.12187151 -0.056581065 -0.004425925 0.00018307485
000190 61 34 03 3e 79 f2 9c 3c da c8 be bc cb 72 40 bc
       0.1281295 0.019158589 -0.023289133 -0.011746119
0001a0 8a 06 59 3e a1 3a 0b bc fb 9f 18 bd d9 d3 2c bd
       0.211939 -0.008497865 -0.037261944 -0.04219422
0001b0 67 96 2b be 07 2b c0 bd e9 26 54 3e 11 a9 1c bd
       -0.16756593 -0.09383207 0.20717968 -0.03824717
0001c0 f9 18 d7 bd 9b 68 40 bd 6b b6 ed bc 82 24 72 bd
       -0.1050281 -0.04697476 -0.029017648 -0.059116848
0001d0 fd da c3 bc 62 23 86 bc e3 27 10 be 1c 01 c0 3e
       -0.023908133 -0.016374294 -0.14077716 0.37500846
0001e0 18 ba c6 bb ab 04 0a 3e 06 58 60 bd ca dc 18 bd
       -0.0060646646 0.13478343 -0.054771446 -0.037319936
0001f0 14 94 0a bd 94 22 96 3d 43 98 eb bc 47 76 86 bd
       -0.033832625 0.07330814 -0.028759127 -0.06565528
000200 35 55 33 bd e1 99 a3 3c 4a 3a d2 3b 27 03 90 bd
       -0.04378243 0.019970836 0.00641564 -0.07031851
000210 bb a4 15 3c e0 26 3b bd 31 d1 23 bd 6b ff 5c bd
       0.009133513 -0.04569137 -0.039994422 -0.053954523
000220 f0 8f dd bb 88 2e a2 bc cc 15 5e bd ca 84 ae 3e
       -0.0067615435 -0.019797578 -0.054220006 0.34085685
000230 d1 1d de bc 52 89 98 bd 4c 0b 72 3e 13 12 95 bd
       -0.027113827 -0.07448067 0.23637122 -0.07278838
000240 0f 0a 6b bc d9 49 10 bd 09 f0 53 3c 07 e6 5c 3c
       -0.01434566 -0.035226677 0.012935647 0.013482577
000250 a4 49 2e 3e f6 ae 06 ba 0f 3f db bc 6c f0 9e bd
       0.17020279 -0.00051377655 -0.026763467 -0.077607006
000260 4e 92 ff bc d7 86 8a bc 94 54 47 bd ce 9b 46 bd
       -0.031197693 -0.01691 -0.048664644 -0.04848843
000270 3d 9f 69 bd 61 89 9b bc c5 02 ac 3c 86 af 4b 3e
       -0.057036627 -0.018986406 0.020997414 0.19891176
000280 37 31 53 3e 8d a9 8c bc 23 38 10 3e 00 ca 74 3c
       0.20624243 -0.017170692 0.14083914 0.014940739
000290 38 19 aa bd 20 04 69 bd ca d0 cd bc 2f 62 11 bd
       -0.08305591 -0.0568887 -0.025123972 -0.035494026
0002a0 0a 94 82 3c d6 1f 96 bc 1b 96 45 bd 7f f8 1d bc
       0.015939731 -0.018325727 -0.048238855 -0.009641766
0002b0 68 74 64 bd 29 b2 19 3e 6c 6e ce bc f0 6d 99 3c
       -0.055775076 0.15009369 -0.025199138 0.01872918
0002c0 82 58 81 bd c9 7e 5d 3e 74 0f 15 bd b2 2d 3e bb
       -0.0631571 0.21630396 -0.03639169 -0.0029018936
0002d0 bd 74 db bd c1 bb c2 bc 5b 75 56 bd 0b ef 2f 3c
       -0.107156254 -0.023771169 -0.052358013 0.010738145
0002e0 9d 06 61 bd 19 80 24 bd 0a cc a5 bd 11 99 67 3e
       -0.054937948 -0.040161226 -0.08095558 0.22616984
0002f0 7d 94 78 3e fc 13 2f bd bb a7 f9 3b 74 a6 27 bd
       0.24275394 -0.042743668 0.007618872 -0.040930226
000300 15 68 7e 3d d5 43 f2 bc e0 a4 83 bc 4b 95 c5 bc
       0.06211098 -0.02957336 -0.01606983 -0.02411904
000310 61 18 d4 3c 68 31 70 bc dc 0a e5 3d 61 41 75 bd
       0.025890531 -0.014660217 0.11183712 -0.059876803
000320 0d 24 d9 bc b2 50 64 bd a3 cc bc ba da ab 55 bd
       -0.026506448 -0.05574102 -0.0014404248 -0.052165844
000330 cf bf 03 bd 02 5e 17 3e 62 bc 37 bd 4a 03 a0 bc
       -0.032165345 0.14781955 -0.04485739 -0.019532818
000340 8c 31 88 bd 95 1c 43 bd a2 4f 52 bc 08 d8 73 3e
       -0.06650075 -0.04763468 -0.012836369 0.23812878
000350 a7 aa 76 bd 59 c2 70 bd 02 23 4d 3d 9a 48 c0 bc
       -0.06022134 -0.058779094 0.050082214 -0.02347212
000360 94 94 37 be 7d b0 77 3d a2 2e 0a bc 90 84 cc 3d
       -0.17927772 0.060471047 -0.00843397 0.09986222
000370 1a 0e b3 bb 75 9c cd bd 8f 81 d1 be a6 b3 00 3e
       -0.0054643275 -0.100396074 -0.40919158 0.1256853
000380 d4 23 a7 3e 88 4c 18 bc 2d d7 2e 3e 2e c6 0d 3e
       0.32644522 -0.00929559 0.1707427 0.13845131
000390 fb c0 6d bc 2c 3a d0 3d 0e fe da bc 8c 0b 3e 3c
       -0.014511342 0.101673454 -0.02673247 0.011599433
0003a0 38 f1 2a 3e e6 74 58 3d e0 a0 ad 3d c5 58 b4 bc
       0.1669358 0.052845858 0.0847795 -0.022014985
0003b0 b3 e5 0e bd 09 90 73 bc 9c 14 4f bd a7 af c6 bd
       -0.034887027 -0.014865884 -0.050556764 -0.09701472
0003c0 ac 1a 3d 3e 1b 3a b1 bb 82 c3 8f bd d8 34 6d bd
       0.18467206 -0.005408538 -0.07019712 -0.057911724
0003d0 84 fe 3a be 39 0d 40 bc 85 5c 7f bd c1 00 1b bc
       -0.18261153 -0.0117219025 -0.062344093 -0.009460629
0003e0 74 31 40 bc 98 d3 37 bd 63 99 9a bb 60 72 a0 3e
       -0.011730541 -0.044879526 -0.004717992 0.3133726
0003f0 e2 e5 52 bc 46 c0 bd 3c b1 57 7b bd 92 0b 8b bd
       -0.012872191 0.023162972 -0.061362926 -0.06789316

weight f4 [1, 300]
000000 68 7a 81 bc bd 37 93 3f 9c 9d ca 3e c6 58 9b be
       -0.015805438 1.1501385 0.3957337 -0.30341166
000010 02 a7 76 3d 18 7b 6e 3f 5f ee 61 3f 8b e6 8b ba
       0.060217865 0.93156576 0.8825435 -0.0010673566
000020 ae 44 ae be 8f 57 81 3f 43 95 0c ba 20 7f 5c 3d
       -0.34036773 1.0104846 -0.0005362818 0.053832173
000030 f5 be 6a c0 49 25 aa bf 13 61 33 3f 9b 56 45 c0
       -3.667905 -1.3292629 0.7007 -3.083411
000040 53 fe 58 39 ed fb dd 3d f6 6b 9a 3e 9f 5f 8b 3b
       0.00020694108 0.10839067 0.30160493 0.0042533423
000050 0e 5d 96 3f 85 b8 c7 bd d5 29 33 3d 52 cc 32 3f
       1.1747148 -0.09751991 0.043741066 0.6984302
000060 06 51 b4 bb 3f c0 65 3f 86 85 d3 3e a5 d6 67 3d
       -0.005502823 0.8974647 0.41312808 0.056601185
000070 f3 77 8c 3a 06 cf 22 3f dc d0 b7 bc d3 3c 3b 3f
       0.00107169 0.6359714 -0.02243846 0.73139685
000080 91 60 0d c0 08 8e 25 be 1c b8 6a 3d c9 b9 f2 bb
       -2.209019 -0.16167462 0.057304487 -0.007407401
000090 db 3c 9e bc 96 97 d0 3e b7 32 82 3f a9 de 12 bb
       -0.019316128 0.4074065 1.0171727 -0.0022410548
0000a0 b6 a1 a1 c0 4e 47 a3 3d 25 48 18 3f 43 3a 94 3d
       -5.05099 0.07972585 0.59485084 0.07237675
0000b0 bf 73 06 bd b6 59 a6 be 90 ce 3b 39 ab 46 00 ba
       -0.032825228 -0.3249032 0.0001791066 -0.0004893343
0000c0 09 89 9f 3d b3 df e1 3c b6 0e b6 3e be 54 de 3d
       0.07789809 0.027572488 0.355581 0.10856007
0000d0 1b c0 1e ba 27 56 d3 3d e6 36 05 b7 c2 ed c8 3a
       -0.00060558476 0.10319167 -7.9402e-06 0.0015329646
0000e0 12 71 8e 3d e3 2c 48 3d 4e 67 11 bf 26 43 a0 3d
       0.0695516 0.048870932 -0.56798255 0.078253075
0000f0 05 22 5b 3d b9 cb 99 3a 85 ed f3 3e a3 d5 af 3d
       0.05349924 0.0011733688 0.4764215 0.0858567
000100 ad 56 9f 3d 4d e9 8e bf 86 78 8e 3f 2d a7 99 3d
       0.07780204 -1.1164948 1.1130531 0.075025894
000110 fc 62 b2 3d b5 af aa bb 19 5e c9 be c7 f4 a8 bb
       0.08710286 -0.005208934 -0.39329603 -0.005156133
000120 6c b3 42 bf 99 2e c4 3d d0 88 71 3b ec f3 ba 3e
       -0.76055026 0.095792 0.0036855228 0.36514223
000130 59 1a 32 bf 95 21 31 3d 88 9d 61 bf fe a3 e3 3e
       -0.69571453 0.043244917 -0.88131 0.44461054
000140 f1 56 55 3f 80 e5 99 be 78 88 3b be 29 ac 6e 3e
       0.8333579 -0.30057907 -0.18313777 0.23307861
000150 bb 3f 2a 3f a2 bb 2d 3f 1d e2 1f 3f 73 c9 3b bf
       0.66503495 0.6786443 0.62454396 -0.7335426
000160 48 68 62 bb 6b 7f 2b 3b f5 b3 cb 3e db 28 91 3d
       -0.003454702 0.0026168476 0.39785734 0.07087871
000170 18 92 b0 3d 2d c5 6c 3b 69 88 a1 3d 64 8c 92 3d
       0.08621615 0.0036128268 0.07887346 0.07155684
000180 5b d1 af 3f 9c 8d 5c 3d 4d f9 0d 3e 23 3f f3 3c
       1.3735765 0.053845987 0.13864632 0.029693192
000190 5a 56 73 3f f7 3e bf 3b dd a5 8c 3a 8d b3 27 3e
       0.9505364 0.0058363634 0.0010730583 0.16377087
0001a0 c9 3a 67 c0 7f a0 a0 3d c1 d7 94 3b d2 c3 84 3d
       -3.612963 0.07843112 0.0045423214 0.06482662
0001b0 d5 ed 12 40 a4 3d e9 bf 1d c4 b4 3e 31 ba 2b 3e
       2.295766 -1.8221936 0.35305873 0.16770245
0001c0 20 6a a5 3d 3d 7b ae 3b f3 79 a6 3b 4a 80 fa bb
       0.08076882 0.0053247497 0.0050804554 -0.007644688
0001d0 a6 42 a3 3d ed 0c f0 3a 5c 1b 82 3e 27 82 82 3f
       0.079716966 0.0018314399 0.254115 1.0195969
0001e0 75 59 f3 3a 0b 0d e3 bf 07 4d ac 3a f9 76 3b bb
       0.0018566089 -1.7738355 0.0013145515 -0.0028604849
0001f0 e1 40 73 ba 6a 20 13 3f 86 af 3e bf c4 16 c0 bb
       -0.0009279382 0.57471335 -0.7448658 -0.005862089
000200 97 83 ad 3d 48 44 b9 3a 06 6f 88 3d b7 f7 9a 3e
       0.084723644 0.0014134729 0.06661801 0.30267116
000210 57 1d 51 39 b2 4b a1 3d 30 20 39 bf 34 73 f4 b9
       0.00019942723 0.07875766 -0.7231474 -0.0004662514
000220 12 b6 a7 3d 37 f6 8f ba b7 3f ed 39 ac bf db be
       0.08189024 -0.0010983412 0.00045251634 -0.42919672
000230 a6 96 a0 3a f3 22 52 be a3 10 aa 3e 6b e7 98 3e
       0.0012251928 -0.20521145 0.33215818 0.29864058
000240 3e 5d 3a 3b de 40 82 3a 45 b1 ac 3d 12 50 26 bc
       0.0028436924 0.0009937545 0.08432249 -0.010150926
000250 b6 93 70 3f b4 53 9d 3d 7b c9 2f bb 7f 88 2f 3e
       0.9397539 0.07681981 -0.0026822973 0.17141913
000260 e3 e3 86 3b 24 e1 90 3d 51 f1 9e ba 4e f3 67 3c
       0.0041165217 0.07074192 -0.0012126361 0.014157129
000270 87 7e 57 bb a9 53 63 3d 97 a7 ee 3e 2b 97 8f bf
       -0.0032881813 0.055499706 0.46612236 -1.1218008
000280 b9 fe 19 bf fb 47 75 3d 3e ad 22 3f eb 93 88 3d
       -0.601543 0.0598831 0.63545597 0.06668838
000290 27 a2 4b 3f dd 75 b5 3d 0b 78 8e bb 3d 0a d6 ba
       0.795443 0.08860371 -0.0043478063 -0.0016329956
0002a0 b7 1e 8d bb 58 98 83 bb 03 03 86 3c ab c0 b8 38
       -0.00430664 -0.0040159635 0.016358858 8.809691e-05
0002b0 4b b9 9a 3d 59 b6 9a 3e d2 a8 7f be e5 d7 8b 3e
       0.07554873 0.30217245 -0.24966744 0.27313152
0002c0 ad 78 b3 3d 40 5d 77 c0 4c 82 fe 3d 24 f1 c5 3a
       0.087632515 -3.8650665 0.12427196 0.0015101773
0002d0 0a 51 12 3e 89 a2 98 3d 7e d8 62 ba 32 f0 e2 ba
       0.14288726 0.07452876 -0.00086534757 -0.0017314015
0002e0 82 fc 2d 3a a0 c4 66 bb c0 c6 d1 3e af 53 42 3e
       0.0006637053 -0.0035212412 0.40971947 0.18977235
0002f0 7f 0f ab 3f d0 e0 75 3d 3e 4b e8 ba d0 72 c2 bf
       1.3364104 0.06002885 -0.0017722619 -1.5191288
000300 df fb 64 3f dd 92 ba 3d d2 ef 3d 3e e9 d8 43 3b
       0.89446825 0.09110043 0.18548515 0.0029883927
000310 79 f9 ef 3d 08 d0 87 3d d8 be 30 be 47 82 92 bb
       0.11717505 0.06631476 -0.17260301 -0.0044710967
000320 20 f2 97 ba 4f c0 2d 3b 49 d9 15 c0 00 01 51 bb
       -0.0011592545 0.002651233 -2.341387 -0.0031891465
000330 1f 75 41 3d 61 30 e9 3e 93 27 bb 3d c0 7a a3 3d
       0.047230836 0.45544723 0.091384076 0.07982397
000340 37 04 ca 3d 3a a7 f2 be 71 c0 f6 3a 59 b6 9a 3f
       0.09864085 -0.4739321 0.0018825663 1.2086898
000350 1e 23 9a bb 07 ad 73 3b 88 da 42 bf a9 9f 9f 3d
       -0.0047038933 0.003718199 -0.761147 0.07794125
000360 56 7f 62 3f 1e 07 89 bf c9 b5 95 3d 0d 83 1c be
       0.8847555 -1.0705297 0.073100634 -0.15284367
000370 f3 0d 1f b9 f3 20 02 3e 3c 37 bd 3e d3 16 4b be
       -0.00015168618 0.12707882 0.36956203 -0.19832925
000380 1b ff 92 bf 4e 1b ae 3c 04 2e 56 c0 83 50 38 bf
       -1.1484102 0.021253254 -3.3465586 -0.7199785
000390 4c f5 45 3c 37 d8 40 3f 63 cd 97 3b 2d 7b 7d 3d
       0.012082409 0.7532992 0.0046326383 0.061885048
0003a0 1e 1c 8e bf 26 94 72 3e 3a 24 1b c0 32 a3 7f 3d
       -1.1102331 0.23689327 -2.424086 0.062411495
0003b0 5f 33 c5 3d 28 ce 14 c0 e0 42 c7 ba 92 c9 15 bf
       0.09628939 -2.3250828 -0.0015202425 -0.58510697
0003c0 74 1d e0 be 35 ec 41 bc f2 3a 53 bc b7 47 34 3a
       -0.4377247 -0.011836101 -0.012892472 0.00068771414
0003d0 13 b9 90 3e b6 1a 84 3d 0e 56 0b c0 65 5b 72 3d
       0.282662 0.06450407 -2.1771274 0.059169192
0003e0 e1 cc 59 3d 45 3d c7 38 27 08 93 3d 30 61 3f bf
       0.053173903 9.500472e-05 0.07179289 -0.7475767
0003f0 92 f1 96 3d 31 97 b4 be ff f4 7c bb 67 40 28 3e
       0.07370295 -0.352716 -0.0038598177 0.16430818
