pretrained_models/ddpg_low1_extended/q.pt (torch, 522573 bytes, 5 tensors)

weight f4 [400, 22]
0	0xbad1376e	-0.0015961954
1	0x3f3661fa	0.7124325
2	0xbf83d12a	-1.0298207
3	0xbe9c57cc	-0.30535734
4	0xbda82c02	-0.08211519
5	0x3f1f983c	0.62341666
6	0xbe163a31	-0.14670636
7	0x3cddf924	0.027096339
8	0x3e207b9e	0.15672156
9	0x3f03f5d3	0.51546973
10	0xbe4dc674	-0.20095235
11	0xbe0480bc	-0.12939733
12	0xbf0c3232	-0.5476409
13	0x3ecb6a3e	0.39729494
14	0xbc8373ea	-0.016046483
15	0xbdaa64ce	-0.08320008
16	0xbea9cd15	-0.33164278
17	0x3ea677ca	0.32513267
18	0xbe2e551c	-0.17024654
19	0xbe1d138f	-0.15339492
20	0x3db05dc9	0.08611638
21	0x3c63e1a3	0.013908776
22	0xbd33b81a	-0.043876745
23	0x3ef0b9bb	0.470167
24	0xbf969d82	-1.1766818
25	0x3b29059a	0.0025790692
26	0x3e45ae6c	0.19304818
27	0x3e01c553	0.1267293
28	0xbe6ab784	-0.22921568
29	0xbd94312c	-0.07235941
30	0x3efa348c	0.48868215
31	0x3ee78824	0.45221055
32	0xbd98ab6d	-0.07454572
33	0xbdefa947	-0.11702209
34	0x3dd329be	0.10310696
35	0x3ce43362	0.027856532
36	0xbda2b055	-0.07943789
37	0x3e264905	0.16238792
38	0x3a8d147b	0.001076355
39	0x3e016d81	0.12639429
40	0x3e8a5c8b	0.2702373
41	0xbf197e4e	-0.5995835
42	0xbbe78709	-0.007065658
43	0xbe162654	-0.14663059
44	0xbe1dbfb7	-0.15405165
45	0xbcf9cdd4	-0.030493654
46	0xbf48e474	-0.7847359
47	0x3d113d84	0.035459056
48	0xbdc1a53f	-0.09455346
49	0xbe03cfd0	-0.12872243
50	0x3ea01aee	0.31270546
51	0x3e4bd9e6	0.1990734
52	0xbda9ba0a	-0.08287437
53	0x3e32911b	0.17438166
54	0x3f0b0aef	0.5431356
55	0xbe6328cb	-0.2218353
56	0xbe94dfc9	-0.29076985
57	0x3f1ad325	0.6047843
58	0x3ddc276a	0.10749705
59	0xbe752648	-0.23940384
60	0xbd65907f	-0.056046005
61	0x3e83d8a9	0.25751236
62	0xbf02d9ee	-0.51113784
63	0x3e7eb71d	0.2487454
64	0x3ee4d11a	0.44690782
65	0x3a4b0e10	0.0007745931
66	0x3c055f07	0.008140332
67	0x3d0e349f	0.034718152
68	0xbf92cdfb	-1.146911
69	0x3dc81457	0.097695045
70	0xbe283d9a	-0.16429749
71	0xbdfa3576	-0.12217228
72	0xbbd66530	-0.006542824
73	0x3daab6d3	0.08335652
74	0x3d83fc00	0.064445496
75	0x3e7bd6fa	0.24593726
76	0x3e578f92	0.21050861
77	0xbea14048	-0.31494355
78	0x3e9b00fd	0.30274191
79	0xbe005ba3	-0.12534957
80	0xbcef7282	-0.029229406
81	0x3d733b18	0.059382528
82	0x3d7f80bf	0.06237864
83	0xbe0f4dc0	-0.13994503
84	0x3e721ae8	0.23643076
85	0xbe8b48d6	-0.27204007
86	0xbe02d4c2	-0.12776473
87	0xbb143db6	-0.002261979
88	0x3da7e924	0.08198765
89	0x3f391844	0.7230265
90	0xbd6c9c5f	-0.057766315
91	0xbd6fbe49	-0.05853108
92	0x3e1c498e	0.15262434
93	0x3f6194d4	0.8811772
94	0xbe8f057b	-0.2793387
95	0xbe8de8a2	-0.27716547
96	0xbe091948	-0.1338855
97	0x3f4a02b6	0.78910387
98	0x3cdd98ba	0.027050365
99	0xbe7e9ee2	-0.24865296
100	0xbe424b54	-0.18974048
101	0x3f602498	0.8755584
102	0x3dc4d503	0.09610941
103	0xbe34235c	-0.17591614
104	0xc0cec9b9	-6.4621243
105	0xbf0914d3	-0.535474
106	0xbeabbde6	-0.3354332
107	0x3e0e008c	0.13867396
108	0xbe7858f8	-0.24252689
109	0x3d19efad	0.03758209
110	0xbdb2d0b6	-0.08731215
111	0x3e18bd9c	0.1491608
112	0xc008821a	-2.1329408
113	0x3e3a176b	0.18172996
114	0x3e159cec	0.14610642
115	0xbe2d4d5b	-0.1692404
116	0xbd579149	-0.05262879
117	0xba307bcd	-0.0006732315
118	0x3e3cb3d0	0.18427968
119	0x3e248844	0.16067606
120	0x3e5577f7	0.20846544
121	0xbc4aa189	-0.012367615
122	0x3e880509	0.26566342
123	0x3e00895a	0.12552395
124	0xbde718c6	-0.11284022
125	0xbe1a6741	-0.1507845
126	0xbdb35ff2	-0.087585345
127	0xbe4915ee	-0.19637272
128	0x3d0c36b5	0.03423186
129	0xbeb12a45	-0.34602562
130	0xbdd7fa48	-0.10545784
131	0x3c4745fe	0.0121626835
132	0xbe0e39f5	-0.13889296
133	0xbdbc787d	-0.09202669
134	0x3fa627bf	1.298088
135	0xbd989ac9	-0.07451398
136	0x3bc22930	0.00592532
137	0xbe872b56	-0.2640025
138	0x3dcd81e5	0.10034541
139	0x3c13ea2d	0.009028
140	0x3da12995	0.07869259
141	0x3e4ffafb	0.20310585
142	0x3f80d4e2	1.0064967
143	0xbdf74bf6	-0.12075035
144	0xbebddce3	-0.37082586
145	0xbe4d92a5	-0.20075472
146	0x3ead2b7b	0.33822235
147	0xbdd88c47	-0.10573631
148	0xbe03be85	-0.12865646
149	0xbeb421fb	-0.35182175
150	0xbf2a677c	-0.66564155
151	0x3f9b9051	1.2153417
152	0x3ec42106	0.38306445
153	0xbbf2598e	-0.0073959297
154	0x3dec1017	0.115265064
155	0xbec575c9	-0.38566425
156	0x3f319552	0.6936847
157	0xbe6d50be	-0.23175332
158	0xbd389e48	-0.045072824
159	0xbe58416f	-0.21118711
160	0xbc9d87e7	-0.019229842
161	0xbe186041	-0.14880468
162	0xbe571598	-0.21004331
163	0xbe9ae643	-0.302538
164	0x3d61f079	0.055160973
165	0xbd4a3d2a	-0.049374737
166	0xbf8fa649	-1.1222621
167	0xbd88ac6a	-0.066735104
168	0xbdc04cab	-0.09389623
169	0xbd8791e2	-0.06619622
170	0x3ea30c20	0.31845188
171	0x3eb6dc0e	0.35714763
172	0x3f8a19f8	1.0789175
173	0xbe9c2fc3	-0.3050519
174	0x3b77ac53	0.0037791922
175	0x3cb39456	0.021921318
176	0xbcc98a85	-0.024602184
177	0xbe079cb5	-0.13243373
178	0x4003b6f8	2.0580425
179	0xbe26cbd1	-0.16288687
180	0x3cbb6992	0.022877488
181	0xbde9d84f	-0.11418211
182	0x3e2cfe8c	0.16893977
183	0x3d7eb334	0.06218262
184	0x3e088c4e	0.13334772
185	0x3d486306	0.04892256
186	0xbda675b0	-0.08127916
187	0xbd1e0fcb	-0.03858928
188	0xbf2def6b	-0.6794345
189	0x3d75608a	0.05990652
190	0x3e140477	0.14454828
191	0x3e1ba2d2	0.1519883
192	0xbe0ea20a	-0.13929
193	0x3c51d15f	0.012806266
194	0xbf00a13f	-0.5024604
195	0x3e52bb5c	0.20579284
196	0x398d7de0	0.000269874
197	0xbba4e368	-0.0050319918
198	0xbe02192a	-0.12704912
199	0x3c019f78	0.0079115555
200	0xbf3b1c62	-0.73090184
201	0x3dd31911	0.103075154
202	0xbe2507d6	-0.1611627
203	0xbe42f44d	-0.19038506
204	0xbe56edbe	-0.20989129
205	0x3e105656	0.14095435
206	0xbec9ad72	-0.3939014
207	0x3f3228d8	0.6959357
208	0x3f09f185	0.53884155
209	0xbcc8e5bc	-0.024523608
210	0x3e810f1e	0.25206846
211	0x3cf3ebb1	0.029775472
212	0x3dba37b1	0.090926535
213	0xbdce42a6	-0.10071306
214	0xbe22813d	-0.15869613
215	0x3f16e6a2	0.5894567
216	0xbe9f256f	-0.31083247
217	0xbe7d3971	-0.24728943
218	0x3ed4453d	0.41459075
219	0x3d47cc63	0.048778903
220	0xbc7ad327	-0.015309132
221	0x3ef89a8a	0.48555404
222	0xbecbb47d	-0.3978614
223	0x3d761844	0.060081735
224	0xbe3d3237	-0.18476187
225	0x3ea6fedc	0.32616317
226	0xbe5fed9f	-0.21867989
227	0xbcc08d77	-0.023504956
228	0xbecc149e	-0.3985948
229	0x3ea84de6	0.32871932
230	0x3c985939	0.018597232
231	0x3e575c01	0.2103119
232	0x3fa79167	1.3091248
233	0x3f019195	0.50612766
234	0x3e0b6b42	0.13615134
235	0xbdca254c	-0.09870395
236	0xbcde70e7	-0.027153445
237	0xbf432cbb	-0.7624013
238	0xbf7d768b	-0.9900901
239	0x3f1dfd47	0.61714596
240	0x3dd2f0ba	0.10299821
241	0xbcde420c	-0.027131103
242	0xbd8c8f4c	-0.06863269
243	0x3d41dd04	0.047329918
244	0x3f6548f6	0.89564455
245	0xbe760680	-0.24025917
246	0x3e1dd6df	0.15413998
247	0xbe30db0c	-0.1727106
248	0x3d7f6c3b	0.062359076
249	0xbda3f376	-0.08005421
250	0x3e44bbb7	0.19212233
251	0xbc3ce7f6	-0.011529913
252	0x3e2a96b9	0.16659059
253	0xbd9f06d5	-0.07764975
254	0xbeac4fa0	-0.336545
255	0xbdfd1beb	-0.123588406

bias f4 [400]
0	0x3da39f7b	0.07989403
1	0xbe1ea0b9	-0.15490998
2	0xbe00049e	-0.12501761
3	0x3b807127	0.003919739
4	0x3d21f09f	0.039536115
5	0x3dbbf377	0.091772966
6	0xbd17c8ab	-0.037056606
7	0xbc77e6d6	-0.015130719
8	0x3cb36a10	0.02190116
9	0x3e09d896	0.13461527
10	0x3d2c4d4d	0.042065907
11	0x3d8a4a96	0.067525074
12	0xbdd39966	-0.10331993
13	0x3e3bc6fe	0.18337628
14	0xbe3f57f8	-0.18685901
15	0xbe102a61	-0.14078666
16	0xbe59fff7	-0.21289049
17	0xbcc549a1	-0.02408296
18	0xbe0fd4c3	-0.14046006
19	0xbe1defeb	-0.15423553
20	0xbe8aa2cc	-0.2707733
21	0x3d528716	0.05139836
22	0x3ddc5deb	0.10760101
23	0x3e1df9ad	0.15427275
24	0x3c976612	0.018481288
25	0xbe4e3652	-0.20137909
26	0x3d1d3917	0.038384523
27	0x3e154614	0.14577514
28	0xbc506c40	-0.012721121
29	0xbe4424cc	-0.19154662
30	0xbe202e50	-0.15642667
31	0xbe8f8eca	-0.28038627
32	0x3ca4d0e1	0.020119132
33	0x3e2d4870	0.16922164
34	0x3db5a312	0.08868994
35	0xbe1e5e60	-0.15465689
36	0xbe2f7843	-0.1713572
37	0xbc68e968	-0.014215805
38	0xbe091121	-0.1338544
39	0xbddacf43	-0.10684063
40	0x3bde17be	0.0067777326
41	0xbdb20077	-0.08691495
42	0x3e049619	0.12947883
43	0xbbe94033	-0.007118249
44	0x3df4c5c7	0.119517855
45	0xbe351eb6	-0.17687497
46	0x3dc82d14	0.09774223
47	0x3dfb38a1	0.122666605
48	0xbe218e08	-0.15776837
49	0x3d02726a	0.031847395
50	0x3ca3481a	0.019931842
51	0x3dc88014	0.09790054
52	0x3e467ec4	0.19384295
53	0xbe06aab5	-0.13151057
54	0xbe241e6c	-0.1602723
55	0xbe3dd5cf	-0.18538593
56	0x3e58ea70	0.21183181
57	0xbdeaaac4	-0.11458352
58	0xbe508da6	-0.20366535
59	0x3e181ee9	0.14855541
60	0x3dc567b0	0.096389174
61	0x3d78fcf1	0.0607881
62	0x3df62e8b	0.12020596
63	0xbe395392	-0.18098286
64	0x3cbc05dd	0.022952015
65	0x3aea58cf	0.001787925
66	0x3e72e84d	0.23721428
67	0xbd9afa65	-0.0756729
68	0xbd8aac04	-0.067710906
69	0xbcde8853	-0.027164614
70	0x3d40ed04	0.047101036
71	0xbd9de667	-0.077099614
72	0xbe484430	-0.19557261
73	0xbd4cd154	-0.05000432
74	0x3daa9040	0.08328295
75	0x3e71dff7	0.23620592
76	0x3df1eb27	0.1181243
77	0x3d8138ff	0.06309699
78	0x3d842b1f	0.06453537
79	0xbd6854c9	-0.056721482
80	0xbd3d1201	-0.046159748
81	0x3ddd8958	0.10817212
82	0x3da3e641	0.08002902
83	0x3d1a0f49	0.037612233
84	0x3d6eb634	0.05827923
85	0x3e345195	0.17609246
86	0x3daeadc8	0.0852924
87	0xbd047269	-0.032335673
88	0xbdbf8978	-0.09352392
89	0xbe1d3771	-0.1535318
90	0xbdd07237	-0.10178035
91	0x3e0281e6	0.12744865
92	0x3d654c27	0.055980828
93	0xbdbca5b9	-0.092112966
94	0x3d93d6d6	0.07218711
95	0xbd7eb593	-0.06218488
96	0xbde19d86	-0.11016373
97	0xbc6036b9	-0.013684922
98	0xbe3318aa	-0.17489877
99	0xbe1b3571	-0.15157105
100	0xbda6e6cc	-0.0814949
101	0xbc5344e6	-0.012894845
102	0x3d983170	0.074313045
103	0xbda9fa53	-0.08299699
104	0xbe4fd79f	-0.20297097
105	0xbe45d2a4	-0.19318634
106	0x3e060d4a	0.13091007
107	0x3dc77e93	0.09740939
108	0xbe37d3b3	-0.1795185
109	0xbe3e8594	-0.18605644
110	0xbe29a777	-0.16567789
111	0x3e00229f	0.12513207
112	0x3dc93362	0.098242536
113	0x3b8939c2	0.0041877935
114	0x3dc11ffb	0.09429928
115	0xbd22d602	-0.039754875
116	0x3d96e1be	0.07367276
117	0xbe52c9b4	-0.20584756
118	0x3e35049d	0.17677541
119	0x3e08109c	0.13287586
120	0x3caa4175	0.020783165
121	0x3df4ed1e	0.11959289
122	0xbd3030bb	-0.043015223
123	0xbe210dd7	-0.15727936
124	0xbdf8be3e	-0.12145661
125	0xbe2d657e	-0.16933247
126	0xbd28c63c	-0.041204676
127	0x3dc7ecd0	0.09761965
128	0xbcf1917f	-0.029488323
129	0xbc8f50e5	-0.017494628
130	0x3dd8aa53	0.10579362
131	0xbe4864b1	-0.1956966
132	0xbe0ee5db	-0.1395487
133	0xbe55200c	-0.20813006
134	0x3e2a356c	0.16621941
135	0xbe497a42	-0.19675544
136	0x3d806466	0.062691495
137	0x3e04288a	0.1290609
138	0xbd90cbb3	-0.070701025
139	0xbdf1f898	-0.118149936
140	0x3dcb2a54	0.09920183
141	0xbe6f173e	-0.2334871
142	0xbe8e3919	-0.27777937
143	0xbd14fb77	-0.036372628
144	0xbc16e458	-0.009209715
145	0xbe2a63e5	-0.16639669
146	0xbd932bc6	-0.071860835
147	0x3e04e242	0.12976936
148	0x3d5ce41a	0.053928472
149	0x3d849d14	0.06475273
150	0x3de1aaff	0.11018943
151	0xbdf9f6fc	-0.12205312
152	0xbd4019ef	-0.046899732
153	0x3da01b7f	0.078177445
154	0x3d4fea5b	0.05076061
155	0xbe4443ef	-0.1916654
156	0x3e457d47	0.19286071
157	0xbdf6fa74	-0.12059489
158	0xbdebf26d	-0.115208484
159	0xbe96b8e3	-0.29437932
160	0xbd2b8a08	-0.041879684
161	0xbe6b07d0	-0.22952199
162	0x3e2b9752	0.16756943
163	0xbe3eab1b	-0.18619959
164	0xbcfd14cb	-0.030893704
165	0x3dff37be	0.12461804
166	0x3e1d67da	0.15371647
167	0xbcf3e0ac	-0.029770218
168	0x3dc34434	0.09534493
169	0x3d25257a	0.040318944
170	0x3d8645cc	0.065562814
171	0xbd72c415	-0.05926903
172	0xbe41b0ba	-0.18915072
173	0x3e401f06	0.18761835
174	0xbe35d679	-0.17757596
175	0x3da48990	0.080340505
176	0x3aa53b86	0.001260624
177	0x3d87ece8	0.06636983
178	0xbd9159a6	-0.07097177
179	0x3d0844c9	0.033268724
180	0x3d90c3f6	0.070686266
181	0xbe1110cf	-0.14166568
182	0x3dd9fd16	0.106439754
183	0xbd3ca442	-0.046055086
184	0xbe5abf9d	-0.21362157
185	0xbe89f9cf	-0.269484
186	0x3c12472c	0.0089281015
187	0x3e00634c	0.12537879
188	0xbe669a1e	-0.22519729
189	0xb9ac40b2	-0.00032854598
190	0x3bb0e240	0.005398065
191	0xbe5d79c2	-0.21628478
192	0x3d010a48	0.031503946
193	0xbdd645c9	-0.10462529
194	0x3cc44086	0.023956548
195	0xbe20e879	-0.15713681
196	0x3e0b67c6	0.13613805
197	0xbe1c9f86	-0.15295228
198	0x3da91894	0.08256641
199	0xbe1298e9	-0.14316143
200	0xbb9f2175	-0.0048562833
201	0x3d6eb12b	0.05827443
202	0xbe684b6a	-0.22685018
203	0xbe46e081	-0.19421579
204	0xbbf663c0	-0.0075192153
205	0xbd478d96	-0.04871901
206	0xbdc262a9	-0.09491474
207	0x3e2957ad	0.16537352
208	0xbdeefbb2	-0.11669101
209	0xbdce1dd2	-0.100642815
210	0x3cba9966	0.022778224
211	0xbcda54c6	-0.026651751
212	0xbcfe16fa	-0.031016815
213	0x3e00673e	0.12539384
214	0xbd639147	-0.05555847
215	0x3d3a1194	0.04542692
216	0x3e188db9	0.14897813
217	0xbe146ba9	-0.14494194
218	0x3e443451	0.19160582
219	0x3c849b30	0.01618728
220	0x3d93302a	0.07186921
221	0x3e3dd85b	0.18539564
222	0x3de0c9f8	0.109760225
223	0x3d5c5e95	0.053801138
224	0x3dadb61a	0.08481999
225	0x3c8183c5	0.015809903
226	0x3d4d5e91	0.050139014
227	0x3d045843	0.032310735
228	0xbdacc1f4	-0.08435431
229	0xbd339144	-0.043839708
230	0x3db2af41	0.08724833
231	0xbd638d47	-0.055554654
232	0xbdb13258	-0.086521804
233	0xbd8ac59f	-0.067759745
234	0xbd8d136b	-0.06888469
235	0x3ca32ea1	0.019919695
236	0xbdbc9a45	-0.09209112
237	0x3c72d911	0.0148222605
238	0xbd8717c4	-0.0659633
239	0x3db78923	0.08961704
240	0xbe4eb924	-0.20187813
241	0xbe603d8e	-0.21898481
242	0xbd29ddfe	-0.041471474
243	0x3c7d3837	0.015455297
244	0x3e157b97	0.14597927
245	0x3ce24a15	0.027623216
246	0xbda0fa51	-0.07860244
247	0xbe84718e	-0.25867885
248	0xbe0276c1	-0.12740614
249	0x3d3caa1f	0.046060678
250	0xbe4e6bd3	-0.20158319
251	0xbe2ce845	-0.16885479
252	0x3d212424	0.039341107
253	0x3de68f2c	0.112577766
254	0x3d2359c9	0.039880548
255	0x3e5441f8	0.2072829

weight f4 [300, 400]
0	0xbd37532f	-0.044757064
1	0x3e1594dd	0.14607568
2	0x3d9196dc	0.07108852
3	0xbc2e3604	-0.0106329955
4	0xbe16a353	-0.14710741
5	0x3cd03dd0	0.0254201
6	0xbeb33bcf	-0.35006568
7	0x3d04618c	0.03231959
8	0xbe0eeb76	-0.13957009
9	0x3d59f187	0.053208854
10	0xbe4c72f8	-0.19965732
11	0xbe5cec28	-0.21574461
12	0xbab7cf76	-0.001402362
13	0xbd03a01e	-0.03213512
14	0x3d696072	0.056976743
15	0xbe9b44b1	-0.30325845
16	0xbf262451	-0.64899164
17	0x3d47be72	0.048765607
18	0x3e0e2cf9	0.13884343
19	0xbc272d8e	-0.010203732
20	0x3af3ce0d	0.0018600837
21	0xbeb42b2a	-0.35189182
22	0x3e458fbb	0.1929311
23	0xbe842e54	-0.25816596
24	0x3b9f5d4e	0.0048634177
25	0x3ed95c0b	0.42453036
26	0xbeb9eeeb	-0.36315092
27	0x3e58c3b3	0.21168403
28	0xbee767dd	-0.4519643
29	0xbc40f035	-0.01177602
30	0x3e433650	0.19063687
31	0xbe7ee983	-0.24893765
32	0xbf3a7428	-0.7283349
33	0x3d1add0f	0.037808474
34	0xbea97311	-0.330956
35	0xbe283cf8	-0.16429508
36	0xbe4a83d9	-0.19776858
37	0xbca37e23	-0.019957608
38	0x3dbcaec9	0.09213025
39	0x3ef2f19a	0.47449952
40	0x3df989fd	0.12184522
41	0x3daa9dd0	0.083308816
42	0x3db799f3	0.0896491
43	0x3eab51fd	0.3346099
44	0xbe7ea581	-0.24867822
45	0xbc612c53	-0.013743478
46	0x3ea593da	0.32339364
47	0x3cefc13a	0.029266942
48	0x3e2f1d31	0.1710098
49	0x3dfe32fe	0.1241207
50	0x3d3e6e06	0.046491645
51	0x3db73595	0.08945767
52	0xbe0d8f0a	-0.13824096
53	0xbd9905b2	-0.074717894
54	0x3c6ebd92	0.014571564
55	0x3d5d4bad	0.05402725
56	0x3cbb0fbd	0.022834653
57	0xbd42b9ee	-0.047540598
58	0xbe0768ed	-0.1322362
59	0x3e10ff1a	0.14159814
60	0x3d7f4721	0.062323693
61	0x3d30ee10	0.043195784
62	0x3e002681	0.12514688
63	0xbd627c88	-0.055294544
64	0xbecc67bf	-0.39922902
65	0xbe6a2647	-0.22866164
66	0xbd88670e	-0.06660281
67	0x3e0023b5	0.12513621
68	0xbeec80a6	-0.461919
69	0xbe2e8e55	-0.17046483
70	0xbe283097	-0.16424786
71	0x3dfa1d57	0.122126274
72	0x3c868d9a	0.016424943
73	0x3ee9f84b	0.45697245
74	0x3e334e7c	0.17510408
75	0xbe8bbcfd	-0.27292624
76	0x3e1dd21d	0.15412183
77	0x3c6aaf83	0.014324072
78	0x3e93f66a	0.28898937
79	0x3df92b94	0.12166515
80	0xbb7680d8	-0.0037613418
81	0x3e87938f	0.26479766
82	0xbe8dffaf	-0.27734134
83	0x3da56472	0.08075799
84	0xbe63c244	-0.22242075
85	0xbd9d3e4d	-0.076778986
86	0x3c066d7d	0.008204815
87	0x3c28f67c	0.010312673
88	0x3db60438	0.088875234
89	0xbbdadc73	-0.0066791116
90	0x3d3c5c7a	0.04598663
91	0xbe3c4212	-0.18384579
92	0xbcbb66c2	-0.022876147
93	0xbef20147	-0.472666
94	0xbe36b952	-0.17844132
95	0x3d956013	0.07293715
96	0xbd9013c8	-0.07035023
97	0x3d9d95fc	0.07694623
98	0xbe5ac87d	-0.21365543
99	0x3be5d602	0.007014037
100	0x3d6791e4	0.056535617
101	0xbded9400	-0.116004944
102	0x3d43c936	0.04779931
103	0x3d1044e3	0.035221945
104	0x3cabb2c3	0.020959264
105	0x3e80cd0d	0.2515644
106	0x3d1b4452	0.037906952
107	0x3e699ae2	0.2281299
108	0x3e7c72a2	0.24653104
109	0xbecd9246	-0.4015066
110	0x3b49825d	0.0030747869
111	0xbd19f0dc	-0.037583217
112	0xbdb2a18b	-0.08722218
113	0x3c6aaf11	0.014323966
114	0x3ebb0788	0.36529183
115	0x3da87c38	0.08226818
116	0x3d468ec4	0.048475996
117	0xbde80c24	-0.11330441
118	0xbd903ca5	-0.07042817
119	0xbe68a928	-0.22720778
120	0x3e200a00	0.15628815
121	0xbc0d45a8	-0.008622564
122	0xbe232a59	-0.15934123
123	0x3d133f36	0.035948955
124	0xbecffe8e	-0.40623897
125	0x3db39f8a	0.08770664
126	0x3d2cca3c	0.042185053
127	0xbd6a6a23	-0.057230126
128	0x3bed7017	0.007246028
129	0x3efe3dc8	0.4965651
130	0xbdf329cc	-0.118732065
131	0x3e07cc9d	0.13261648
132	0x3d243d44	0.04009749
133	0xbb3e4871	-0.0029034878
134	0x3d8b9a53	0.068165444
135	0x3d442b97	0.047893133
136	0xbdea4558	-0.114390075
137	0x3e078796	0.13235316
138	0x3e7643a2	0.24049237
139	0x3d08b337	0.033374038
140	0xbebc2af4	-0.3675152
141	0x3c86f6e3	0.016475147
142	0xbe9e099c	-0.30866706
143	0xbc97b5b1	-0.018519254
144	0xbc19aa68	-0.009379007
145	0xbd56ed6b	-0.052472513
146	0xbc5d9328	-0.013523854
147	0x3dd3e90f	0.10347187
148	0x3d161e65	0.03665008
149	0xbe81c64b	-0.25346598
150	0x3e0c48a8	0.13699591
151	0xbe3dfa88	-0.18552601
152	0x3e3a03e5	0.18165548
153	0x3c230f4e	0.009952379
154	0xbe2fc241	-0.17163946
155	0x3cd41474	0.025888659
156	0xbe3681b6	-0.17822918
157	0xbe1efe90	-0.15526795
158	0xbbf41a39	-0.007449415
159	0x3d5612e9	0.052264128
160	0xbd0f4b44	-0.03498389
161	0xbeab1e13	-0.33421382
162	0xbde3c580	-0.111216545
163	0x3f0057f0	0.5013418
164	0x3c9aa750	0.018878609
165	0x3e20fb90	0.15720963
166	0x3c4e2cd9	0.012583935
167	0xbba84b35	-0.0051359185
168	0x3e9b76d3	0.30364093
169	0xbd7785c2	-0.060430296
170	0x3d7df9ad	0.062005688
171	0xbe28dc9f	-0.1649041
172	0x3bc739ff	0.0060799117
173	0x3ca4b928	0.02010782
174	0x3df9888a	0.12184246
175	0xbd1e84db	-0.03870092
176	0x3dc61fb1	0.096740134
177	0x3e1fef53	0.15618639
178	0xbd6065a1	-0.05478442
179	0xbc167a20	-0.00918439
180	0xbd173dc4	-0.03692414
181	0xbcb6285e	-0.022236045
182	0x3e054d34	0.13017732
183	0xbe6eae27	-0.23308621
184	0xbe5a1864	-0.21298367
185	0xbc35ec4c	-0.011103701
186	0xbe734d8f	-0.23760055
187	0xbdebd5ab	-0.11515363
188	0x3dff8068	0.124756634
189	0x3d970173	0.07373323
190	0xbe53c74e	-0.20681497
191	0xbd384ad7	-0.044993248
192	0x3e2aabd6	0.16667113
193	0x3ce9c510	0.02853635
194	0xbd0b95e7	-0.034078505
195	0xbccb5406	-0.024820339
196	0x3ce9323c	0.028466336
197	0xbe30e57d	-0.17275043
198	0x3dd4ac77	0.103844576
199	0x3e973996	0.29536122
200	0xbd37135f	-0.044696208
201	0x3df76bba	0.12081094
202	0x3e0922ce	0.13392183
203	0x3e67be11	0.22631098
204	0x3ddbe4fe	0.10737036
205	0xbd8d80d8	-0.069093406
206	0x3e979b80	0.29610825
207	0x3d72a98a	0.059243716
208	0xbe82e1bb	-0.25562844
209	0xbea2e097	-0.31811973
210	0xbd9d4b47	-0.07680374
211	0xbd53fa65	-0.051752467
212	0xbd26cb5f	-0.040721294
213	0xbd5096a4	-0.050924912
214	0x3da8d07e	0.08242892
215	0xbe14e8d1	-0.14541937
216	0x3e05f8e4	0.13083225
217	0xbcb2c76c	-0.021823607
218	0x3e189110	0.14899087
219	0xbd63c067	-0.05560341
220	0xbf18bac7	-0.5966
221	0x3e03df8c	0.12878245
222	0xbe0060dd	-0.1253695
223	0xbb0d2e24	-0.0021542395
224	0xbe8734a8	-0.2640736
225	0x3c51e55a	0.012811029
226	0x3dc89dde	0.09795736
227	0xbd7f3c64	-0.062313452
228	0x3e815280	0.25258255
229	0x3d97d48f	0.07413589
230	0x3e37fc7f	0.17967413
231	0xbea44cbc	-0.32089794
232	0x3d61798d	0.05504756
233	0x3d8417ec	0.06449875
234	0xbe0e142a	-0.1387488
235	0x3e6d53ab	0.23176448
236	0xbd44cc84	-0.048046604
237	0x3e0274f2	0.12739924
238	0x3dbc58fa	0.091966584
239	0xbeaa466b	-0.3325685
240	0xbefcbca7	-0.4936268
241	0xbdcfd49f	-0.10147976
242	0xbbbd1a33	-0.0057709455
243	0x3e84aaf8	0.2591169
244	0xbb97e530	-0.0046354756
245	0xbda0d6f7	-0.07853501
246	0xbccf9ff2	-0.025344823
247	0x3e8f494c	0.2798561
248	0xbc99f378	-0.018792853
249	0x3c80ba37	0.015713794
250	0xbe3c2304	-0.18372732
251	0x3e8c9876	0.27460068
252	0x3c51c684	0.0128036775
253	0x3dc68685	0.09693626
254	0x3e13ae3c	0.14421934
255	0xbde7a502	-0.113107696

bias f4 [300]
0	0x3cb9cabb	0.022679677
1	0xbd5a9ce8	-0.053372294
2	0xbcd6a04a	-0.026199479
3	0x3db72468	0.08942491
4	0x3da26f3d	0.07931373
5	0x3da58cb6	0.08083479
6	0x3cad3310	0.021142513
7	0xbd96976f	-0.073531024
8	0x3d09396e	0.033502035
9	0x3df51cff	0.11968421
10	0xbd271049	-0.040787015
11	0x3defcc8a	0.117089346
12	0x3d991dca	0.07476385
13	0x3e3bbf36	0.1833466
14	0x3dd899f4	0.10576239
15	0xbd1972eb	-0.03746311
16	0xbdb76529	-0.08954842
17	0xbdeba8e4	-0.11506823
18	0x3e58cdc0	0.21172237
19	0xbe742b51	-0.23844649
20	0x3c92980f	0.017894773
21	0x3e165e71	0.14684464
22	0x3e0c7e4d	0.13720055
23	0xbe2d1d01	-0.16905595
24	0x3e111558	0.14168298
25	0xbe02987a	-0.12753478
26	0xbd43ee74	-0.04783483
27	0xbd027a03	-0.03185464
28	0x3d4a735f	0.049426433
29	0x3d973506	0.0738316
30	0x3e4c2cec	0.19939011
31	0x3e2c8f82	0.16851619
32	0x3d13792b	0.036004227
33	0x3dc0dcc2	0.09417106
34	0x3dc610cc	0.096711725
35	0x3e044d4a	0.12920108
36	0x3e138021	0.14404346
37	0x3e19092a	0.14944902
38	0x3dc4c4d2	0.09607853
39	0x3e5b7b68	0.21433794
40	0x3cb6cd95	0.022314826
41	0x3ccaf2fc	0.024774067
42	0xbed975c5	-0.42472664
43	0x3dc6ad68	0.09701043
44	0x3b41c065	0.002956414
45	0x3c233586	0.009961491
46	0xbead895e	-0.33893865
47	0x3dfbf579	0.123026796
48	0x3e0171e7	0.12641107
49	0x3e123cdb	0.14281027
50	0xbe05f833	-0.13082962
51	0x3cce2f16	0.025168937
52	0x3d53c8ff	0.051705357
53	0x3dc4bd0e	0.09606372
54	0x3dfb65c7	0.12275272
55	0x3dfa27a2	0.122145906
56	0xbee26d0a	-0.44223815
57	0x3e018e38	0.12651908
58	0x3e237668	0.15963137
59	0xbd1f8aa2	-0.03895057
60	0x3e607f0b	0.21923463
61	0xbb97d1fb	-0.004633186
62	0xbe197d0c	-0.14989108
63	0x3e2ecdd9	0.17070712
64	0xbd283176	-0.041062795
65	0x3dcb52c2	0.09927894
66	0x3dc18ab0	0.09450281
67	0x3df074b5	0.1174101
68	0xbb470dc7	-0.0030373202
69	0x3d86b242	0.06576969
70	0x3d93e2b4	0.072209746
71	0x3ddbeafb	0.10738178
72	0xbc34691b	-0.011011387
73	0x3da56b5e	0.08077119
74	0x3e2b92bd	0.16755195
75	0xbbbd2960	-0.0057727545
76	0x3dcd3d7a	0.10021491
77	0x3e68c9f9	0.22733296
78	0x3dcfcc61	0.10146404
79	0xbd45f71e	-0.048331372
80	0x3e3e135f	0.18562077
81	0x3e09ab18	0.13444173
82	0xbac9f22b	-0.0015407255
83	0x3dc8c411	0.09803022
84	0xbd84161f	-0.06449532
85	0xbcc36387	-0.02385117
86	0x3e251709	0.16122068
87	0x3df76160	0.1207912
88	0x3df51454	0.11966768
89	0xb9d7cc4b	-0.00041160206
90	0x3a3165f2	0.0006767205
91	0xbe758161	-0.23975135
92	0x3e1aa119	0.15100516
93	0xbdaf0670	-0.0854615
94	0xbdea400a	-0.11437996
95	0xbe605e62	-0.21911004
96	0xbd9258d7	-0.07145851
97	0x3dc97ce8	0.09838277
98	0xbc9d1caa	-0.019178707
99	0x3cef8408	0.029237762
100	0x3e47940a	0.19490066
101	0xbe1c4bda	-0.1526331
102	0x3dff8e28	0.12478286
103	0x3d91ba3b	0.07115599
104	0x3d306ca1	0.043072347
105	0x3e2d8606	0.16945657
106	0x3db65574	0.08903018
107	0x3deddec0	0.11614752
108	0xbe0742f6	-0.13209137
109	0x3d833e0f	0.06408321
110	0x3e02c407	0.12770091
111	0x3d951dad	0.07281051
112	0x3e180fa1	0.14849712
113	0xbd0f5ced	-0.03500073
114	0x3d564a2b	0.052316826
115	0xbd4ba439	-0.04971716
116	0xbd5d75ee	-0.054067545
117	0x3e06da65	0.13169248
118	0x3d977774	0.07395831
119	0xbbf55151	-0.0074865003
120	0x3ddb52da	0.10709162
121	0xbb3aa878	-0.0028481763
122	0x3cfc1255	0.03077046
123	0x3da6d2b6	0.08145659
124	0xbb646a8e	-0.003485355
125	0x3d8c6f7e	0.06857203
126	0xbdedd272	-0.11612405
127	0xbcd0e8a7	-0.025501562
128	0x3db0baf8	0.086294115
129	0x3e3a81ef	0.18213628
130	0x3dad663b	0.084667645
131	0x3e0d7a40	0.13816166
132	0xbbb4fcb3	-0.005523288
133	0xbe9c697d	-0.3054923
134	0x3e2a67e7	0.16641198
135	0x3db95f61	0.09051395
136	0xbddfbc91	-0.10924638
137	0x3d89addc	0.06722614
138	0x3c86dabb	0.01646172
139	0x3db76a46	0.08955817
140	0x3e9efec2	0.3105374
141	0xbc223d14	-0.0099022575
142	0x3d04f39f	0.032458898
143	0x3c9acda5	0.018896887
144	0x3df6872d	0.120375015
145	0x3da9967c	0.08280656
146	0x3e00ecd9	0.1259035
147	0x3dfdebe4	0.12398508
148	0x3dc76ee2	0.09737946
149	0xbd804027	-0.06262236
150	0xbd2ab09a	-0.041672327
151	0x3d9e5862	0.077317014
152	0xbccd58af	-0.025066702
153	0xbe1a495a	-0.15067044
154	0x3bb66dcb	0.0055672876
155	0xbd6e6fc6	-0.058212064
156	0x3e14839f	0.14503334
157	0xbabff4e6	-0.0014645129
158	0x3dc4308f	0.09579574
159	0x3d6d9a8d	0.05800872
160	0xbedf6dcc	-0.43638456
161	0x3e578d9a	0.2105011
162	0x3dba5afd	0.09099386
163	0x3dc7dc66	0.097588345
164	0x3bfba0b6	0.0076790703
165	0xbdbe8ca2	-0.09304167
166	0xbe42a7c5	-0.19009311
167	0x3df1b5f3	0.11802282
168	0xbcf930be	-0.03041875
169	0xbc982fe0	-0.018577516
170	0x3dd92e22	0.10604502
171	0x3c9e8695	0.019351283
172	0x3df44820	0.11927819
173	0x3df5cd64	0.12002066
174	0x3e46baa7	0.1940714
175	0xbbb4814a	-0.0055085765
176	0xbe2efcd6	-0.17088637
177	0x3dc69e68	0.09698182
178	0xbd5313a7	-0.051532414
179	0x3db1987a	0.08671661
180	0x3ded14c6	0.11576228
181	0x3e8a1c55	0.2697474
182	0x3dd54d15	0.10415093
183	0x3e201ffd	0.15637203
184	0x3dfc9e29	0.12334854
185	0x3ceb015d	0.028687174
186	0x3e0bc9d0	0.13651204
187	0xbda2d6ab	-0.07951101
188	0x3c800f2d	0.015632236
189	0x3c863174	0.016381003
190	0x3d9e82e5	0.0773981
191	0x3c290e80	0.0103183985
192	0xbe2c55c1	-0.16829588
193	0xbbea1cfc	-0.0071445685
194	0x3e157fe0	0.14599562
195	0x3dc7d004	0.09756473
196	0xbcdb79af	-0.026791422
197	0x3e913d6a	0.28367168
198	0xbd168ac6	-0.03675344
199	0x3e29592a	0.1653792
200	0x3e380527	0.17970715
201	0x3e886197	0.26636955
202	0xbd09a133	-0.033600997
203	0x3dc09b11	0.094045766
204	0x3d654d3c	0.05598186
205	0x3e31e8b2	0.17373922
206	0x3dadb519	0.08481807
207	0xbe3e0e09	-0.18560041
208	0x3e26b3d3	0.16279535
209	0xbe6e3a59	-0.23264445
210	0x3deea4ac	0.116525024
211	0x3e1c50be	0.15265176
212	0xbed02551	-0.4065347
213	0xbc8b185c	-0.016979389
214	0x3e0fa536	0.14027867
215	0x3dbc52fa	0.09195514
216	0x3e2ffbd7	0.17185913
217	0xbd22da49	-0.039758954
218	0x3e3cbd10	0.18431497
219	0xbd7c60df	-0.06161582
220	0xbe206433	-0.15663223
221	0x3e0d8eab	0.13823955
222	0x3de90afe	0.1137905
223	0x3d2cbe0e	0.042173438
224	0x3d36622a	0.04452721
225	0x3e24ad47	0.16081725
226	0xbd208e02	-0.03919793
227	0xbe3c0195	-0.18359978
228	0x3e03fb13	0.12888746
229	0xbcae9104	-0.021309383
230	0xbc25aad8	-0.010111533
231	0x3c97db46	0.018537175
232	0x3e323ee2	0.174068
233	0xbd0f76f9	-0.03502557
234	0x3d8c9d02	0.06865884
235	0x3e0d4ca1	0.13798763
236	0xbd873689	-0.06602199
237	0xbe60e778	-0.21963298
238	0x3b40969c	0.0029386645
239	0x3e8fc7fb	0.2808226
240	0xbd26b219	-0.04069719
241	0x3db21d0e	0.08696948
242	0x3b1775a9	0.0023110902
243	0x3d6d6c47	0.05796459
244	0xbd37ddb3	-0.044889163
245	0xbe30b74f	-0.17257427
246	0x3da03fef	0.07824694
247	0xbe4cc104	-0.19995505
248	0x3db0a6cd	0.08625565
249	0x3be72ead	0.0070551247
250	0xbd90edc7	-0.070766024
251	0xbd31b980	-0.043389797
252	0x3c22d285	0.009937887
253	0x3cb002b8	0.021485671
254	0x3d8279ae	0.06370865
255	0x3c4447c2	0.011979999

weight f4 [1, 300]
0	0x3ec93c15	0.3930365
1	0xbb8b4d4a	-0.004251157
2	0xbbc2c478	-0.005943831
3	0xc0456adb	-3.084647
4	0x3e9a6bb9	0.3016031
5	0xbfa08da7	-1.2543229
6	0xbf86c4bf	-1.0528792
7	0x3b0ee8df	0.0021806282
8	0xbf645367	-0.8918976
9	0xbffb6d61	-1.9642755
10	0xba33f617	-0.00068649783
11	0xbfad39da	-1.353328
12	0x3fbc2e0b	1.4701551
13	0xbf6db007	-0.9284672
14	0xc034042c	-2.8127546
15	0xbb331810	-0.0027327575
16	0xc024780a	-2.5698266
17	0xbe3ef995	-0.18649895
18	0x3e3bf094	0.18353492
19	0xbe42e697	-0.19033276
20	0xbc8b5893	-0.017010009
21	0xbfd2abfd	-1.6458737
22	0xbfc5813a	-1.5430062
23	0x4000d31d	2.0128853
24	0xbee68521	-0.45023444
25	0xbf49414b	-0.78615254
26	0xbb274e9d	-0.0025529035
27	0xbb36989f	-0.0027861965
28	0xbf203b9f	-0.62590975
29	0xbf2a87b5	-0.6661332
30	0x3df8160f	0.12113582
31	0x3e888f06	0.26671618
32	0xbf048404	-0.5176394
33	0xbfe5972d	-1.793676
34	0xbfd1a722	-1.637913
35	0xbfbfdb8d	-1.4988877
36	0x3f26f48b	0.6521689
37	0x3e126a31	0.14298321
38	0xbfef555e	-1.8697927
39	0x3e2e306d	0.1701066
40	0xbf89f81f	-1.0778846
41	0xbfcfd475	-1.6236712
42	0xbea463a2	-0.32107264
43	0xbfba633b	-1.4561533
44	0xbf7f93b9	-0.9983478
45	0xbf375698	-0.71616507
46	0xbe8a6af4	-0.27034724
47	0xbfdf6bc6	-1.7454765
48	0xbf407691	-0.7518092
49	0xbfe95212	-1.8228171
50	0xbe0d9264	-0.13825375
51	0xbeaebec4	-0.34129918
52	0xbfb24439	-1.392707
53	0xc02ce42f	-2.7014272
54	0xc0012d43	-2.0183876
55	0xc0065e74	-2.099515
56	0xbe962f50	-0.29332972
57	0xc020ed1b	-2.5144718
58	0xbf97b3c3	-1.1851734
59	0xbfa98412	-1.324343
60	0x3dc524d3	0.09626164
61	0xbf4be22c	-0.79641986
62	0xbffce453	-1.9757179
63	0xbfc8063f	-1.5626906
64	0xbb04387c	-0.002017527
65	0x3deda3d4	0.11603513
66	0xbfda83f8	-1.7071524
67	0xc007d0da	-2.1221223
68	0xba73425e	-0.0009279604
69	0xc00c37ba	-2.1909013
70	0xbf23fe7e	-0.640602
71	0xbf420490	-0.7578821
72	0xba5ac3cf	-0.0008345218
73	0xbf304cff	-0.68867487
74	0xbfaa7070	-1.3315563
75	0xbff5602b	-1.9169973
76	0xc004af1a	-2.0731874
77	0x3e0f281b	0.13980143
78	0xbea1e39a	-0.3161896
79	0x3b011e66	0.0019701957
80	0x3e984c50	0.29745722
81	0xbfb2f228	-1.398015
82	0xbfb44cc8	-1.4085932
83	0xbfaf2896	-1.3684261
84	0xbeada531	-0.33915094
85	0xbb8dd371	-0.0043281843
86	0xbfa64156	-1.2988689
87	0xbf19d064	-0.60083604
88	0xbfb9561b	-1.4479402
89	0xba8ce364	-0.001074892
90	0xba517511	-0.00079901615
91	0xbe741287	-0.23835193
92	0xbeb3254b	-0.3498939
93	0xbe7ad5bd	-0.24495597
94	0xbea0b8b6	-0.31390923
95	0xbf426377	-0.7593302
96	0x3efc7560	0.493083
97	0xbfb13aec	-1.3846107
98	0xbb99021f	-0.0046694423
99	0xbba5b27e	-0.0050566783
100	0xbfde197e	-1.735153
101	0xbeb5d074	-0.355106
102	0xc005e154	-2.091878
103	0xbfd40268	-1.6563234
104	0xbd70869a	-0.058722116
105	0xbf1353a5	-0.57549506
106	0xbf8302d7	-1.0235242
107	0xbf92e22b	-1.1475271
108	0xbe34b5e8	-0.17647517
109	0xbf3b8226	-0.73245466
110	0x3e3b05e9	0.18263973
111	0xc00aa4a4	-2.1662989
112	0xbfab28cd	-1.3371826
113	0x3b107bf1	0.002204653
114	0x3ebe4385	0.37160888
115	0xbf808dc0	-1.0043259
116	0xbe1ecf5a	-0.15508786
117	0xbfef9f26	-1.8720443
118	0xbff92d45	-1.946694
119	0xbe0bf666	-0.13668212
120	0xbfdffbc7	-1.7498711
121	0xbb82d967	-0.0039932015
122	0xbf7afe5b	-0.98044366
123	0xbf5ad177	-0.8547587
124	0xbed60f3b	-0.41808495
125	0xbfa28596	-1.2697017
126	0xbe3c3f99	-0.18383636
127	0xbe4bf268	-0.1991669
128	0xbf6f3aef	-0.934493
129	0xbfa9ef33	-1.3276123
130	0xbfb1f816	-1.3903835
131	0xbfb2441a	-1.3927033
132	0x3a37a3ab	0.00070052844
133	0xbf80ea0c	-1.0071425
134	0xbf65d27c	-0.897743
135	0xbfe3da5b	-1.7801012
136	0xbf04335d	-0.51640874
137	0xbfbed734	-1.4909425
138	0xbf8e6d68	-1.1127138
139	0xbf3ed0a3	-0.74537104
140	0x3e32c098	0.17456281
141	0xbf0d8d5b	-0.55293816
142	0xc00077ad	-2.0073044
143	0xbbc1961a	-0.005907786
144	0xbfa317e1	-1.2741662
145	0xc00ba195	-2.1817372
146	0x3e549ddd	0.20763345
147	0xbfad40be	-1.3535383
148	0xc006f39c	-2.1086187
149	0xbeccd781	-0.40008166
150	0x00000000	0.0
151	0xbea5ecf2	-0.32407337
152	0xbf4bd4dd	-0.7962168
153	0xbf1f8726	-0.62315595
154	0x3a026750	0.0004974501
155	0x3b883c1b	0.0041575558
156	0xbf12185f	-0.5706844
157	0xbef831f3	-0.48475608
158	0xbfab4f67	-1.3383607
159	0xbfeecf70	-1.8657055
160	0xbf874b85	-1.0569922
161	0x3ea430be	0.32068437
162	0xbfa0bd9c	-1.2557864
163	0xbe6f21e6	-0.23352775
164	0x3a876891	0.0010330846
165	0xbe01be44	-0.12670237
166	0x3eef34f8	0.467201
167	0xbfacfd58	-1.3514814
168	0x3bce65ef	0.0062987725
169	0x3aa57887	0.0012624421
170	0xbeaeb4e9	-0.34122398
171	0xbf9237cc	-1.1423278
172	0x3e04d1e2	0.12970689
173	0xbe61717a	-0.22015944
174	0xbf3700e3	-0.7148573
175	0xbe3d383a	-0.1847848
176	0xbf3ed232	-0.7453948
177	0xc001e403	-2.0295417
178	0x3b946a03	0.004529239
179	0xbd7d9a00	-0.061914444
180	0xbdd4bdda	-0.10387774
181	0x3e331b61	0.17490913
182	0xc0221c3f	-2.532974
183	0xbef287cb	-0.47369227
184	0xbff17e0c	-1.8866591
185	0xbeb486b7	-0.3525903
186	0xbfa7a09b	-1.3095888
187	0xbf5c9754	-0.8616841
188	0xbc2c911d	-0.010532645
189	0xbf921459	-1.141246
190	0x3e93972c	0.28826272
191	0xbf824497	-1.0177182
192	0xbfba7186	-1.4565895
193	0xbfaad5bd	-1.3346478
194	0xbf28ac12	-0.6588756
195	0xbf9da7e5	-1.2316862
196	0x3bb45695	0.0055034854
197	0x3e9a5476	0.30142564
198	0xbfc9ce7e	-1.5766141
199	0x3e04fc85	0.12986954
200	0xbfae35db	-1.3610185
201	0x3e8995a8	0.2687199
202	0xbd9d6b49	-0.07686479
203	0xbfc297d5	-1.5202585
204	0xbf17cc02	-0.59295666
205	0x3dcf8b2d	0.101339675
206	0xc0094c17	-2.1452692
207	0xbf25d99e	-0.6478518
208	0x3e4d9a8e	0.20078489
209	0xbe24114a	-0.1602222
210	0xbf968793	-1.1760124
211	0x3e14f857	0.14547859
212	0xbfb60564	-1.4220395
213	0xbbbe4fec	-0.0058078673
214	0x3ebe8d9e	0.3721742
215	0xbf8d98a1	-1.1062204
216	0xbf45eba2	-0.7731267
217	0xbb383bff	-0.0028111932
218	0xbf05f643	-0.5232889
219	0x3ba4431f	0.0050128843
220	0xbdc1ef25	-0.09469441
221	0xbfdb8a34	-1.7151551
222	0xc01a873f	-2.4145048
223	0xbf9c90c4	-1.2231679
224	0xbe62ec95	-0.22160561
225	0xbfb93b62	-1.4471247
226	0xb9d8c19a	-0.00041342975
227	0xbe408cd2	-0.18803719
228	0x3f8675a6	1.0504653
229	0x3a436631	0.00074538874
230	0xbfb8bb65	-1.4432188
231	0xbf01ba6b	-0.50675076
232	0xbfc21a14	-1.5164208
233	0xbedfc95f	-0.4370832
234	0xbf9488a7	-1.1604203
235	0xbf65a784	-0.89708734
236	0xbe950fa1	-0.29113486
237	0xbf985857	-1.1901959
238	0xbd5cd443	-0.053913366
239	0x3deddd52	0.11614479
240	0xbb4a9e07	-0.0030916946
241	0xbfcba321	-1.5909158
242	0x3aaa42b7	0.0012989853
243	0xc00c92a8	-2.1964512
244	0xba2c2717	-0.0006567104
245	0x3fa87f19	1.3163787
246	0xbf909e6a	-1.1298344
247	0xbf28de95	-0.65964633
248	0xbf8f320c	-1.1187148
249	0xbb3d652b	-0.0028899412
250	0xbe850eb6	-0.25987786
251	0xbd3efa53	-0.046625447
252	0x3b6fb059	0.0036573617
253	0x3c270918	0.010195039
254	0xbf373830	-0.7157011
255	0xbb6a050a	-0.003570857
