pretrained_models/ddpg_default1_extended/policy.pt (torch, 521619 bytes, 5 tensors)

weight f4 [400, 21]
-0.773268 0.6299907 -0.5969657 0.0024258483 -1.5463411 0.47579575 -0.38146496 0.09184072
0.27051422 0.9294663 -0.10781405 -0.16084224 -0.46315172 1.0190493 -0.20953825 0.022759784
-0.23916873 -0.06394767 0.21295431 -0.51474684 -0.049111784 -0.18421595 0.32716537 -1.0206349
0.0029345825 -0.2945618 0.41284403 -0.1361862 0.07057642 -0.09205923 0.3255977 0.15123755
0.03611126 0.31014314 0.45428857 0.13011678 0.11219063 -0.13908528 0.5585197 0.28591102
-0.58417416 0.6652314 -0.1986816 0.6541158 -0.17067775 0.034166683 -0.696579 0.44836962
-0.113631114 -0.20158401 0.32736194 1.0653001 0.24119994 -0.0704296 0.7512176 0.67968875
0.2883554 0.14531283 -0.2057462 -0.15436694 0.57631826 -0.8263057 0.22922555 -0.27806512
0.8866326 1.4141848 -0.059900176 -1.0226951 0.88695323 0.3319077 0.107886724 -0.52930415
0.25252143 -0.17946446 -0.051651333 1.1148248 0.43092978 0.06392613 -0.18628457 -0.22825707
-0.47808626 0.16422507 -0.54806006 0.055014975 -0.66859746 0.85552496 1.1466184 0.18728226
-0.7371754 0.5116884 0.4702807 -0.03911137 0.12614878 0.31557497 0.529225 0.046365615
-0.39840612 0.41582555 0.05349182 0.14163531 -0.41123247 1.0141246 -0.58639973 0.6692997
-0.148664 -0.17832935 0.16357668 -0.07459525 -0.07556909 -0.11945653 0.007218487 0.12799463
0.009836386 -0.0346659 -0.123567626 -0.16371037 -0.0791323 -0.03438994 -0.18709545 0.04596193
-0.23026009 0.109266765 0.09928032 -0.21655333 -0.010106561 -0.19074246 0.09816962 0.086965665
-0.54949844 -0.34855628 -0.061697822 -0.10363775 -0.40846774 -0.18124714 0.30027774 -0.02192474
-0.21989469 -0.041064586 0.4528911 -0.17516474 -0.3615251 0.004272823 0.0058292854 0.45039192
1.066135 -0.34261805 0.15920685 -0.74653894 -0.23210554 -0.16892172 0.28560954 0.1328604
-0.00077169953 0.13470781 0.13282485 0.082939856 0.30751288 0.23610899 -0.038609847 0.35346127
0.24705416 -0.23097113 0.17266083 0.1625563 0.39097664 -0.7294952 0.2462648 0.2615515
-0.30595496 0.27837783 2.651575 -0.004293658 -1.1085745 0.6532702 0.4685815 0.20763949
-0.020108258 0.23553918 0.19509001 0.050373793 -0.05870291 -0.020167233 0.04102796 -0.10393291
-0.1680618 -0.4174245 0.850008 -1.5285383 0.33864203 0.23013887 0.09332163 0.42074805
0.05073143 -0.099349044 -0.042133044 0.3823109 -0.066142604 0.3732136 -0.4861601 -0.1909092
-0.14514604 -0.66362995 -0.44577885 -0.24911591 0.17490605 -0.18343966 0.5542362 0.12267085
-0.6058023 0.20013337 -0.103308745 -0.03280122 1.0018027 -0.077659525 0.20003608 -0.21405916
0.111138135 -0.104811154 -0.23580427 -0.4877979 -0.2347062 0.015195025 0.43258357 -0.4109752
0.056876466 -0.056535576 0.102303684 -0.008182127 -1.193393 0.5143206 -0.09780281 -0.3202951
-0.055229757 -2.1585097 0.13241144 -0.65330267 0.17390177 -0.4061671 0.044330895 0.1576633
0.09902879 -0.30094138 -0.1395999 0.4676999 0.021031084 -0.07624182 0.064434476 -0.06418538
-0.18989182 0.3764977 -0.69008476 -0.22582634 -0.66525465 -0.2184327 -1.0118455 0.04239646
00000000: e4f4 45bf 1247 213f bed2 18bf fbfa 1e3b
00000010: 81ee c5bf 809b f33e 604f c3be fd16 bc3d
00000020: d780 8a3e 81f1 6d3f 9dcd dcbd d4b3 24be
00000030: 3922 edbe 3570 823f 3291 56be ba72 ba3c
00000040: a6e8 74be fff6 82bd b210 5a3e 73c6 03bf
00000050: 7029 49bd 1ba3 3cbe 3882 a73e 2aa4 82bf
00000060: 2052 403b ced0 96be 4b60 d33e 6574 0bbe
00000070: 5f8a 903d 8d89 bcbd beb4 a63e 04de 1a3e
00000080: 67e9 133d 15cb 9e3e 8398 e83e 553d 053e
00000090: 33c4 e53d 5f6c 0ebe 26fb 0e3f ee62 923e
000000a0: 708c 15bf 9b4c 2a3f 3073 4bbe 2274 273f
000000b0: 26c6 2ebe 5df2 0b3d 0053 32bf b490 e53e
000000c0: 6eb7 e8bd 0a6c 4ebe fc9b a73e c15b 883f
000000d0: 1efd 763e 653d 90bd cc4f 403f 1500 2e3f
000000e0: 52a3 933e e3cc 143e 22af 52be 5e12 1ebe
000000f0: 9889 133f c588 53bf 1aba 6a3e 8d5e 8ebe
00000100: 5bfa 623f 0204 b53f e359 75bd ace7 82bf
00000110: 5e0f 633f ceef a93e b7f3 dc3d 7a80 07bf
00000120: 7d4a 813e 88c5 37be 5990 53bd 94b2 8e3f
00000130: d4a2 dc3e b4eb 823d 62c1 3ebe 39bc 69be
00000140: b9c7 f4be 9e2a 283e aa4d 0cbf 6257 613d
00000150: 3429 2bbf af03 5b3f 64c4 923f ecc6 3f3e
00000160: 87b7 3cbf 03fe 023f a2c8 f03e 3e33 20bd
00000170: 252d 013e 0b93 a13e 4a7b 073f dfe9 3d3d
00000180: e3fb cbbe 16e7 d43e 3d1a 5b3d d908 113e
00000190: 108d d2be d6ce 813f 4b1e 16bf 3a57 2b3f
000001a0: 603b 18be f89b 36be a580 273e 65c5 98bd
000001b0: f8c3 9abd a0a5 f4bd 0f89 ec3b 0611 033e
000001c0: cb28 213c d5fd 0dbd 0611 fdbd b1a3 27be
000001d0: 1e10 a2bd 77dc 0cbd f395 3fbe 9442 3c3d
000001e0: 4dc9 6bbe 41c7 df3d 7b53 cb3d 28c0 5dbe
000001f0: fd95 25bc fe51 43be 270d c93d 0e1b b23d
00000200: eeab 0cbf f875 b2be dbb6 7cbd 0740 d4bd
00000210: af22 d1be da98 39be 01be 993e 839b b3bc
00000220: 132c 61be 5733 28bd 58e1 e73e 635e 33be
00000230: d119 b9be 0a03 8c3b 9703 bf3b c599 e63e
00000240: 1d77 883f a26b afbe 1f07 233e 2d1d 3fbf
00000250: 13ad 6dbe d1f9 2cbe 6a3b 923e 8f0c 083e
00000260: e14b 4aba d8f0 093e 3d03 083e 5fdc a93d
00000270: 5472 9d3e 8ec6 713e 5c25 1ebd e0f8 b43e
00000280: c4fb 7c3e b283 6cbe 00ce 303e 2975 263e
00000290: 172e c83e 33c0 3abf d72c 7c3e 14ea 853e
000002a0: 21a6 9cbe 8a87 8e3e 68b3 2940 d0b1 8cbb
000002b0: c5e5 8dbf b73c 273f eae9 ef3e 729f 543e
000002c0: 13ba a4bc 2f31 713e adc5 473e c054 4e3d
000002d0: 7672 70bd c135 a5bc ef0c 283d c7da d4bd
000002e0: 6418 2cbe aab8 d5be 209a 593f 25a7 c3bf
000002f0: 7d62 ad3e 86a9 6b3e 691f bf3d 4a6c d73e
00000300: c3cb 4f3d 8377 cbbd b393 2cbd 41be c33e
00000310: c675 87bd da15 bf3e fae9 f8be b47d 43be
00000320: 2aa1 14be a7e3 29bf 203d e4be 3e18 7fbe
00000330: 921a 333e 9bd7 3bbe 6ce2 0d3f db3a fb3d
00000340: dc15 1bbf c3ef 4c3e 8993 d3bd 925a 06bd
00000350: 123b 803f f50b 9fbd 42d6 4c3e 5332 5bbe
00000360: 649c e33d 3ba7 d6bd ad76 71be a5c0 f9be
00000370: d256 70be 8ef4 783c 987b dd3e 576b d2be
00000380: 4cf7 683d d991 67bd 9884 d13d 540e 06bc
00000390: 1ac1 98bf 84aa 033f d74c c8bd b8fd a3be
000003a0: 9938 62bd 0625 0ac0 dd96 073e d83e 27bf
000003b0: 4e13 323e 22f5 cfbe 5094 353d 7d72 213e
000003c0: 9bcf ca3d fd14 9abe 47f3 0ebe 5c76 ef3e
000003d0: 6149 ac3c ac24 9cbd 39f6 833d a073 83bd
000003e0: 0073 42be 4ec4 c03e 65a9 30bf 053f 67be
000003f0: 214e 2abf d2ac 5fbe 2784 81bf e9a7 2d3d

bias f4 [400]
0.1032038 -0.059983086 -0.12897758 0.024264615 -0.14680584 -0.026119996 0.1841688 -0.033984605
-0.026155714 -0.032185733 0.20934239 0.050335832 -0.0019184257 -0.15205707 -0.030028826 -0.04072421
-0.25545418 0.12640671 -0.034122378 -0.20613918 -0.021019472 -0.099269874 -0.060456593 -0.05896192
0.1963479 0.1148089 0.05009043 0.016836872 -0.102935135 0.068815574 0.17478773 -0.15586284
-0.115545966 -0.06981714 -0.15523767 -0.052722104 -0.15181491 -0.2080191 -0.043872293 -0.022900334
0.27156729 -0.073083915 -0.06847878 -0.029806722 0.21377556 -0.18254328 0.2089144 -0.0013633276
-0.15679562 0.06973139 -0.17706342 -0.0476833 0.06153514 -0.16085005 0.028375402 -0.17612848
0.14268325 0.046897516 0.10562593 -0.09387631 -0.20435059 0.14939955 -0.17164713 0.13612151
-0.11711213 -0.23863149 0.03072797 -0.0640358 0.02858505 -0.1289257 -0.24467206 -0.27940416
-0.074065425 -0.16100231 -0.29182228 0.060501907 -0.08249854 0.16080251 0.04394612 -0.19385771
-0.1150081 0.0108800875 0.10335289 -0.103190854 -0.04939261 0.17039898 0.056928534 0.12668635
-0.05632083 0.09535518 -0.22656022 -0.19743943 -0.23088783 -0.21303418 -0.23584381 0.06680369
-0.09763529 -0.032978095 0.06292577 0.019577852 -0.1427852 -0.09446501 0.12836294 -0.12361984
0.117606945 0.07846553 0.04886377 -0.14179766 0.09729946 0.075691774 -0.009373714 -0.1017406
-0.12603179 -0.017885113 0.06231649 0.0058084764 0.1173084 -0.18095236 -0.34505585 0.08929949
0.0036234586 -0.10053898 -0.025993848 -0.09367087 -0.19242598 -0.18991746 -0.23679756 0.09201684
-0.082077466 -0.312772 0.043866068 -0.04825618 0.09492807 0.124189764 -0.19646204 0.12615801
-0.24037784 -0.26320565 -0.14286372 0.12232149 0.0965241 -0.09355857 0.13793251 0.17213885
0.13260601 -0.095601715 0.049543966 -0.0413431 -0.16618721 0.12248896 -0.2066559 -0.27067026
-0.04435425 -0.06501417 0.16312961 -0.04279572 0.02171175 -0.06357898 0.060675383 0.011771316
-0.22070351 0.20519367 -0.15517232 -0.14737819 -0.19558689 -0.029891292 -0.09585595 -0.183125
0.009708061 0.1294859 -0.21644554 -0.30173802 -0.26194096 0.14346865 -0.032328315 -0.14773436
0.07934293 0.1531511 0.18351759 -0.09882174 0.12870154 -0.06217819 -0.03024976 -0.116107814
0.025933038 -0.28599957 -0.1389612 -0.10555107 0.035648357 0.0804003 0.08951914 -0.17017418
0.1329503 -0.24797516 -0.13541512 -0.08849983 0.066438414 -0.23593788 0.09173714 -0.22197717
-0.15108797 -0.26378137 -0.15258549 -0.0015097983 -0.05602829 -0.10964722 0.06835901 0.12612905
-0.047429085 0.035445597 0.03942679 -0.06475143 -0.15457126 -0.07846711 -0.11624699 0.12940116
0.098262586 0.024606904 0.25390682 -0.2134768 -0.054899015 0.10769339 0.2549565 -0.30659655
-0.16031632 0.11556406 -0.022227893 0.05912054 -0.2653551 0.12483628 0.09502906 -0.21184956
-0.061141685 -0.18775685 -0.20614591 0.031537324 -0.31912187 -0.1572509 -0.05575024 -0.053354103
0.017716452 0.010543685 0.2379701 -0.08443726 0.09880799 0.08660231 -0.10756041 -0.08264414
-0.26657543 -0.04659616 0.09780051 -0.17141318 -0.12528485 -0.17366993 0.13917974 -0.091736235
00000000: 845c d33d d3b0 75bd b312 04be 96c6 c63c
00000010: 4554 16be 9af9 d5bc bf96 3c3e 7133 0bbd
00000020: 8244 d6bc 30d5 03bd da5d 563e f22c 4e3d
00000030: af73 fbba d9b4 1bbe 03ff f5bc 6ece 26bd
00000040: e4ca 82be c370 013e e8c3 0bbd 2616 53be
00000050: 0731 acbc 014e cbbd 55a1 77bd 0e82 71bd
00000060: 6d0f 493e ee20 eb3d 9f2b 4d3d 7bed 893c
00000070: a8cf d2bd 2eef 8c3d 8efb 323e 829a 1fbe
00000080: 5da3 ecbd 4afc 8ebd a0f6 1ebe 22f3 57bd
00000090: 5e75 1bbe f502 55be 6fb3 33bd 7b99 bbbc
000000a0: de0a 8b3e 05ad 95bd 9a3e 8cbd 3a2d f4bc
000000b0: fbe7 5a3e a0ec 3abe a8ed 553e afb1 b2ba
000000c0: 088f 20be 55cf 8e3d 1d50 35be 904f 43bd
000000d0: 450c 7c3d e0b5 24be 8873 e83c 065b 34be
000000e0: 8f1b 123e 9c17 403d 6852 d83d 3942 c0bd
000000f0: 4841 51be 32fc 183e 44c4 2fbe 7063 0b3e
00000100: 7cd8 efbd d05b 74be 39b9 fb3c 3425 83bd
00000110: 322b ea3c 1905 04be 508b 7abe 100e 8fbe
00000120: 9daf 97bd cadd 24be bb69 95be d9d0 773d
00000130: fff4 a8bd 6aa9 243e d900 343d a382 46be
00000140: 5e89 ebbd 6542 323c aeaa d33d ba55 d3bd
00000150: e84f 4abd 127d 2e3e e52d 693d 11ba 013e
00000160: acb0 66bd 9449 c33d 67ff 67be 902d 4abe
00000170: dc6d 6cbe a225 5abe 0a81 71be 5fd0 883d
00000180: 03f5 c7bd 0a14 07bd 3adf 803d bb61 a03c
00000190: 4936 12be df76 c1bd 9371 033e 662c fdbd
000001a0: e9db f03d 89b2 a03d 6025 483d 6833 11be
000001b0: f044 c73d 4a04 9b3d 3594 19bc 605d d0bd
000001c0: 7a0e 01be cd83 92bc 933f 7f3d 0855 be3b
000001d0: 633f f03d 934b 39be 29ab b0be a7e2 b63d
000001e0: 8c77 6d3b 61e7 cdbd 0df1 d4bc 83d6 bfbd
000001f0: 510b 45be b979 42be 0f7b 72be 5373 bc3d
00000200: 3b18 a8bd a723 a0be e8ac 333d 46a8 45bd
00000210: a669 c23d 3457 fe3d 582d 49be 912f 013e
00000220: 9c25 76be e4c2 86be de4a 12be b083 fa3d
00000230: 6dae c53d a39b bfbd 2e3e 0d3e 2b45 303e
00000240: dfc9 073e d5ca c3bd 9dee 4a3d 6257 29bd
00000250: fb2c 2abe 7edb fa3d 9b9d 53be 4b95 8abe
00000260: cdac 35bd 2626 85bd 730b 273e 914a 2fbd
00000270: d7dc b13c b235 82bd c086 783d 7adc 403c
00000280: 1a00 62be 4a1e 523e 7ee5 1ebe 4fea 16be
00000290: ee47 48be 95de f4bc 2050 c4bd 1f85 3bbe
000002a0: 8f0e 1f3c f497 043e e6a3 5dbe 687d 9abe
000002b0: 201d 86be 72e9 123e b26a 04bd ad47 17be
000002c0: 8c7e a23d a4d3 1c3e 09ec 3b3e 0d63 cabd
000002d0: 56ca 033e 8fae 7ebd 58ce f7bc efc9 edbd
000002e0: 8671 d43c 896e 92be d84b 0ebe 292b d8bd
000002f0: 0304 123d eaa8 a43d d055 b73d 2442 2ebe
00000300: 2024 083e 33ed 7dbe 43aa 0abe 663f b5bd
00000310: dd10 883d b399 71be afe0 bb3d fc4d 63be
00000320: ceb6 1abe 5a0e 87be 5f3f 1cbe 6de4 c5ba
00000330: ec7d 65bd b98e e0bd cfff 8b3d f927 013e
00000340: 0045 42bd 672f 113d fc7d 213d 669c 84bd
00000350: ee47 1ebe 5db3 a0bd e712 eebd bd81 043e
00000360: e53d c93d 6b94 c93c 1300 823e aa99 5abe
00000370: cadd 60bd 5a8e dc3d a989 823e 39fa 9cbe
00000380: f629 24be daac ec3d 4517 b6bc 6128 723d
00000390: a0dc 87be 2aaa ff3d 999e c23d 17ef 58be
000003a0: b46f 7abd 5543 40be ea17 53be 482d 013d
000003b0: f163 a3be 6106 21be 5d5a 64bd d589 5abd
000003c0: 1822 913c 6cbf 2c3c 6fae 733e 71ed acbd
000003d0: d85b ca3d 8d5c b13d a248 dcbd 5541 a9bd
000003e0: 937c 88be 9ddb 3ebd a24b c83d f086 2fbe
000003f0: ac4a 00be 88d6 31be 2285 0e3e 35e0 bbbd

weight f4 [300, 400]
-0.15746531 0.36773327 -0.20220698 -0.1284414 0.28749716 0.06465879 -0.5772924 0.1059936
-0.84663725 0.59451365 -0.048304338 0.14681895 -0.22403568 0.020866686 -0.24388698 -0.009775172
-0.16517216 0.17855583 -0.26609132 0.22339486 0.26154953 -0.006974775 0.050498504 0.045209095
-0.6760989 0.073260345 -0.11847996 -0.24900843 -0.009159935 0.08952127 -0.6931839 -0.010380531
-0.19221854 -0.029921547 -0.009270973 0.12791936 -0.016117677 -0.13030952 0.089837536 0.06722402
-0.46254107 0.20595181 -0.08351995 0.044495553 0.24603882 -0.34180474 0.20564163 0.013340886
-0.4154785 -0.5535572 0.037170313 -0.08509014 -0.06650613 0.03270625 -0.03881399 -0.03308207
-0.039605536 0.36026236 0.05531091 0.04229656 -0.1906395 0.033283424 -0.03880325 -0.6921281
0.035630867 0.12011981 0.08102669 -0.016678656 -0.097183995 0.0064559462 -0.09052015 -0.3068822
-0.091209404 0.04813034 0.459023 0.08229613 -0.026424522 0.11159344 0.088828795 -0.044889275
-0.032957196 0.45573202 -0.03302858 0.02139086 -0.2914834 -0.0766831 0.51502115 0.23291487
0.30175117 0.24783133 0.05385195 0.16534121 -0.22557947 -0.07382283 -0.5012957 0.023167063
-0.05506143 -0.06428501 0.033954915 -0.007702199 -0.02219554 -0.24743317 -0.3161693 -0.13334185
0.12614769 -0.10680637 -0.0092048785 0.0319377 0.061635587 -0.036796965 -0.008207005 0.02052914
-0.006793088 -0.3131427 -0.018060619 0.009695688 0.07567025 0.07777252 -0.21880813 -0.29015377
-0.3218737 -0.027574558 -0.07145258 -0.07241245 -0.3198658 -0.041370373 -0.007179978 -0.46101722
-0.36361533 0.19311917 0.039202835 0.044504683 -0.43514022 -0.054229632 -0.010101038 -0.13024487
-0.6736488 -0.14712037 -0.16760562 0.007743031 -0.13426347 0.16456343 0.032114875 -0.17732506
0.06193465 0.3968219 0.00059921097 -0.26060873 0.0036656738 -0.15474571 0.13846016 -0.41106704
0.330656 0.17568867 -0.29423422 -0.05294942 0.019528676 0.4208175 0.26142332 -0.040678326
0.012084466 0.034221917 -0.23820756 0.18482585 -0.44640622 -0.005447817 0.006024522 -0.027090222
-0.18255801 -0.09681386 0.042512972 0.07979542 -0.4084 -0.27747312 -0.066577956 -0.24282637
-0.16367564 0.022343183 -0.22277974 0.0098955035 -0.04489113 -0.0039806375 -0.009397984 0.2859202
0.30128875 -0.019658353 0.013342303 -0.09644682 -0.046352368 0.25136903 -0.2582229 0.4373172
0.1291049 -0.09950919 -0.0065487265 0.033343293 0.6859772 -0.017337978 0.034786653 0.096566536
-0.45689437 0.0235509 -0.455057 0.10056553 0.024187248 -0.016122622 0.38908303 -0.3950565
-0.21942024 -0.3531438 0.22814056 -0.4777873 0.024489507 0.045932233 -0.0225803 0.0056806523
-0.11753968 0.17262483 -0.8362095 -0.036874935 -0.2500317 0.12877999 0.2213701 -0.17276293
-0.18830845 -0.5922194 0.06759623 -0.2813243 -0.018205637 -0.9428107 -0.00843876 0.04843206
-0.08413648 -0.0033724387 0.28849083 -0.21509297 -0.055271342 0.07629191 0.04598969 -0.03463539
0.02569501 -0.23341247 0.49881688 0.1126475 -0.5219489 0.6861358 -0.034507334 0.031164706
0.07219843 0.18558864 0.13573644 0.02036928 -0.5638961 0.19344804 0.011636752 -0.010740203
00000000: 963e 21be 8947 bc3e 590f 4fbe 2486 03be
00000010: d432 933e d46b 843d 6fc9 13bf 2c13 d93d
00000020: 38bd 58bf 0c32 183f c5da 45bd b557 163e
00000030: 9c69 65be 9df0 aa3c 82bd 79be 0b28 20bc
00000040: e422 29be 57d7 363e 1f3d 88be 9fc1 643e
00000050: d2e9 853e a78c e4bb 85d7 4e3d 2c2d 393d
00000060: d114 2dbf 8509 963d 9fa5 f2bd 11fc 7ebe
00000070: 8d13 16bc ed56 b73d 8074 31bf 1a13 2abc
00000080: f0d4 44be 081e f5bc 47e5 17bc 4bfd 023e
00000090: 3809 84bc dc6f 05be befc b73d bfac 893d
000000a0: 2fd2 ecbe 08e5 523e 820c abbd f840 363d
000000b0: 9af1 7b3e 0801 afbe b893 523e bb93 5a3c
000000c0: 99b9 d4be edb5 0dbf e63f 183d bd43 aebd
000000d0: 5e34 88bd fdf6 053d 6bfb 1ebd 1181 07bd
000000e0: 6a39 22bd 4f74 b83e b18d 623d 283f 2d3d
000000f0: 0037 43be 3354 083d 28f0 1ebd 4f2f 31bf
00000100: acf1 113d 6001 f63d 52f1 a53d ada1 88bc
00000110: 6708 c7bd 678c d33b a162 b9bd aa1f 9dbe
00000120: ffcb babd 5224 453d 1005 eb3e e08a a83d
00000130: 3d78 d8bc 1a8b e43d dfeb b53d d1dd 37bd
00000140: 20fe 06bd b555 e93e fa48 07bd e33b af3c
00000150: 503d 95be 070c 9dbd 6dd8 033f 3c81 6e3e
00000160: 217f 9a3e 7fc7 7d3e dd93 5c3d 354f 293e
00000170: 4efe 66be 6d30 97bd ea54 00bf dac8 bd3c
00000180: 1888 61bd dca7 83bd 4f14 0b3d ba62 fcbb
00000190: 6cd3 b5bc 1f5f 7dbe f1e0 a1be c48a 08be
000001a0: dc2c 013e 4cbd dabd 0fd0 16bc 1bd1 023d
000001b0: 9975 7c3d 6ab8 16bd ad76 06bc ba2c a83c
000001c0: 8d98 debb 3d54 a0be ddf3 93bc aada 1e3c
000001d0: 01f9 9a3d 3347 9f3d 3d0f 60be 098f 94be
000001e0: a1cc a4be 0ae4 e1bc bb55 92bd fb4c 94bd
000001f0: 73c5 a3be fb73 29bd 0546 ebbb 730a ecbe
00000200: ca2b babe 08c1 453e 2793 203d 8b4a 363d
00000210: b3ca debe e41f 5ebd d37e 25bc e95e 05be
00000220: 3f74 2cbf b9a6 16be cfa0 2bbe 40b9 fd3b
00000230: 5d7c 09be 5183 283e e38a 033d b394 35be
00000240: 30af 7d3d 3d2c cb3e 5e14 1d3a 826e 85be
00000250: cd3b 703b a975 1ebe 80c8 0d3e 6177 d2be
00000260: be4b a93e bbe7 333e dea5 96be 7ee1 58bd
00000270: 9afa 9f3c 6475 d73e 47d9 853e 519e 26bd
00000280: edfd 453c 482c 0c3d afec 73be fd42 3d3e
00000290: 5b8f e4be 9a83 b2bb 5a69 c53b 50ec ddbc
000002a0: 7df0 3abe 5846 c6bd 1522 2e3d c86b a33d
000002b0: ce19 d1be f510 8ebe 065a 88bd 7aa7 78be
000002c0: 969a 27be 0d09 b73c 5f20 64be c020 223c
000002d0: c3df 37bd 0270 82bb 00fa 19bc 2264 923e
000002e0: 8542 9a3e 8e0a a1bc ad99 5a3c e985 c5bd
000002f0: fbdb 3dbd 71b3 803e cb35 84be 0ae8 df3e
00000300: 1334 043e 79cb cbbd b396 d6bb fa92 083d
00000310: 349c 2f3f 6008 8ebc 737c 0e3d adc4 c53d
00000320: 0fee e9be d1ed c03c 3bfd e8be 4df5 cd3d
00000330: 5624 c63c 9713 84bc e435 c73e d844 cabe
00000340: b3af 60be 44cf b4be ae9d 693e 89a0 f4be
00000350: 389e c83c 7023 3c3d 52fa b8bc c424 ba3b
00000360: a5b8 f0bd 90c4 303e d311 56bf 2c0a 17bd
00000370: 2804 80be e7de 033e d8ae 623e c4e8 30be
00000380: eed3 40be b19b 17bf e46f 8a3d bd09 90be
00000390: fd23 95bc 0b5c 71bf ba42 0abc b260 463d
000003a0: bf4f acbd 2204 5dbb 12b5 933e 5541 5cbe
000003b0: 3464 62bd ef3e 9c3d af5f 3c3d d7dd 0dbd
000003c0: 577e d23c ae03 6fbe ed64 ff3e bcb3 e63d
000003d0: 719e 05bf 99a6 2f3f 9057 0dbd 204d ff3c
000003e0: c5dc 933d f30a 3e3e 7efe 0a3e 7add a63c
000003f0: 7f5b 10bf 3e17 463e 13a8 3e3c adf7 2fbc

bias f4 [300]
0.175497 0.14251153 -0.037434116 0.038472768 -0.06596394 -0.34566957 0.09022047 -0.15067041
-0.018665807 0.16531469 -0.035674427 0.049516305 -0.05012551 0.004035014 -0.16381203 -0.09160409
-0.016963769 0.05875467 -0.03969799 -0.046935566 0.21407406 0.03214389 -0.014612182 -0.051406566
-0.082637355 0.1987533 -0.090999655 0.15552354 -0.044895574 0.044170316 0.14665066 -0.03886708
0.11718407 -0.0864788 -0.04144531 0.006594881 0.11578255 0.14522776 0.38405958 -0.08069627
-0.005638439 -0.0923127 -0.048696846 -0.02681348 -0.045966085 0.19171016 -0.12734789 -0.11361486
0.005119012 -0.1181552 0.34645092 0.26524356 -0.09951213 -0.024027357 0.0014168891 0.00629972
-0.022592638 0.21641895 0.12658168 -0.006910045 -0.035051495 -0.13176359 0.18695927 -0.026264768
-0.002669927 -0.10975413 0.03980064 0.09773966 0.1976164 -0.048625603 -0.010849997 -0.026748411
0.33785164 0.0086355 0.3577943 -0.06772448 -0.030204806 0.24213806 -0.01661745 -0.045245722
-0.060051836 0.05391866 -0.03491971 0.0045573106 -0.07086715 -0.059744127 7.494739e-05 0.06469539
-0.058071356 -0.021350348 -0.0004937706 -0.043222524 -0.031711996 -0.07476974 0.16889349 -0.09166577
-0.023275599 0.1850939 0.088167764 0.15605044 0.0057794303 0.02337177 -0.018186456 0.16073322
-0.018805122 -0.01301801 0.080156036 0.08681418 -0.008081248 -0.2198297 -0.06303339 -0.019743327
0.0829487 -0.16896333 0.016421406 0.059209254 0.09015277 -0.08399169 -0.0106497 0.010516382
-0.03797303 -0.057515766 0.009547441 0.06557191 0.34231445 -0.016083168 0.050701175 0.22081321
-0.045163676 0.14920214 0.0026454455 -0.09820543 0.19404376 -0.037770785 -0.022319058 0.16022746
-0.012125635 -0.025450198 -0.0591214 0.09619441 -0.0358108 -0.049734175 -0.006347835 0.32517996
-0.021012062 -0.022724587 0.01236887 0.0042418935 -0.060816746 0.16829422 -0.088032156 -0.0383499
-0.03655768 -0.111391686 -0.06606089 -0.04202088 0.03492651 -0.02856703 -0.011709944 -0.022703068
0.02217023 -0.012260793 0.14738727 -0.0014795032 0.0032531575 0.025833668 -0.036316402 0.1744618
-0.0698721 0.10087758 0.065756395 -0.07644724 -0.047989972 0.071687475 -0.058908395 -0.026997978
0.34459877 0.06804178 -0.03133617 -0.036690895 -0.04850631 -0.061921902 -0.0594869 0.009380342
-0.055832036 -0.044970963 -0.020177241 -0.05568944 0.2322578 -0.078465186 0.10701541 -0.01215515
0.19055371 -0.048674002 0.08046928 0.05933612 0.034184374 0.04818917 0.17524096 0.07616191
-0.010552865 0.16357662 0.009115798 -0.10224591 0.13332307 0.083458595 0.1975272 -0.017980492
-0.17066173 -0.074420854 -0.029324947 0.1255195 -0.109200604 -0.054805454 -0.02175165 -0.039850105
-0.123879306 -0.02292291 -0.019544592 -0.013937552 0.35167685 0.22608379 -0.042092394 0.0051709535
-0.03382811 -0.020610727 0.08077773 0.006020448 -0.019101042 0.02531674 -0.010521369 0.0030130378
-0.024296144 0.06908913 -0.058114033 0.10494271 -0.12917076 -0.04814898 -0.048090246 -0.07110842
0.069246784 -0.09991594 0.0072841607 0.00038339515 -0.047748383 0.032639656 -0.073576555 -0.01819038
0.10423495 -0.07144294 -0.00096046925 -0.0577979 -0.006073527 0.16345559 -0.08098912 0.02135005
00000000: 7cb5 333e 8bee 113e 8454 19bd 9f95 1d3d
00000010: 1a18 87bd 9afb b0be 83c5 b83d 5849 1abe
00000020: 09e9 98bc 4148 293e 591f 12bd 9cd1 4a3d
00000030: 6850 4dbd 2738 843b 57be 27be ed9a bbbd
00000040: 9af7 8abc bda8 703d 5c9a 22bd 823f 40bd
00000050: 3b36 5b3e 50a9 033d ef67 6fbc b18f 52bd
00000060: c63d a9bd fc85 4b3e 075e babd 9041 1f3e
00000070: 6ce4 37bd efeb 343d 972b 163e 1633 1fbd
00000080: 34fe ef3d cc1b b1bd 8fc2 29bd df19 d83b
00000090: 671f ed3d 96b6 143e 75a3 c43e 1644 a5bd
000000a0: a8c2 b8bb 710e bdbd 5876 47bd f1a7 dbbc
000000b0: ef46 3cbd ab4f 443e 7c67 02be e8ae e8bd
000000c0: 63bd a73b 5afb f1bd 0462 b13e 01ce 873e
000000d0: 04cd cbbd 05d5 c4bc e9b6 b93a e26d ce3b
000000e0: 3214 b9bc ee9c 5d3e a19e 013e a96d e2bb
000000f0: 2892 0fbd 09ed 06be 4072 3f3e 3629 d7bc
00000100: f1f9 2ebb c6c6 e0bd ff05 233d bb2b c83d
00000110: f45b 4a3e a42b 47bd 30c4 31bc 7c1f dbbc
00000120: e4fa ac3e ea7b 0d3c d130 b73e 22b3 8abd
00000130: 1270 f7bc 0af3 773e 5221 88bc 9453 39bd
00000140: eaf8 75bd d0d9 5c3d f807 0fbd 7e55 953b
00000150: cc22 91bd 42b6 74bd 132d 9d38 047f 843d
00000160: 3bdc 6dbd ede6 aebc 6270 01ba 1a0a 31bd
00000170: 70e4 01bd e120 99bd 6af2 2c3e 43bb bbbd
00000180: 78ac bebc 4189 3d3e 4d91 b43d b0cb 1f3e
00000190: 6061 bd3b 2776 bf3c c3fb 94bc 4097 243e
000001a0: 330d 9abc 7e49 55bc d928 a43d a2cb b13d
000001b0: 3667 04bc 091b 61be a617 81bd c2bc a1bc
000001c0: 02e1 a93d b904 2dbe 2f86 863c 6785 723d
000001d0: 04a2 b83d d603 acbd 147c 2ebc e74c 2c3c
000001e0: 9c89 1bbd a795 6bbd df6c 1c3c 914a 863d
000001f0: d743 af3e d9c0 83bc 09ac 4f3d dc1c 623e
00000200: 8cfd 38bd 72c8 183e 365f 2d3b ee1f c9bd
00000210: 68b3 463e 8ab5 1abd 75d6 b6bc ab12 243e
00000220: 99aa 46bc ef7c d0bc 4829 72bd 9301 c53d
00000230: 58ae 12bd 10b6 4bbd 8001 d0bb fd7d a63e
00000240: 7d21 acbc ea28 babc cda6 4a3c 95ff 8a3b
00000250: fb1a 79bd 5255 2c3e 344a b4bd c914 1dbd
00000260: 82bd 15bd 5321 e4bd ef4a 87bd 161e 2cbd
00000270: 1a0f 0f3d 6705 eabc 11db 3fbc c9fb b9bc
00000280: 589e b53c 7ee1 48bc b0ec 163e e4eb c1ba
00000290: ed32 553b 21a1 d33c 82c0 14bd 1da6 323e
000002a0: 1b19 8fbd e898 ce3d 4aab 863d 5f90 9cbd
000002b0: 2291 44bd e2d0 923d ee49 71bd dd2a ddbc
000002c0: 406f b03e 7d59 8b3d 5b5a 00bd 3149 16bd
000002d0: 8dae 46bd d2a1 7dbd 89a8 73bd 02b0 193c
000002e0: 22b0 64bd 7933 38bd be4a a5bc 9c1a 64bd
000002f0: fdd4 6d3e 5bb2 a0bd e52a db3d 6526 47bc
00000300: 8320 433e 645e 47bd 14cd a43d 6e0a 733d
00000310: ea04 0c3d 0262 453d 5e72 333e c7fa 9b3d
00000320: ede5 2cbc a180 273e 6e5a 153c 4e66 d1bd
00000330: d885 083e 57ec aa3d 9244 4a3e d34b 93bc
00000340: f3c1 2ebe f669 98bd df3a f0bc 2f88 003e
00000350: 91a4 dfbd af7b 60bd 8430 b2bc dd39 23bd
00000360: 6fb4 fdbd d4c8 bbbc fb1b a0bc 555a 64bc
00000370: fd0e b43e 8282 673e 1369 2cbd 1a71 a93b
00000380: 588f 0abd d4d7 a8bc cb6e a53d 2e47 c53b
00000390: ca79 9cbc 0d65 cf3c d261 2cbc 6376 453b
000003a0: b508 c7bc 9a7e 8d3d fb08 6ebd 34ec d63d
000003b0: 5745 04be dd37 45bd 47fa 44bd 4ba1 91bd
000003c0: 42d1 8d3d baa0 ccbd f8af ee3b 6d02 c939
000003d0: cf93 43bd 29b1 053d 4eaf 96bd fe03 95bc
000003e0: 2279 d53d ad50 92bd 00c8 7bba 7ebd 6cbd
000003f0: 7004 c7bb e760 273e a0dd a5bd 4de6 ae3c

weight f4 [1, 300]
-0.91068184 0.18319921 1.3545645 0.5375183 0.3097285 1.4339484 -0.3054035 0.5812187
-0.0005979268 1.7951168 -0.010951172 0.200991 -0.009073067 0.58216065 0.81994826 1.2723308
0.010130988 -0.48122224 0.030661333 -0.0033457824 -0.7876895 0.33362696 -0.24009372 0.008500173
0.031053483 1.2660023 -0.11247593 1.4894158 0.0051518925 0.82710606 0.57742876 0.02048939
-0.09770094 -0.028647533 0.01760159 -0.15316334 -0.6469559 1.3638057 1.842127 0.016973497
0.016209928 0.14821339 0.0046402207 0.03744113 0.10276674 1.2848574 1.1288707 0.4326755
0.021078886 0.10450551 -1.3525968 -0.41227588 0.120230615 -0.20314582 -0.22309175 0.010152966
-0.32634267 -0.63334 0.1813819 0.0018795527 0.0042705154 0.24285592 -0.5119121 -0.32001626
0.10586355 0.98979324 0.9815969 0.5098527 0.45137656 0.0030715368 0.012935256 0.020181559
-0.5179856 0.025870193 -1.0442802 -0.04787643 0.031620134 2.8299062 0.022266265 0.011461233
0.01495495 0.5429813 0.008647403 0.02115549 1.7299665 0.023165032 0.0005945096 0.5497998
0.009953554 0.0038368085 -0.0060595684 0.0013147971 0.016655248 0.0066175642 0.45608854 0.010397717
0.026824031 1.0494883 1.5755537 0.8860504 0.0015999137 1.0627038 0.21191779 1.1273111
0.10636163 0.027806686 1.1808354 0.7134427 -0.0049965023 4.7803197 -0.0008927374 -0.00033391517
0.6490603 -0.6778769 -0.27891958 1.5001608 0.36122644 0.5733046 0.015335407 0.32491937
0.6860145 0.0037190397 -0.5869709 1.3374801 1.0666944 -0.0023268738 0.24511297 0.5503744
0.034521475 -0.16455911 0.0020746298 0.5086782 0.5774642 -0.121080615 -0.0016150735 0.6291638
0.0052887048 0.0027962585 0.0051745013 0.6408052 -0.008167879 0.016279254 0.022527564 -2.8364253
1.2856686 0.0072038327 0.010422352 0.0003232801 0.0030042133 -0.48545933 -0.05782761 1.970675e-05
0.0017387014 0.5025288 0.011422738 -0.0029484197 1.3597275 0.018249078 -0.0046650013 0.012051972
0.31951112 -0.0061261263 0.5846662 0.0014005514 0.0069650947 0.5268812 -0.0003838121 0.6812358
0.35404372 1.2218033 -0.962981 0.10096971 0.0015814368 0.6261596 -0.004075843 0.0050173355
-0.60540485 -1.9798439 0.011023575 0.009885987 0.05350271 -0.45776543 0.00415868 0.058580287
-0.0029439987 -0.0033407202 0.03079453 0.22087283 0.45182756 0.0029374522 1.5175271 0.002003381
-2.211419 0.22026594 -0.72751164 0.26781207 0.647094 0.75151074 -0.78745097 -0.32588243
-0.0025840995 -0.75943094 0.00046988696 0.9145351 -0.48635212 0.687419 1.1951149 -0.002897739
-0.3767254 0.3310631 0.008648125 0.6477998 0.04960934 0.004086301 0.012694471 0.012005363
-0.734641 0.01480444 0.00046766078 0.015573814 -1.8848118 -1.9514378 -0.32463476 -0.0018143086
0.10293186 0.006794815 -0.70742285 -0.001253919 0.0072436044 -0.11044411 0.0015753228 0.019241668
-0.0013983748 0.5721473 0.00748877 1.5469166 -0.23895183 -0.00020542365 -0.004342134 0.0034561476
-0.4451383 0.46772882 0.21917358 -0.06270297 0.001317255 2.3760304 0.6614925 0.017686335
1.2602873 0.026299046 0.008829868 0.25254333 0.005774425 0.31674242 0.03176442 1.405612
00000000: 7222 69bf 9398 3b3e 5f62 ad3f cd9a 093f
00000010: bc94 9e3e 9f8b b73f d95d 9cbe c0ca 143f
00000020: 30be 1cba 63c6 e53f 8b6c 33bc 96d0 4d3e
00000030: 34a7 14bc 7b08 153f 21e8 513f bcdb a23f
00000040: 72fc 253c c362 f6be 7a2d fb3c ea44 5bbb
00000050: 05a6 49bf 27d1 aa3e 21db 75be 4f44 0b3c
00000060: e063 fe3c 5d0c a23f c859 e6bd 2da5 be3f
00000070: 35d1 a83b 39bd 533f 5fd2 133f 5dd9 a73c
00000080: 6e17 c8bd 3bae eabc 3631 903c dad6 1cbe
00000090: e79e 25bf 2f91 ae3f d1ca eb3f 010c 8b3c
000000a0: afca 843c 40c5 173e fe0c 983b df5b 193d
000000b0: 5e77 d23d 3576 a43f d67e 903f a587 dd3e
000000c0: a1ad ac3c fc06 d63d e421 adbf d315 d3be
000000d0: 783b f63d 7505 50be 2a72 64be a058 263c
000000e0: 6316 a7be 9222 22bf 2dbc 393e 535b f63a
000000f0: aeef 8b3b 39af 783e ac0c 03bf 2cd9 a3be
00000100: fdce d83d 1763 7d3f ef49 7b3f b585 023f
00000110: d41a e73e d64b 493b 65ee 533c cc53 a53c
00000120: b49a 04bf baed d33c f9aa 85bf 131a 44bd
00000130: 1d84 013d 2f1d 3540 be67 b63c e5c7 3b3c
00000140: 9b05 753c d300 0b3f d6ad 0d3c 474e ad3c
00000150: 8b6f dd3f 98c4 bd3c ddd8 1b3a aebf 0c3f
00000160: 3b14 233c f772 7b3b 588f c6bb 4555 ac3a
00000170: 9670 883c 27d8 d83b 7084 e93e 305b 2a3c
00000180: 12be db3c a255 863f beab c93f 33d4 623f
00000190: 32b4 d13a ae06 883f fa00 593e bb4b 903f
000001a0: 20d4 d93d d9ca e33c 9d25 973f 2ea4 363f
000001b0: b3b9 a3bb 61f8 9840 9806 6aba 5611 afb9
000001c0: d128 263f 5789 2dbf 8cce 8ebe 4505 c03f
000001d0: acf2 b83e 17c4 123f 5c41 7b3c d55b a63e
000001e0: a59e 2f3f 22bb 733b ba43 16bf 8c32 ab3f
000001f0: 7189 883f 777e 18bb e5fe 7a3e 56e5 0c3f
00000200: 6466 0d3d 2f82 28be 83f6 073b bc38 023f
00000210: b2d4 133f 1df9 f7bd e0b0 d3ba e110 213f
00000220: df4c ad3b 6f41 373b dd8e a93b cf0b 243f
00000230: 91d2 05bc 125c 853c ba8b b83c fe87 35c0
00000240: ca90 a43f 210e ec3b 83c2 2a3c ec7d a939
00000250: 56e2 443b 208e f8be a5dc 6cbd ec4f a537
00000260: 23e5 e33a baa5 003f 7026 3b3c 463a 41bb
00000270: 8d0b ae3f 177f 953c dedc 98bb a275 453c
00000280: f696 a33e acbd c8bb afac 153f b592 b73a
00000290: 733b e43b b0e1 063f 633a c9b9 7865 2e3f
000002a0: 3845 b53e 0d64 9c3f ec85 76bf 35c9 ce3d
000002b0: 3748 cf3a ff4b 203f a68e 85bb 7668 a43b
000002c0: d0fb 1abf 866b fdbf 3a9c 343c d6f8 213c
000002d0: a825 5b3d 3b60 eabe 8945 883b e2f1 6f3d
000002e0: 1af0 40bb fcef 5abb cf44 fc3c 7d2c 623e
000002f0: f155 e73e 4582 403b 543e c23f 284b 033b
00000300: e487 0dc0 658d 613e 343e 3abf aa1e 893e
00000310: f4a7 253f 0263 403f 6396 49bf 10da a6be
00000320: ff59 29bb 116a 42bf 295b f639 f91e 6a3f
00000330: 2503 f9be b1fa 2f3f 86f9 983f fee7 3dbb
00000340: 27e2 c0be 1a81 a93e deb0 0d3c 35d6 253f
00000350: 2a33 4b3d 61e6 853b 78fc 4f3c 24b2 443c
00000360: 6f11 3cbf 528e 723c 5e30 f539 4f29 7f3c
00000370: 8341 f1bf b7c8 f9bf 8736 a6be 18ce edba
00000380: f0cd d23d 0aa7 de3b aa19 35bf 8a5a a4ba
00000390: c25b ed3b 8630 e2bd 107b ce3a b4a0 9d3c
000003a0: ac49 b7ba 3f78 123f 5b64 f53b 5d01 c63f
000003b0: caaf 74be fe66 57b9 7648 8ebb 8980 623b
000003c0: 2be9 e3be 277a ef3e 0a6f 603e 6a6a 80bd
000003d0: bea7 ac3a e210 1840 9357 293f efe2 903c
000003e0: 1851 a13f 1971 d73c 27ab 103c 5c4d 813e
000003f0: 6337 bd3b 102c a23e 691b 023d 18eb b33f
