pretrained_models/ddpg_default1_extended/q.pt (torch, 522573 bytes, 5 tensors)

weight f4 [400, 22]
00000000: 11db cfbe 1e63 7f3c 62ed 90bf 14ca 3bbe
00000010: 7ccb b4be 77a3 9cbd 658c bcbe 48c0 043e
00000020: 9403 d73d 7436 1dbd db40 b3be 7a91 fdbd
00000030: e14e ac3b 6031 89be b9f1 a8be b891 97bd
00000040: db0a 683c 4707 623e 9ef0 59bf fb34 b53f
00000050: ebf1 6b3e 4d6d 4a3a 8009 c1be c448 ef3d
00000060: 0c13 5cbf ce3f c2bd 3e01 323f 5f38 6dbe
00000070: bb05 25be 45d8 15be 8665 6fbe c7ff 173e
00000080: b40a b4bd 43d4 2abe 8227 463c d7e2 74be
00000090: 37e4 6dbd 68a6 ea3d 4ca4 e43d 026d 843e
000000a0: 8cdd 553e 7ca4 2ebf 5997 c03d 77dc 34be
000000b0: b418 85be 241d dabd 7177 6e3f be8f a33d
000000c0: 787e 8ebf f76e a6bd 1afd 143e 68eb 333e
000000d0: faf0 783e e001 0e3e 4d18 ff3e 8a7c 1bbe
000000e0: c495 c13d 2c8c 11be 4a89 f53c 40b8 0bbe
000000f0: 134a 773b 9ad9 f73e 41a5 39bf fc9f 2a3e
00000100: b428 743e a05f a33c 3164 adbd 2aed 123f
00000110: 80f9 40be 3f84 883d bf06 c9be 424f d53e
00000120: d57e 09be 5914 6c3d 1d32 9f3e bade 3c3f
00000130: f5c8 5cbd 1e3f a8be 083a 2c3e 393f ea3e
00000140: 1c46 3fbe 7847 3d3d 1716 083d 2578 16bf
00000150: bf59 f73e 0a54 84bf e2cf 57be 9c5e 873d
00000160: 0e59 1d3f dcdf 483f 3530 953e 7859 ac3d
00000170: 486e dd3e c7d8 743f 6979 dfbe 8550 3fbe
00000180: 194a 063f cbd7 1c3f 52d7 943d f5d0 0fbe
00000190: e377 0d3f 52fc 113f bdee 773d fb15 92bd
000001a0: fe24 e5be c8d3 503d ebeb edbe 3572 b03f
000001b0: d550 223d 1a2e 0abd e6b0 8a3a d952 503e
000001c0: 79e2 efbf c393 263e 3e49 b13f 6bf2 dfbd
000001d0: 6118 f9bc e917 8cbc 4ca6 5d3c 104c 0c3e
000001e0: 48cc 903d 687f 42bc a5b1 33bd 366f 693e
000001f0: 8f01 55be f4a1 1abe c7c6 babd bc58 f4bd
00000200: 299a 013e 33d0 59bf c0fc adbd d5f4 db39
00000210: 9498 d5bd b55d 1fbf 0c9d 40bd ea9f 55bd
00000220: 6196 aa3f b75d 45bf 99ff 23be 0d03 263e
00000230: e376 ebbd 5644 cc3e 7f34 b63f 6000 11bd
00000240: 9782 1d3c 6c91 113d c338 7b3e e702 afbc
00000250: a52e 023d 6294 23be d756 a2bf d097 2640
00000260: 478d 8ebd 6f86 0cbc c45a 313b f93b 39be
00000270: 28ec f03e 8ce2 33be f7b6 ddbe ac3d 06bd
00000280: 17d4 85bd 2c01 56bd 12c6 3dbe 2c09 38be
00000290: e45e 3a3e 4b07 2bbc 0369 9ebe 6e35 103e
000002a0: de25 dcbb b3f9 e1bc cfba f53d 3df1 e83c
000002b0: 9b26 b13f 0302 5bbe 0151 c1bd 2f7d b8b8
000002c0: 851a c73d 7928 60be 3991 9e3f e672 36be
000002d0: 253e 4fbf 482e 38be 15d3 233e 9817 4b3d
000002e0: bd73 533d bfa2 7e3d e56c 9ebe 72ab 73bd
000002f0: db65 b7be 0a99 843d 669c 1dbd d560 063e
00000300: b24e 0abe 6cbd f93d 2d23 41bf 9036 473f
00000310: 590a 8cbd fd3b 3d3c ee34 1fbe 0f57 35bd
00000320: 1768 26bf f988 523d 845e f53e abed 66be
00000330: 5f33 d6be 0787 c83d 5295 e1bd 293f 973e
00000340: 139c d63e 8933 8dbd f8c6 4c3e f2fe 463d
00000350: 3c05 7b3e 7719 14be 6f84 7cbd df65 2c3f
00000360: 165d e5be 01f0 89be 9e05 c93e fc6a 77bd
00000370: 9712 c5be 410c e43e 8ab5 b43e 1ac5 49bc
00000380: 810f 7abf 072e b23e 7576 26be f987 a2bd
00000390: 2d8f 583c 3116 bb3e ae0d aebe 0bad 293e
000003a0: 9dd0 ce3e 535c 0d3f db26 e6bc a76b 14be
000003b0: d2c5 673d 68d7 09bf 973d a13d a229 da3d
000003c0: f5e4 623e a94c e33d 59e7 d6be eb58 023f
000003d0: 1c78 98be 407d 8ebe 648c 573f ec1b ae3e
000003e0: e25d ca3c 93bf e0bd e283 29be 01dd ba3e
000003f0: daba 4f3d 790e 04be be9e cf3d 7cec 0f3f
-0.40596822 0.015587596 -1.1322443 -0.18338805 -0.35311496 -0.07648366 -0.36825863 0.12963974
0.10498729 -0.03838201 -0.35010418 -0.12381263 0.0052584265 -0.26795483 -0.3299692 -0.074008405
0.014162744 0.22073089 -0.8513278 1.4156793 0.23041503 0.00077219756 -0.3770256 0.11683801
-0.85966563 -0.09484826 0.69533145 -0.23166035 -0.16115467 -0.14633282 -0.23378572 0.14843665
-0.08791104 -0.16682534 0.01209438 -0.23914658 -0.05807897 0.11457521 0.1116415 0.25864416
0.20885295 -0.68219733 0.09403867 -0.17662226 -0.2599541 -0.106500894 0.93151003 0.07986401
-1.1132345 -0.081266336 0.14549676 0.17570269 0.24310675 0.13867903 0.49823228 -0.15184227
0.09452394 -0.14213628 0.029972691 -0.13644505 0.003773336 0.48408204 -0.7251778 0.16662592
0.23843652 0.019943058 -0.084663756 0.57393134 -0.18845177 0.06665849 -0.3926296 0.4166203
-0.13427289 0.057636593 0.3109292 0.73777354 -0.053902585 -0.32860655 0.16819012 0.4575136
-0.18679088 0.046210736 0.03322419 -0.58777076 0.48310658 -1.0338147 -0.21075395 0.06609842
0.6146401 0.7846658 0.29138342 0.08415502 0.432482 0.95643276 -0.43647316 -0.1868306
0.52456814 0.61266774 0.072676316 -0.14044555 0.5526106 0.57025635 0.060530413 -0.07133099
-0.44754785 0.05098322 -0.46469054 1.3784853 0.03962787 -0.033735372 0.0010581284 0.20344104
-1.8740989 0.16267304 1.3850477 -0.109349094 -0.030407133 -0.017101245 0.013528418 0.1370089
0.070702136 -0.011871196 -0.043870587 0.2279633 -0.20801376 -0.15100843 -0.09119945 -0.11930987
0.12656464 -0.8508331 -0.08495474 0.0004195335 -0.104294926 -0.6225236 -0.04702477 -0.05215446
1.3327142 -0.7709612 -0.16015472 0.16212101 -0.11497285 0.39895886 1.423477 -0.03540075
0.009613655 0.035539076 0.24533372 -0.021363689 0.031782765 -0.15974572 -1.2682751 2.603016
-0.0696054 -0.008576973 0.0027062157 -0.18089284 0.47055173 -0.1756689 -0.43303654 -0.03277366
-0.065345936 -0.05224721 -0.18532589 -0.17972249 0.1820026 -0.0104387505 -0.30939493 0.14082882
-0.0067183813 -0.027584886 0.119985215 0.028435344 1.3839906 -0.21387486 -0.094392784 -8.797121e-05
0.09721855 -0.21890439 1.2388068 -0.17817268 -0.809542 -0.17986405 0.1599849 0.049583048
0.05162405 0.062166926 -0.30942455 -0.059489675 -0.35819897 0.064745024 -0.03847923 0.13122876
-0.13506582 0.121943325 -0.754443 0.7781763 -0.06837911 0.011549947 -0.15547535 -0.04427248
-0.6500258 0.05140016 0.47923672 -0.225516 -0.41836068 0.097913794 -0.11014809 0.29540375
0.4191595 -0.06894595 0.19997776 0.04858298 0.24513716 -0.14462839 -0.061649736 0.6734294
-0.4479758 -0.2694092 0.39262098 -0.060404763 -0.38490745 0.445406 0.35294753 -0.012315059
-0.9767991 0.3480074 -0.16256125 -0.07936091 0.0132177295 0.36540368 -0.33994812 0.16569917
0.40393534 0.55219 -0.0280947 -0.14494191 0.05658514 -0.5384431 0.078730755 0.10652472
0.22157653 0.11098606 -0.4197338 0.5091693 -0.29779136 -0.27829933 0.84198594 0.34005678
0.02470297 -0.1097404 -0.16554216 0.36496738 0.050715305 -0.12896146 0.101376995 0.5622022

bias f4 [400]
00000000: 0f0f af3d 8a9e 51be 2f65 61bd 27c3 1fbc
00000010: 494b 173e fffb bc3d e3d3 453d 5b00 c33c
00000020: 6927 833a c2b3 b83d 9041 26bb 06b2 843c
00000030: a506 e1bd 4744 253e 5461 87be 79d5 00be
00000040: b46a 3abe 146b 50bd d772 e2bd 205f 20be
00000050: 0c8f 8abe f193 80bd 769a 92bc 8aa5 d83d
00000060: d122 ac3d 98cd 19be 186d 8e3c 6d6e 133e
00000070: 7212 5bbc 04f3 0abe a30d 1fbe 8c3e 9ebe
00000080: d495 90bd aa8d 9a3d 6950 9c3d d050 38be
00000090: 6749 d0bd 29f8 713d 961d 51be 6595 9fbd
000000a0: fa9f 91bc 8b7a 23bd fa68 043e 48b1 6a3c
000000b0: 8c7c 303e a05f 33be 3119 743d 1b04 7e3d
000000c0: b13d 33be e733 8b3d 84b3 08bd afc5 febc
000000d0: 6baa cc3d 88a1 4bbd 4773 d9bd 7dea 5bbe
000000e0: 328a 123e 0370 41be 0d52 2ebe 27d0 c23d
000000f0: ca56 1e3e d752 ab3d 4031 2e3e 0c92 1fbe
00000100: 7c5f 19be e692 3fbd 76ff 033e 4d7a edbd
00000110: 7bff 29bd e026 163d 9e76 a03c f1ae 17be
00000120: cfa1 4abe b1a6 a5bd c7cc b63d 646d 423e
00000130: 098a 4a3d c35a 9e3d f26c 5e3d 6f5e 52bd
00000140: e20b 10be 59cd d43d 5015 233c 942e 1c3c
00000150: edaa df3c ee64 cf3d bedf d43d 2e62 f3bc
00000160: 2361 c9bd eb22 e2bc 076f dabd 5ef9 843d
00000170: 5f82 dd3d caf1 69be b755 a13c 9ef0 ffbd
00000180: 5494 10bd 0119 a83d de47 0dbe ff6c 41be
00000190: 5e08 74bc c457 47bd 2698 003d f51c 2dbe
000001a0: cff8 06be 68e5 52be dde3 a13d a893 b13d
000001b0: b6e0 4bbe 5ac4 bfbd 8ec3 12be 6b2c 723d
000001c0: e8a1 c23d ae6d 4bbd 67d0 003e 79e5 01bd
000001d0: d1cd 413d b61e 99be 1888 c63d facd 283d
000001e0: 2ca8 d5bb a1ba 6f3d 8580 c8bd b192 cebd
000001f0: b5b7 a5bd b823 6abd b597 8abd 7c1a 04bd
00000200: 6b07 ea3b 63f9 87bd d781 9f3d d1d4 36be
00000210: e4b1 1fbe df8c 42be 2504 1c3e 4be0 04be
00000220: 513b a63d b95f 193e 357c 0cbe ad4e edbd
00000230: 2d27 3e3d cf3c 5bbe dd7b 8fbe fb04 a2bd
00000240: fff3 fabd d62d 2dbe 31a6 95bd f435 8f3d
00000250: 1a0d 1f3e 1af9 a4be 4886 fc3d 4aee 2abe
00000260: d083 9cbd c8fc 6f3c 97cb a73d f54f cabd
00000270: 0fb3 a53d f388 62be dbf4 aebd 8105 4abe
00000280: ca42 5d3c b83a 0bbe 438a 313e c64b 20be
00000290: 9b6a eb3d 296d 453d 23f3 fa3d 138e 083c
000002a0: 7e50 ed3c a508 463d 40c8 a73b fdc6 d8bc
000002b0: 90b4 d4bd 194e 453e 8c84 55be 04f5 b43d
000002c0: 1599 753c dbf2 2c3d 09cd aebd 2567 a3bc
000002d0: 44a7 ae3d 1ce0 5abe 49e1 003e f44a 9fbd
000002e0: e6bc 7fbe aa92 86be 9e09 b5bc b417 023e
000002f0: f97c 4bbe 2a3b 69bb 5a5e b73d 9ecf 88be
00000300: a075 283d c945 d6bd 7adc 5cbd aef2 f6bd
00000310: 26aa 5b3e 6901 80be 1109 b93d c56c 03be
00000320: 2e7a 413d 713e 023d 0ec7 87be a5c6 e2bd
00000330: 923b 9ebd 6e90 d5bc 117f a9bd f5d8 263e
00000340: 9156 1bbe b225 d0bd 8ea6 823d ea2f f7bc
00000350: 7005 083c e97d da3d 4b8c e1bd f21d 893d
00000360: b520 433e 68e4 d1bc 8f0f 233d 5756 dd3c
00000370: 5476 7c3c e24e 383e 997f f13d d6d6 9fbb
00000380: 0599 17bc 0cd2 bb3d ce4c 383d 2f77 34ba
00000390: 309f 76bd a24c 2d3c 4cfa 783d 827a b0bd
000003a0: 8d59 34bd 5b5e 053c ff18 fdbd 960b 25bd
000003b0: da6c afbd f3b4 a6bc 1983 b8bc e6cd 843d
000003c0: 15d8 0abe 1251 bebe fedd 29bd 7dee 51bd
000003d0: ae82 a13d 12b8 7a3d 4ef9 afbd af94 4ebe
000003e0: 4b4b 05be 1a35 313d 0d86 acbd e982 75be
000003f0: 8c2c d53c 1baf 543d fc7c 853d dfc7 c53d
0.08547794 -0.20470634 -0.055028137 -0.009751118 0.14774813 0.09227752 0.048297774 0.02380388
0.0010006252 0.09018661 -0.0025368668 0.01619817 -0.109875955 0.16139327 -0.26441443 -0.12581433
-0.18204767 -0.050883368 -0.1105706 -0.15661287 -0.2706226 -0.062782176 -0.017895918 0.10578449
0.08405078 -0.15019834 0.017386004 0.14397593 -0.013371097 -0.13569266 -0.15532546 -0.30907094
-0.070598274 0.075465515 0.076325245 -0.17999578 -0.101702504 0.059074555 -0.20421442 -0.077921666
-0.017776478 -0.039911788 0.1293067 0.014324494 0.17235011 -0.17516947 0.059594337 0.062015634
-0.17504002 0.06797009 -0.033374324 -0.031100122 0.09993442 -0.049714595 -0.106176905 -0.21476169
0.1431053 -0.18890385 -0.17023487 0.09512358 0.15462795 0.0836541 0.17010975 -0.15583056
-0.1497783 -0.046770953 0.1289042 -0.11595593 -0.04150341 0.036658168 0.019587811 -0.14812829
-0.19788288 -0.080884345 0.08925777 0.18987042 0.049448047 0.07732155 0.054303117 -0.05135959
-0.14067033 0.103907295 0.009953812 0.009532589 0.027303183 0.10126673 0.10394238 -0.029709902
-0.098329805 -0.02760454 -0.10665708 0.064928755 0.10815882 -0.22846141 0.019694192 -0.12497066
-0.035297707 0.08207894 -0.13796946 -0.18889235 -0.014894573 -0.048667684 0.0313951 -0.16905577
-0.1318085 -0.20595324 0.079047896 0.08670741 -0.19909939 -0.09363623 -0.1433241 0.05912439
0.095035374 -0.049665146 0.12579499 -0.031712983 0.047315422 -0.29906243 0.096939266 0.04121206
-0.006520292 0.058527593 -0.09790138 -0.10086573 -0.0809168 -0.05716297 -0.06767217 -0.03225182
0.0071419976 -0.066393636 0.07788437 -0.1785462 -0.15595204 -0.1899905 0.15235956 -0.12976186
0.081167825 0.14977922 -0.13719256 -0.11587272 0.04642408 -0.21409915 -0.28024188 -0.07911106
-0.1225357 -0.16912016 -0.07307089 0.069927126 0.15532342 -0.322213 0.123302996 -0.16692463
-0.07642329 0.01464767 0.081931286 -0.09878532 0.08090793 -0.22122554 -0.08542796 -0.19728662
0.013504693 -0.13596618 0.17337899 -0.15653905 0.11494943 0.048199806 0.12253406 0.008334654
0.028969046 0.048348088 0.005120307 -0.026462073 -0.10386002 0.19268073 -0.20851344 0.088357955
0.014990111 0.042223793 -0.08535201 -0.019946644 0.08527997 -0.21374553 0.1258594 -0.07777968
-0.24974403 -0.2628377 -0.022099312 0.12704355 -0.19871892 -0.0035588243 0.08953543 -0.267209
0.0411278 -0.10462529 -0.0539212 -0.12058006 0.21451625 -0.25001076 0.090349324 -0.12834461
0.04723566 0.03179783 -0.26519054 -0.11073045 -0.07726206 -0.026069846 -0.08276189 0.162937
-0.15169741 -0.1016344 0.06379424 -0.030174214 0.008302078 0.10668547 -0.11013087 0.06695165
0.19055445 -0.025621608 0.03980976 0.02701871 0.015409071 0.17998841 0.117919154 -0.0048779054
-0.009252791 0.09170923 0.04499512 -0.0006884215 -0.060210407 0.010577353 0.060785577 -0.086171165
-0.044030715 0.008140172 -0.12358283 -0.040294252 -0.08565684 -0.020349955 -0.02252345 0.064845845
-0.13558991 -0.37171227 -0.041471474 -0.05125283 0.07886253 0.0612107 -0.08592473 -0.20173906
-0.13017003 0.043263532 -0.08424006 -0.2397572 0.026022218 0.051924806 0.065179795 0.09657263

weight f4 [300, 400]
00000000: 305d 09be a03e c13c 30e2 19be 7477 d3bc
00000010: 9689 923e 2765 6ebe 54c8 6bbe 7733 dfbd
00000020: 6379 a8be ff9b 03be 6389 173e 2794 f63e
00000030: 2bd6 c63a a7ae 52bd 3f62 05bd 9d84 2dbe
00000040: 101f dfbd 6f94 893e 7fc5 dfbe 974b 0d3e
00000050: 12b3 aabe 2d0f a3be 55dc f13e 53e7 e23d
00000060: dbc5 27bd a750 3c3d 1993 01bd 62d5 2b3d
00000070: df5a 93bb f1c4 8dbe b10a a53e 7415 6cbe
00000080: f4a4 d03e f551 a3bd 280a 923e b1cc 3cbf
00000090: 2251 b7be 8877 7cbe aa7d 213c 87a9 623e
000000a0: 040a fb3d 6b06 343e 55e9 8bbd fc63 103b
000000b0: 599c 273e 532c 61bc b9af 383e e547 f03c
000000c0: c782 0cbe 617c abbe bc61 ea3c 9965 9c3d
000000d0: 5ded c3bc 4953 5e3e f1b5 833d d4e5 b13d
000000e0: ae4d 103e b971 88be 96ba 0f3e c065 943d
000000f0: 0f6a 63bc 0627 983d 1100 723e 43eb 36be
00000100: 9dba 14be e730 2c3e d1ce 883c 06bf 203d
00000110: 4db8 ac3e 0d8a 81bc f834 903e 7a92 cbbe
00000120: 1851 8d3e 8762 15bd 16d7 183e cb3f 653d
00000130: f5e6 223e bfcd 343e 2e46 db3d aab0 e63e
00000140: 9f41 c8bd 020f dcbc 6546 593e 69b3 ebbc
00000150: e234 0e3f ae98 b43d 67b8 ab3d aa5a 753e
00000160: 5c56 713e 06c9 d1bc 9745 0a3d 9f47 6f3e
00000170: f389 853e d0dc b2be 0cda 643e 8af7 8dbe
00000180: e060 543e 1f08 a43d 3f71 bdbe 9788 093e
00000190: 1c65 dc3d 63d4 97bd 6ee5 cbbd 6c4e c03c
000001a0: 09ee ac3d dbd0 c53d 0ff4 983e 74dc 493e
000001b0: 08ac 9ebc 6265 09be 4f6e 97be d6c1 9b3e
000001c0: 4219 723e 527b 2d3e fab5 563e 19dd 643c
000001d0: f0fe 943e 8c87 76bd 0ef5 3ebd 17c4 1c3e
000001e0: b3e3 083e ddd8 4a3e 6ef8 43bd 3653 11bd
000001f0: 6c74 d8be 62f2 57bc 0014 d43c 8ab2 e7be
00000200: 30e6 973e 0214 8c3d e44f 4abf 1b43 e03e
00000210: d93f 323d fe5f be3e d3b9 3c3c 514f f8bd
00000220: 696c 2cbe 099d a53e f902 e83d 9e7b ea3d
00000230: ac72 55bd 1ca4 bfbd 36f6 9cbc afd4 b3bd
00000240: dc11 e5be 42ea 40be 3f02 a0bd 33ed 143d
00000250: 5d20 303e 5d60 12be a6cd 323e 250f c5bd
00000260: f10b d73e 1d82 543e 59fa f53d 01dd 133d
00000270: de96 99bd 97eb e3bd a713 bc3d 7dfe 32be
00000280: 8b38 44be a47f 2d3e 263c 243d 7870 613d
00000290: e41c 8cbd 3e7a c23d d826 b33d e503 50bc
000002a0: 0d9c 243d b543 503e 225c ed3d a8a0 453e
000002b0: fead 1f3e 3f84 203d ccdc 9c3e 2cf4 803e
000002c0: d8e1 493e 9ee7 2cbd 6fb6 393e be57 00bf
000002d0: b270 c73e 49fe f5bd 122f 963d 353e a83d
000002e0: cdca 123e 5774 07be 2dfc 06be 7e06 2fbe
000002f0: 7a76 1dbd d3b8 cabe 0f10 3c3e 432d 76be
00000300: 1629 c23d 10c5 e93c e3d4 2d3d a570 cc3c
00000310: ae3e dabd 31e4 c8be 0a41 60bb 4ce4 03be
00000320: d09b 833e d802 4b3d ea82 3b3d da82 52be
00000330: 1f40 643d c339 a3bd 8e5c a03c 5b22 c9bd
00000340: 1993 813f b1be a0bd 11d6 0bbe 6360 30be
00000350: 5e41 5b3e b304 8bbe 4626 98be 3c47 933e
00000360: 3b46 b03e df8c 5c3e 673b 8bbe b916 913a
00000370: f168 a83e ab70 7f3e f892 1d3e de0e b0bf
00000380: a516 3f3e da13 243e 06b1 0a3e 46c7 aabd
00000390: 8bba 9fbe ca05 71bd 2365 4e3e f296 653e
000003a0: dbbc 23be 1a84 893e c950 153f 3281 463d
000003b0: f5bc d73d 593d cbbd 0f9c 65b9 0db5 0c3e
000003c0: 8b27 463e a993 1fbd 331a bdbb 8744 cbbd
000003d0: 883c 223e 1bc1 eabd 3183 9cbb adc4 1b3c
000003e0: 4010 62bd 37ba 803c b1b6 b33d b4ee 013c
000003f0: ecb8 a13e e511 293e 34ed 8a3e ad71 1ebe
-0.13414454 0.023589432 -0.1502769 -0.025813796 0.28620595 -0.23280774 -0.23025638 -0.10898488
-0.3290511 -0.12852477 0.14798503 0.48159906 0.0015170028 -0.051436093 -0.032564398 -0.16945119
-0.108945966 0.26871058 -0.43705365 0.13798366 -0.33339745 -0.31847516 0.47238412 0.11079278
-0.040960174 0.045975354 -0.031634424 0.041951545 -0.0044969167 -0.27689317 0.3223472 -0.23055059
0.4075085 -0.079746164 0.28523374 -0.73749834 -0.35804087 -0.24654973 0.009856621 0.22134982
0.1225777 0.17580573 -0.06831614 0.0022032252 0.16368236 -0.013743478 0.18035783 0.029331157
-0.13721763 -0.3349333 0.028611057 0.07636566 -0.023916895 0.21711458 0.06431187 0.08686414
0.14092132 -0.26649264 0.1403602 0.0724597 -0.013880267 0.07429318 0.23632838 -0.17863183
-0.14524312 0.1681553 0.01670018 0.039244674 0.3373436 -0.015812898 0.28165412 -0.3976019
0.27600932 -0.036470916 0.14925799 0.05596904 0.15908416 0.17656611 0.10706745 0.4505666
-0.09778141 -0.026862625 0.2121826 -0.028772073 0.5554944 0.08818184 0.08384781 0.23960367
0.235681 -0.02560855 0.033757772 0.23367165 0.2608181 -0.34934092 0.22348803 -0.2772792
0.2074008 0.080093615 -0.37000462 0.13431011 0.107614726 -0.074135564 -0.099558696 0.023474894
0.08443839 0.09658977 0.29873702 0.19713002 -0.01936914 -0.1341758 -0.29576346 0.30421323
0.23642448 0.16941574 0.20967856 0.013968729 0.29100752 -0.06018786 -0.04662042 0.15309177
0.1336811 0.1980929 -0.047844343 -0.035479747 -0.42276323 -0.013180347 0.025888443 -0.45253402
0.29667807 0.06839754 -0.79028153 0.43801197 0.04351792 0.3718261 0.011518913 -0.121245034
-0.1683823 0.3234637 0.11328692 0.11449359 -0.052111313 -0.09357473 -0.019160371 -0.087808006
-0.44740188 -0.18839362 -0.078129284 0.036359023 0.17199846 -0.14294572 0.17461261 -0.09622029
0.42001298 0.2075276 0.12010641 0.036099438 -0.07499479 -0.111289196 0.09183436 -0.17479892
-0.19162194 0.16943222 0.040096425 0.0550389 -0.06841448 0.09495972 0.08747643 -0.012696241
0.040187884 0.20338328 0.115898386 0.19299567 0.15593717 0.03918862 0.30637205 0.25186288
0.19715059 -0.042213075 0.18135999 -0.50133884 0.38953167 -0.12011392 0.07333197 0.0821499
0.14335175 -0.13227974 -0.13182135 -0.1709232 -0.038443066 -0.39594135 0.18365501 -0.24040703
0.09480493 0.02853635 0.042439353 0.024956057 -0.106564865 -0.39236596 -0.0034218454 -0.12880057
0.25704813 0.04956326 0.045779146 -0.20557728 0.055725213 -0.079700015 0.019575384 -0.09821006
1.0123016 -0.078488715 -0.13655879 -0.17224269 0.21411654 -0.27152023 -0.297167 0.28765285
0.34428582 0.21538113 -0.27193758 0.0011069394 0.32892564 0.24945323 0.15388095 -1.3754537
0.18660982 0.16023198 0.13544092 -0.0833879 -0.31197008 -0.05884341 0.20155768 0.22420862
-0.15990011 0.26858598 0.58326393 0.048463054 0.105340876 -0.099238105 -0.00021897278 0.1374094
0.19351022 -0.03895918 -0.0057709455 -0.0992518 0.15843403 -0.11462613 -0.0047763814 0.00950734
-0.05519128 0.015713794 0.0877508 0.007930446 0.31586397 0.16510732 0.27134097 -0.15473051

bias f4 [300]
00000000: 8b19 913d 05d6 3abd 2ded d9bc 2f45 903e
00000010: c7ad 8a3e 5f62 fd3d b3ad 733e d7e9 b7ba
00000020: a25e 1a3e c8c0 a53e 8e3e 993e 857a 4dbd
00000030: 321a 6fbd 9d70 613e 371d 973e b7ae c3be
00000040: 6138 ce3d 6d51 923d 42b2 623e 35f6 e83d
00000050: bdb1 3a3e 55db 963d c439 553e 68c1 383e
00000060: a209 3f3d c6d7 d3bd fb44 803c 6db0 443e
00000070: 2c01 603e 6696 8bbd 532f 2f3e b5fa 403e
00000080: 7ec1 993e 62d7 403e c63c 893d 5434 ae3d
00000090: e5c9 5f3e 4c09 0b3d 5ca5 003d 9d47 2e3e
000000a0: 3992 203d 93c6 e2bd 46b6 cabb 5e85 5a3e
000000b0: d2ef 59bc 6de2 d7bc 045a 49bd b7b8 8a3e
000000c0: 6df9 9dbc e0c6 d03d 7f0d 36be 52cf 903e
000000d0: 77e5 34be 81e0 73be 7220 c13d ddda 823e
000000e0: e926 9a3d 4826 153e dc40 823e ed6f 79be
000000f0: 260f d33c e710 febd 716c 243e 334b 703e
00000100: 5561 233e de97 edbc 8994 0a3e 42bb 5d3e
00000110: ad2e 12bd c432 4f3d 7042 863e 9d27 d63d
00000120: 1b10 4fbc 5445 c0bd 52ee a63d b971 643e
00000130: b355 323e 4771 42bc e162 acbc e38d 60bd
00000140: a154 603e 4f6a 813d 3d2a d03d 7c62 99bc
00000150: 7ef3 f23a 7e21 16be 0516 db3c 4dd7 603e
00000160: 0aed 433e 3c74 15bc 40f2 7b3e 17be 1d3e
00000170: 3271 bf3d e37a 773e b23b 1b3e 91bd 79be
00000180: 7b56 343d 9892 7a3e bff7 c8bb 05b7 d23c
00000190: e0ef 373e 510a 2f3e 3e81 583e 0711 3b3e
000001a0: 4330 5b3e 0518 a93e a9ce eb3c 03ab 8a3e
000001b0: fa51 173d cbff 123e 7170 b93d c05f fa3d
000001c0: e940 fd3c 2944 ec3d fb27 173e b2b4 683d
000001d0: 9742 d9bc 642b 613e 3b5b 023e 176f b13d
000001e0: ec1d 193d 2638 43bb b50c d73c 143f 113d
000001f0: 2bf9 5a3d 735b 4abe b75c 873e c4fa ce3d
00000200: cdfa 5d3e 8e08 3c3e a313 093e bffc 4a3e
00000210: a21c 953c 6dfb 1c3d 05ad 7a3e 1e3e 543c
00000220: 4541 01be f966 27bd caa1 843c de68 313e
00000230: b389 813e 5db9 6ebb 58ea 553e efbf 463e
00000240: 74a0 173d b962 20bd 00c6 8d3e 0bdf 073e
00000250: e5b8 c03c 5f0b d7bd 03ea 37bd 842a 35be
00000260: 5423 013e f50b 893e 3aa1 7dbd 0d36 6ebd
00000270: 3f25 503d 9bf0 763c 7dda 743e 8659 ee3d
00000280: 01ed 673d 9fe4 e03c c687 613e 4ac3 a93c
00000290: 7296 153e aba0 b5bc ea71 573d ddfa 573d
000002a0: a372 4c3e 8efa 90bc 5fec 983d 6f93 6f3d
000002b0: 0f75 1e3e ec03 783e e832 7f3e 3fe0 f23c
000002c0: 5102 c8bc 2ade 953d 3cb6 183d 6ab8 0b3e
000002d0: 5dcc 6d3e 08af 5d3e 5743 ae3d 26fd 7c3e
000002e0: c97f 173d 131c 443e 3a72 af3d 4888 5fbd
000002f0: f46d bc3d b945 333e 2a00 9d3e a7ae 9ebd
00000300: e79b 433e 2aac 603e 0e2f 203e 9843 893e
00000310: ddad f8bc 1b93 29be f72e 633d 5a9e 803e
00000320: ed45 893e 645a 673e d32c 5bbd 2c63 133e
00000330: ef76 a43b a1a0 f03d 5503 99bd 2545 993e
00000340: 4e8b 8c3e b838 523e 8eda 8c3e 6446 383e
00000350: 6101 c03b 4ec7 4b3d 0d33 8d3e aeb5 cc3c
00000360: 32b1 943e bb8c 6a3e 9577 673e def0 8ebd
00000370: b77f e6bd 65c0 1f3c 4bf7 033e 1ed7 1bbd
00000380: efa5 803e a8f1 a13d fb7d 21bd b359 873e
00000390: 92ed fe3d d2d0 353e 0c86 9e3e 3a65 c3bd
000003a0: ee97 663e 827a 523e bbdb a53d caec 313e
000003b0: cd2c 2f3d c6a3 483e 6feb 383e 3bd8 643e
000003c0: 0875 f4be dee9 373e ccce 18be e734 033e
000003d0: da45 65bd 16ac 7d3c f729 833e 2675 2dbd
000003e0: c591 dbbc 4b27 983e 892f 423e 9182 3a3d
000003f0: f6a6 4f3d 1ae9 133c 8a24 d63d dd50 4f3e
0.0708495 -0.04561426 -0.026602352 0.28177783 0.27085707 0.123722784 0.2379673 -0.0014031482
0.15075162 0.32373643 0.29930538 -0.05016567 -0.05837459 0.22015615 0.29514477 -0.38219234
0.10069347 0.07144437 0.22138312 0.11375085 0.18231864 0.07366053 0.20822817 0.18042529
0.046640046 -0.1034389 0.015657892 0.19207926 0.21875447 -0.068157956 0.17107897 0.18845637
0.30030435 0.18832162 0.06701045 0.085060745 0.2185436 0.033944413 0.0314077 0.17019506
0.03920195 -0.11073031 -0.0061862795 0.21339938 -0.0133018065 -0.026353085 -0.04915811 0.2709405
-0.019283975 0.101941824 -0.17778586 0.28283173 -0.17665659 -0.2381611 0.094300166 0.25557604
0.07526953 0.14565384 0.2544011 -0.24359103 0.02576406 -0.124055676 0.16056992 0.23466186
0.15955098 -0.02900308 0.13533224 0.21653464 -0.035689045 0.050585523 0.26222563 0.104567744
-0.012638117 -0.09388223 0.08150925 0.22309007 0.17415504 -0.011867828 -0.021043243 -0.054822814
0.21907283 0.06319105 0.10164306 -0.018723719 0.0018535701 -0.14661214 0.026743898 0.2195713
0.19133392 -0.009121951 0.2460413 0.15404545 0.09347762 0.24167971 0.1515949 -0.2438872
0.044027787 0.24469984 -0.0061330493 0.025722036 0.17962599 0.17093779 0.21143052 0.18268214
0.21405129 0.33026138 0.028785067 0.27083597 0.036943413 0.1435539 0.090546496 0.12225294
0.03091474 0.11536438 0.14761345 0.05681295 -0.02652101 0.21989208 0.12730114 0.08663767
0.03738205 -0.0029788106 0.026251176 0.035460547 0.05346028 -0.19761448 0.26437923 0.101064235
0.21677704 0.18362638 0.13386397 0.19822977 0.01820213 0.038325716 0.24480064 0.012954263
-0.12622555 -0.040869687 0.016190428 0.1732516 0.2530037 -0.0036426403 0.20890176 0.19409154
0.037018254 -0.03915665 0.27690125 0.13268678 0.023525665 -0.10500216 -0.044900905 -0.17692
0.12611133 0.26766935 -0.061921336 -0.058157016 0.05081677 0.015072013 0.23911472 0.11638169
0.05662251 0.027452765 0.2202445 0.020723004 0.14608172 -0.022171339 0.05259887 0.052729476
0.19965605 -0.017697599 0.07466959 0.058490213 0.15474342 0.24220246 0.24921763 0.029647944
-0.024415167 0.07317765 0.037283167 0.13644567 0.2322249 0.216488 0.08508938 0.24705943
0.0369871 0.19151334 0.08566709 -0.054573327 0.092006594 0.17507066 0.30664188 -0.07748156
0.19102441 0.21940675 0.1564295 0.26809382 -0.030356342 -0.16560023 0.05546471 0.25120813
0.26811162 0.22593075 -0.053509545 0.143933 0.005019061 0.117493875 -0.07471339 0.29935566
0.2745003 0.20529449 0.27510494 0.17995602 0.0058595394 0.04975062 0.2757801 0.024988975
0.2904144 0.22905247 0.2260421 -0.069795355 -0.112548284 0.00975046 0.12887304 -0.03804695
0.25126597 0.079074204 -0.039426785 0.26435623 0.12447657 0.1775544 0.30961645 -0.09540792
0.22518894 0.20554546 0.08098551 0.17375484 0.042767335 0.19593725 0.18058561 0.2234811
-0.47745538 0.17960307 -0.14922637 0.1281315 -0.05597482 0.015482923 0.25617954 -0.04234805
-0.026802907 0.29717478 0.18963446 0.045534674 0.050696336 0.009027744 0.10456188 0.2024569

weight f4 [1, 300]
00000000: 528c 82be 35ce 2e37 fea3 3a39 e013 1abf
00000010: 9652 2f3e 7433 9bbf 5503 46bf 3449 dabe
00000020: c205 d1bf ff19 3dbf 780e 513e bb3c a6bf
00000030: 03e6 1cc0 c131 79bf 22a0 3d3e d04d 67bf
00000040: 9a64 95bf e452 c8bf 291f 4e3e 2d11 61bf
00000050: 3f72 3f3e 1f24 53bf f26f 96bf 37b6 3c3e
00000060: b4f9 8bbf 9566 d0bd aca4 13bf 7543 bbbf
00000070: d38e 83bf 04c6 0fbe 8340 c43d 9f23 963e
00000080: f377 63bf 7f49 d9bf 02f4 d9bf e673 febf
00000090: 88df 5fbf b365 a83e 0b9c 10c0 d3fb c4bf
000000a0: c201 f4bf a4b1 04bf a395 8a40 2a03 85bf
000000b0: 632c 8cbe 1aaa a8bf 4aec 13bf 71c1 2fbf
000000c0: 8a3b 3f3f b5b2 dfbf 8ac7 1dbf 5ef9 63bf
000000d0: 05fb 2ebf 8ca8 143e 2b6c c5bf 5aa9 cabe
000000e0: d896 10c0 3179 c6bf 7e8b 7ebf df84 d83f
000000f0: c534 9fbe 7e2e 1ebf a370 05bf aaa8 b2be
00000100: a0aa cd3d 3c4a 06c0 cd3d a1bf 9860 81bf
00000110: 3b43 0d39 d30d a8bf 3690 43bf d141 b6bf
00000120: 6afc ea3a 1046 b2bd a4da 8bbf e176 92bf
00000130: ca0e ddbf 214f a7bf 1df5 8e3f 386a 75b9
00000140: 143a 3a3e 4e0e 09c0 dccf 91bf 9702 0ec0
00000150: c39b b3bf 1ccb f3be 2c64 7cbf 6d93 43bf
00000160: 9ecb dfbf a021 5ebb 2b28 a43e 9e86 d1bf
00000170: bcc2 93bf 83ee 233f b96e b2bf adfc 40bf
00000180: b1f8 ccbf 2b9c 98bf f478 1bbd aed0 9939
00000190: c137 b1bf b690 96bf 3ad9 61bf d525 b9be
000001a0: b3b4 eabe d8f7 54bf bc65 b9bf 09dd 63bf
000001b0: b317 2cbf 882c 81bf e79b c3bf 2e10 f6bf
000001c0: 25a9 13c0 fcf0 d33e 792e 9a3e 9074 c0bf
000001d0: 1f45 f2be aa90 91bf ee98 9abf 05e0 d3bf
000001e0: 9b30 edbf 2373 66b9 02f7 0fc0 a0e4 03c0
000001f0: fa71 13c0 39f4 10bf 32b9 57bf fdf4 b9bf
00000200: aad9 7dbf 3789 d3bf f8b6 c8bf cd95 5abf
00000210: b2bf 80bf 8b08 01c0 3f63 6fbf d185 fabf
00000220: 69d8 19bf 33a3 80ba be1d dfbf fd27 37bf
00000230: 9ecb 7c3d 3ce2 0340 10a4 91be 920e 91bf
00000240: 760d d8bf 3bf0 17bc aa60 253e b4ff adbf
00000250: 8c60 4b40 6055 fbbe f0cf 1ebb 93b7 8c3f
00000260: ac9d 85bf e21c 1e3e 29e5 cfbe 8896 043a
00000270: 67f3 9bbf a1e3 30c0 4fa9 9abf e5aa 75be
00000280: 26e8 9e3d 5a20 57bf 3ced 54bf 622f 33bb
00000290: 7304 08c0 8c7d 95bf 1a9f c4bf 8ddb 8abf
000002a0: 202b 893e 1f91 b7ba 7d7e 40c0 10af 8ebf
000002b0: ed20 34bf 8c0f 84bf f351 33bf 5c6a 7dbf
000002c0: 4e9b 95bc 3b1b 24c0 b4a9 e23e 4ee9 a7bf
000002d0: bad8 b8be e6bd 983e 982d aabf b175 99bf
000002e0: 9fa5 d2bf 7a87 a0bf d947 12c0 eccd 123b
000002f0: 3a74 1ec0 a36b 8cbf a520 1d3e 9119 45be
00000300: c287 ea3e 76bc 09bf 4bf1 09bf 6c8e 67bf
00000310: c9d0 e03a ebc7 43bf a44b c2bf aca5 d93d
00000320: 5e30 28bf 869c e23d c5a9 0eb8 aede c3bf
00000330: b614 a53f d829 993e fd43 43bf 7ae9 163e
00000340: 878d 023e 838f 53bf 4985 a0bf c582 3f3e
00000350: 29d1 063b 019d d9bf 99bb 473e bf3d e7bf
00000360: 9e22 38bf 823f 023e f99f 16bf af23 a7bb
00000370: 6269 bcbe 12ff c5bf b327 9abf 7c71 0a3a
00000380: 2fe0 8dbf f0c2 f4bf 1ec4 b43b cde7 54bf
00000390: e3d7 79bf 129a 0dbf bf14 72bf f316 bdbe
000003a0: 8ead a2bf c213 19bf 374f 28c0 22dc 3cbf
000003b0: cb15 86be 4175 73bf f2d0 83bf bad1 bf3c
000003c0: f611 b8bf 83e6 49bf 1878 46bf 0490 46bf
000003d0: f194 063b 6854 463a 931a 58bf 62f9 e0be
000003e0: 899a 2fbf 59e3 a93d 2743 b9bf 9eb8 61be
000003f0: 2f19 bebe 8e5f a93b a406 3abf f092 38be
-0.2549768 1.04192195e-05 0.00017799434 -0.60186577 0.17121348 -1.2125077 -0.77348834 -0.42633975
-1.6329882 -0.7386779 0.20415676 -1.2987283 -2.4515388 -0.97341543 0.18518117 -0.9035311
-1.1671326 -1.5650296 0.20129074 -0.87916833 0.18695925 -0.8247699 -1.1752913 0.18428884
-1.0935578 -0.10175816 -0.57673144 -1.4629961 -1.0277961 -0.1404038 0.09582617 0.29324052
-0.88854903 -1.6975554 -1.702759 -1.9879119 -0.87450457 0.3289009 -2.259524 -1.5389351
-1.9063036 -0.5183356 4.330766 -1.039159 -0.27377614 -1.3176911 -0.57782423 -0.68654543
0.74700224 -1.7476412 -0.616326 -0.8905238 -0.68351775 0.1451742 -1.5423635 -0.3958233
-2.2592068 -1.5505735 -0.994316 1.6915549 -0.31094947 -0.6178969 -0.52124995 -0.34894305
0.1004231 -2.098281 -1.2596985 -1.0107603 0.00013471853 -1.3129219 -0.76391923 -1.4238836
0.0017928008 -0.087047696 -1.0926099 -1.1442529 -1.7270138 -1.3071023 1.1168553 -0.0002340459
0.18186218 -2.141498 -1.1391559 -2.218908 -1.403191 -0.47615898 -0.9859035 -0.7639683
-1.7484014 -0.0033894554 0.32061896 -1.6369207 -1.1543803 0.64035815 -1.394004 -0.7538555
-1.6013395 -1.1922659 -0.037957147 0.00029337913 -1.384514 -1.1762912 -0.88222086 -0.36161676
-0.45840988 -0.8319068 -1.4484172 -0.8900915 -0.6722366 -1.0091715 -1.5281953 -1.9223688
-2.3071988 0.41394794 0.3011358 -1.5035572 -0.4731836 -1.1372273 -1.207792 -1.655274
-1.8530458 -0.00021977401 -2.2494512 -2.0608292 -2.3038316 -0.56622654 -0.8426696 -1.452789
-0.99160254 -1.652625 -1.5680838 -0.8538483 -1.0058501 -2.0161464 -0.9351081 -1.9572088
-0.6009584 -0.0009814262 -1.7430952 -0.7154539 0.061717622 2.0606833 -0.28445482 -1.1332572
-1.6879108 -0.009273584 0.16150156 -1.3593659 3.1777678 -0.49088573 -0.0024232827 1.0993522
-1.0438743 0.15440705 -0.40604523 0.00050578313 -1.2183656 -2.7638934 -1.2082919 -0.23990972
0.077591226 -0.8403374 -0.8317449 -0.0027341475 -2.1252716 -1.1678939 -1.5361054 -1.0848252
0.26790714 -0.0014005041 -3.0077202 -1.1147175 -0.7036274 -1.0317245 -0.7004692 -0.98990417
-0.018262532 -2.564162 0.44270098 -1.3118074 -0.3610285 0.2983238 -1.3295164 -1.1989042
-1.6456794 -1.2541344 -2.2856352 0.002240057 -2.475844 -1.0970348 0.15344484 -0.19248034
0.458067 -0.53803194 -0.5388381 -0.90451694 0.0017152067 -0.76476926 -1.5179334 0.106273025
-0.656988 0.11065011 -3.401355e-05 -1.5302331 1.2896945 0.29914737 -0.76275617 0.14737502
0.12749301 -0.82640857 -1.2540675 0.18702228 0.0020571447 -1.7001039 0.19505157 -1.8065718
-0.7192782 0.12719539 -0.5883785 -0.0051006894 -0.3679915 -1.5468466 -1.2043365 0.0005281193
-1.108404 -1.912199 0.005516543 -0.831662 -0.9759504 -0.5531322 -0.94562906 -0.3693157
-1.2709215 -0.59795773 -2.629835 -0.73773396 -0.26188502 -0.9510079 -1.029814 0.023415435
-1.4380481 -0.7886736 -0.77527 -0.775635 0.0020535553 0.0007565678 -0.8441555 -0.43940264
-0.68595177 0.08295316 -1.4473618 -0.22043082 -0.3712859 0.0051688617 -0.7266638 -0.18024802
