pretrained_models/ddpg_moderate1_extended/policy.pt (torch_old, 527487 bytes, 5 tensors)

weight f4 [400, 21]
-0.08683809 -0.044019382 -0.82936174 -0.036333755 -0.0030298114 -0.21217327 -0.588205 0.04969201
-0.11332341 0.0975642 -0.13260116 -0.21045382 0.013426229 0.13010275 -0.2280958 -0.017836353
0.013432937 -0.30003774 0.3277323 -0.43029124 -0.17596667 -0.028404541 0.7490447 0.075268015
-0.02656837 -0.23698492 0.80491084 -0.09048569 0.05244521 0.65604043 0.27218756 -0.17780094
-0.062444326 -0.25439975 0.7245602 -0.007816737 0.033066116 -0.23665985 -0.65585726 -0.26171547
0.26399642 0.30286437 -0.03011966 0.42472735 0.15497117 0.1971024 0.3142117 0.15126136
-0.0067904433 -0.1466493 -0.58418494 0.55193305 0.4751381 -0.03416429 0.08955401 0.44266674
0.26298767 0.1607115 -0.3289872 -0.44607815 -0.10745488 -0.19949175 0.35805368 0.043737777
0.40108782 2.4790733 -0.003233381 -0.34590462 0.40443888 0.11755666 0.15729545 -0.10546061
-0.25142342 0.026561163 0.004276338 0.02871034 0.06756567 0.13352478 -0.13810593 -0.063136175
-0.2571842 0.47047102 -0.40125605 -0.060322877 0.18503487 0.017698092 -1.7706255 0.04821346
0.6402164 -0.2536352 -0.53530437 -0.11101 0.47037032 0.053384926 0.14632992 -0.0722816
0.23259751 -0.08793138 -0.07676699 -0.026495922 -0.19690862 0.06400272 -0.58337426 0.6708783
-0.6697804 0.040876053 -0.15161438 -0.3200852 0.018697131 -0.48406875 -0.30315116 -0.115551665
0.09270823 -0.0017742958 -0.2805023 -0.07023462 0.01976127 0.4528678 -0.44088095 0.0149416905
-0.19166729 0.23866819 1.0802951 -0.75320554 0.20791088 -0.27593428 0.20354058 0.03631979
-0.29460075 -0.16132526 0.2129 0.0468734 -0.22953255 -0.053437505 -0.066867515 0.029861962
-0.019707229 -0.16212492 0.4311986 -0.11456318 -0.24126539 -0.10999551 0.06909118 -0.45755407
0.4547964 -0.58258384 -0.2593713 -0.30406508 0.2266133 -0.70429677 -0.017268011 0.43782094
0.4632874 -0.29541653 -0.16723645 -0.08981947 0.48911655 -0.009001993 -0.31406775 -0.42469674
0.5202439 0.001134667 -0.11141698 -0.4657174 0.17733945 -0.19040458 0.13570885 0.33643508
0.06697832 -0.39095378 -0.048289135 -0.13374841 0.38846454 -0.017563943 -1.4529774 0.083518445
0.3713797 -0.008507652 -0.020238366 -0.07067499 0.26925054 -0.4164614 -0.06776562 -0.1481779
-0.0904195 0.370313 -1.1673496 1.305958 -0.6370375 0.14711484 0.40284106 0.9300292
0.071331896 -0.042662736 0.34404227 0.20435698 -0.074313566 0.29279658 -0.33571997 -0.11478186
-0.066685915 0.019286491 -0.12265607 -0.111437164 0.27252063 -0.22735043 -0.018286813 -0.39465243
0.19518226 0.07993093 0.12771809 0.6794675 1.0334073 -0.13010062 0.72935236 0.614598
0.3877404 -0.12675148 0.009259361 -0.38149175 -0.5403888 -0.022324426 -0.26382786 0.2198178
0.048198707 -0.08569333 -0.21552585 -0.19772531 -0.5964767 -0.28277272 0.05563077 -0.1832944
0.6849915 -1.0095836 0.12255927 -0.14296259 0.9237261 0.16631776 0.043286614 0.2433151
0.9156083 -0.09095508 -0.14790605 0.2801407 0.43798697 -0.04185485 0.10852789 -0.32318658
0.07726092 -0.28019983 1.0411029 -0.37009346 0.21299465 -0.057944294 -2.201632 -0.030478459
00000000: 2bd8 b1bd ab4d 34bd 0d51 54bf b4d2 14bd
00000010: cd8f 46bb f343 59be 9a94 16bf d989 4b3d
00000020: 1b16 e8bd bdcf c73d 99c8 07be 3581 57be
00000030: b0f9 5b3c a839 053e f291 69be 8b1d 92bc
00000040: d215 5c3c 8c9e 99be 87cc a73e 224f dcbe
00000050: 9b30 34be a4b0 e8bc 65c1 3f3f 1e26 9a3d
00000060: e9a5 d9bc 2dac 72be a30e 4e3f 9050 b9bd
00000070: cad0 563d 44f2 273f 2b5c 8b3e 7311 36be
00000080: 9fc5 7fbd af40 82be c77c 393f c511 00bc
00000090: 5670 073d f656 72be 43e6 27bf 92ff 85be
000000a0: 8a2a 873e 0a11 9b3e 81bd f6bc dd75 d93e
000000b0: c3b0 1e3e 36d5 493e 5be0 a03e 42e4 1a3e
000000c0: 5e82 debb 3c2b 16be 258d 15bf 7c4b 0d3f
000000d0: 4d45 f33e dbef 0bbd 1868 b73d 37a5 e23e
000000e0: 52a6 863e 8e91 243e 0371 a8be 5b64 e4be
000000f0: 4e11 dcbd 9147 4cbe d052 b73e 6226 333d
00000100: 625b cd3e 23a9 1e40 22e7 53bb 691a b1be
00000110: 9d12 cf3e 8cc1 f03d 0f12 213e bbfb d7bd
00000120: 92ba 80be cc96 d93c 8620 8c3b f231 eb3c
00000130: df5f 8a3d b8ba 083e a46b 0dbe 8a4d 81bd
00000140: a6ad 83be 94e1 f03e 6f71 cdbe 1f15 77bd
00000150: c879 3d3e 97fb 903c dba3 e2bf 7a7b 453d
00000160: 39e5 233f 79dc 81be b509 09bf 3659 e3bd
00000170: 61d4 f03e 27aa 5a3d 83d7 153e 6008 94bd
00000180: 0b2e 6e3e 5e15 b4bd 0338 9dbd fa0d d9bc
00000190: 6aa2 49be dc13 833d 0458 15bf aebe 2b3f
000001a0: ba76 2bbf a66d 273d cd40 1bbe 35e2 a3be
000001b0: ba2a 993c dcd7 f7be a136 9bbe 5aa6 ecbd
000001c0: d0dd bd3d 7d8f e8ba ff9d 8fbe 2bd7 8fbd
000001d0: 63e2 a13c 4ade e73e 26bb e1be fecd 743c
000001e0: 6e44 44be 6f65 743e 1c47 8a3f 14d2 40bf
000001f0: 97e6 543e 4247 8dbe f16c 503e 0fc4 143d
00000200: e9d5 96be 7332 25be 7502 5a3e 53fe 3f3d
00000210: 950a 6bbe 49e1 5abd d6f1 88bd 13a1 f43c
00000220: 0e71 a1bc 1304 26be 10c6 dc3e 1aa0 eabd
00000230: 460e 77be 5345 e1bd ad7f 8d3d 8744 eabe
00000240: 13db e83e 3724 15bf 51cc 84be 6bae 9bbe
00000250: 510d 683e cb4c 34bf a575 8dbc 112a e03e
00000260: 0234 ed3e d640 97be 0840 2bbe 45f3 b7bd
00000270: 7c6d fa3e 187d 13bc 7dcd a0be da71 d9be
00000280: b42e 053f 1bb9 943a 962e e4bd 8372 eebe
00000290: 7998 353e 6bf9 42be 43f7 0a3e 3841 ac3e
000002a0: ee2b 893d 182b c8be d4ca 45bd 58f5 08be
000002b0: d3e4 c63e 42e2 8fbc 2afb b9bf b80b ab3d
000002c0: 7b25 be3e ae63 0bbc eeca a5bc 0dbe 90bd
000002d0: 35db 893e 6e3a d5be b4c8 8abd f3bb 17be
000002e0: dc2d b9bd aa99 bd3e b66b 95bf a229 a73f
000002f0: e414 23bf 46a5 163e 2f41 ce3e 6516 6e3f
00000300: 7516 923d 1fbf 2ebd 4f26 b03e f542 513e
00000310: b631 98bd 6fe9 953e 7de3 abbe c012 ebbd
00000320: a092 88bd b4fe 9d3c 1b33 fbbd 2b39 e4bd
00000330: d387 8b3e 8dce 68be 3ace 95bc e20f cabe
00000340: dcdd 473e d4b2 a33d 88c8 023e 95f1 2d3f
00000350: b146 843f 1939 05be d6b6 3a3f 4b56 1d3f
00000360: e985 c63e 24cb 01be 93b4 173c e352 c3be
00000370: ec56 0abf b7e1 b6bc 7214 87be eb17 613e
00000380: 026c 453d fc7f afbd cfb2 5cbe 8178 4abe
00000390: b2b2 18bf 96c7 90be 17dd 633d 87b1 3bbe
000003a0: 9a5b 2f3f 093a 81bf 5b00 fb3d c964 12be
000003b0: 5079 6c3f 344f 2a3e 4e4d 313d 9827 793e
000003c0: 4e65 6a3f a846 babd af74 17be 9a6e 8f3e
000003d0: d43f e03e fe6f 2bbd df43 de3d b678 a5be
000003e0: f93a 9e3d 5a76 8fbe dc42 853f e47c bdbe
000003f0: 451b 5a3e ff56 6dbd 8ae7 0cc0 f6ad f9bc

bias f4 [400]
0.05359593 -0.15852559 -0.09271778 0.080186754 -0.26545173 0.07276934 0.063109726 -0.30944258
-0.14721003 0.04628356 0.17182043 0.04202849 -0.07397697 -0.15205707 0.036823504 -0.16270521
-0.20749259 0.026825475 -0.20327902 -0.19010672 -0.094090894 -0.099269874 0.025819924 -0.076523356
0.060684223 0.0872114 0.045280963 -0.012912748 -0.02622288 -0.039338462 -0.022663992 -0.17189409
-0.179668 -0.011112601 -0.13688385 -0.036475148 -0.045698702 -0.21263745 -0.041299727 -0.0024944467
0.1652406 -0.06514159 0.0013334692 -0.029806718 -0.045478627 -0.28568533 0.19809513 0.10575893
-0.23776574 0.061896417 -0.10780326 0.044392906 0.20485985 -0.17628266 -0.116789944 -0.1725574
0.14675118 0.038403273 0.080207676 0.0007716103 -0.21465898 0.12846842 -0.17164713 0.13080807
-0.17143811 -0.24309222 -0.040303618 0.05245489 0.096459426 -0.13349824 -0.085377544 -0.16184293
-0.083810486 -0.16100231 -0.24078847 -0.011874608 -0.08249855 0.05101203 -0.09557082 -0.24448085
-0.1150081 -0.071109444 0.09942982 -0.103190854 0.0046610185 0.1746061 -0.04015652 0.036899246
-0.0641071 0.091635525 -0.22347316 -0.1461293 -0.1884521 -0.22571406 -0.22249506 -0.022848511
-0.005768036 -0.15993243 0.065377556 0.052343592 -0.07400618 -0.12412785 -0.080318786 -0.20897502
0.1299917 0.0020665918 0.033250652 -0.07425608 0.020870302 0.075691774 -0.00937371 -0.1017406
-0.12603179 -0.08577623 0.062316492 -0.2009105 0.12754281 -0.20482217 -0.28669277 0.13939276
-0.025893414 -0.10053898 0.00154562 -0.083853 -0.24007438 -0.18991746 -0.17740867 0.116413005
-0.062853605 -0.19832733 0.13652441 -0.056271818 0.09081298 0.1403811 -0.19034499 0.086495504
-0.26470345 -0.26107803 -0.15931726 0.1223215 0.047775663 -0.044507723 0.19092965 0.21695444
0.108224615 -0.1392045 -0.108265795 -0.051307604 -0.16618721 0.09356075 -0.32524452 -0.19128948
-0.12077299 -0.10427256 0.17729375 -0.064346224 0.022106543 -0.053182732 -0.079485305 -0.121929176
-0.2106849 0.22756457 -0.12747864 -0.11914836 -0.14615487 -0.029891297 -0.008390179 -0.183125
0.06451125 0.04767721 -0.21644554 -0.34216613 -0.29908022 0.093952976 -0.046276778 0.01542383
-0.079168476 0.15418726 0.17583983 -0.09882174 0.040336564 -0.0032516036 -0.03024976 -0.01287362
-0.12164449 -0.15131919 -0.1389612 -0.29837176 0.10763345 0.04166862 0.0997012 -0.120636456
0.039760675 -0.21378107 -0.1537033 -0.08849983 0.036526438 -0.15704952 0.0713429 -0.19087398
-0.06815867 -0.16992672 -0.29201615 -0.08675042 -0.08728049 -0.10964722 0.041963607 0.13507777
-0.111024566 0.00024717217 0.019843942 -0.17937441 -0.19203843 -0.078467116 0.09960962 -0.04160252
0.0015562711 -0.028240254 0.2257153 -0.17675948 -0.0066624046 0.14636983 0.11544514 -0.14067444
-0.2369105 0.017693674 0.031759877 0.19110236 -0.15039721 0.07083942 0.08873452 -0.21184956
-0.089467324 -0.09982229 -0.08199806 0.103795126 -0.29304317 -0.21707858 -0.055750236 -0.0533541
0.08297293 -0.017044315 0.080552146 -0.119282864 0.19636348 0.022829808 -0.10756041 -0.082644135
-0.17714703 0.094200715 0.08567165 -0.17141318 -0.028260779 -0.19615577 0.13917972 -0.09173623
00000000: 6887 5b3d 8854 22be d2e2 bdbd f438 a43d
00000010: 4ae9 87be 1708 953d ac3f 813d 426f 9ebe
00000020: 3abe 16be d593 3d3d b2f1 2f3e 1126 2c3d
00000030: 3d81 97bd d9b4 1bbe 3ed4 163d 329c 26be
00000040: f078 54be 19c1 db3c 6028 50be 56ab 42be
00000050: bab2 c0bd 014e cbbd 4e84 d33c 47b8 9cbd
00000060: 0590 783d e49b b23d 8878 393d fe8f 53bc
00000070: 5ed1 d6bc 5e21 21bd d6a9 b9bc 0105 30be
00000080: e3fa 37be a011 36bc 482b 0cbe f766 15bd
00000090: 902e 3bbd a2bd 59be e729 29bd df79 23bb
000000a0: d534 293e f468 85bd cdc7 ae3a 382d f4bc
000000b0: cc47 3abd 5945 92be 73d9 4a3e 2398 d83d
000000c0: dd78 73be 1987 7d3d f5c7 dcbd 56d5 353d
000000d0: c8c6 513e 7183 34be 912f efbd e3b2 30be
000000e0: f145 163e c04c 1d3d ec43 a43d e445 4a3a
000000f0: 90cf 5bbe 3a8d 033e 44c4 2fbe 8df2 053e
00000100: 798d 2fbe 2bed 78be 6815 25bd f0da 563d
00000110: 858c c53d c3b3 08be 6cda aebd 27ba 25be
00000120: d5a4 abbd cadd 24be 4191 76be b78d 42bc
00000130: 00f5 a8bd fef1 503d a2ba c3bd 3059 7abe
00000140: 5e89 ebbd d4a1 91bd dda1 cb3d ba55 d3bd
00000150: 75bb 983b f1cb 323e 2a7b 24bd aa23 173d
00000160: 954a 83bd 68ab bb3d 26d6 64be eba2 15be
00000170: 96f9 40be 9621 67be bfd5 63be cd2c bbbc
00000180: cb01 bdbb 54c5 23be abe4 853d 3c66 563d
00000190: 8d90 97bd be36 febd 2d7e a4bd 8cfd 55be
000001a0: 8b1c 053e a86f 073b d631 083d 9213 98bd
000001b0: 32f8 aa3c 4a04 9b3d 3094 19bc 605d d0bd
000001c0: 7a0e 01be 73ab afbd 943f 7f3d 7bbb 4dbe
000001d0: 959a 023e e7bc 51be 65c9 92be fabc 0e3e
000001e0: 6d1e d4bc 61e7 cdbd 6796 ca3a 1fbb abbd
000001f0: 0fd6 75be b979 42be 9eaa 35be f169 ee3d
00000200: 64b9 80bd 5216 4bbe 0ecd 0b3e 477d 66bd
00000210: 28fc b93d 10c0 0f3e cce9 42be 8e24 b13d
00000220: 3687 87be 05ac 85be 1024 23be b283 fa3d
00000230: 6ab0 433d bb4d 36bd 1083 433e 4e29 5e3e
00000240: dea4 dd3d a08b 0ebe 75ba ddbd ec27 52bd
00000250: fb2c 2abe c79c bf3d 7386 a6be 64e1 43be
00000260: d457 f7bd da8c d5bd 7e8c 353e f4c7 83bd
00000270: c818 b53c 23d6 59bd 31c9 a2bd 01b6 f9bd
00000280: c8bd 57be b006 693e c389 02be 0e04 f4bd
00000290: 9fa9 15be 98de f4bc f676 09bc 1f85 3bbe
000002a0: 791e 843d 2e49 433d e6a3 5dbe 6630 afbe
000002b0: 0b21 99be 6b6a c03d b88c 3dbd 3bb4 7c3c
000002c0: 1523 a2bd 44e3 1d3e 5b0f 343e 0d63 cabd
000002d0: f437 253d db18 55bb 58ce f7bc e0eb 52bc
000002e0: bf20 f9bd 6bf3 1abe d84b 0ebe 2fc4 98be
000002f0: ed6e dc3d b7ac 2a3d 2530 cc3d 3f10 f7bd
00000300: 17dc 223d 6de9 5abe 6664 1dbe 663f b5bd
00000310: bf9c 153d 97d1 20be 3a1c 923d 7874 43be
00000320: c696 8bbd 4501 2ebe 2483 95be 34aa b1bd
00000330: 1dc0 b2bd b98e e0bd 08e2 2b3d d451 0a3e
00000340: d960 e3bd e396 8139 c38f a23c edad 37be
00000350: b9a5 44be 5eb3 a0bd 2100 cc3d 6767 2abd
00000360: cbfb cb3a 1b58 e7bc e921 673e 7000 35be
00000370: 4d50 dabb f9e1 153e 806e ec3d f60c 10be
00000380: ab98 72be 53f2 903c a516 023d 56b0 433e
00000390: ba01 1abe 4214 913d 72ba b53d 17ef 58be
000003a0: a53a b7bd a16f ccbd 99ee a7bd 8a92 d43d
000003b0: c109 96be d949 5ebe 5c5a 64bd d489 5abd
000003c0: b6ed a93d 85a0 8bbc 86f8 a43d 934a f4bd
000003d0: 8213 493e 9405 bb3c a248 dcbd 5441 a9bd
000003e0: 0866 35be 4eec c03d 9e74 af3d f086 2fbe
000003f0: 2683 e7bc 0fdd 48be 2185 0e3e 34e0 bbbd

weight f4 [300, 400]
-0.20885022 0.010074038 0.2548467 -0.087665945 -0.089787304 -0.19408888 -0.22217034 0.16911305
0.32547063 -0.11690815 -0.14510141 0.043747265 0.049772322 0.020866688 0.07571723 -0.017527446
0.107120134 -0.14308967 -0.13903505 -0.23719065 -0.027104404 -0.0069747753 -0.03278257 0.10963529
0.08461839 0.18940318 -0.058060937 -0.17862064 -0.19678977 0.12077324 -0.48640394 0.07951377
-0.06875237 0.12393705 -0.10099848 0.026250152 -0.14431627 -0.027174732 -0.14391586 -0.26308697
-0.3160592 -0.29118595 -0.60259956 0.044495557 -0.06621091 0.09068043 -0.10222104 -0.079027556
-0.12590782 0.070965625 0.08027036 -0.1443744 -0.18198146 0.03272643 0.04975193 -0.024443075
-0.6786013 0.07438742 -0.2785329 0.13888986 0.04349964 -0.098865554 -0.03880325 -0.018477717
-0.220895 -0.019510422 -0.3724714 -0.43481666 -0.38883752 0.0093672415 -0.019698337 -0.25698274
0.21471314 0.048130337 -0.00048565704 -0.063827045 -0.026424522 -0.13185315 -0.20232104 0.037399076
-0.032957196 -0.22870965 -0.035808586 0.021390859 -0.3307772 -0.1952384 -0.28839365 0.007577828
0.1531178 0.04620297 0.072246104 0.38038152 -0.07876351 0.3404311 -0.30057827 0.14375329
-0.07664552 -0.15140806 -0.09831558 0.0064490535 -0.14212006 0.015937312 -0.045241237 -0.20283152
0.1468785 -0.11180689 -0.14985318 -0.32389027 -0.26215312 -0.036796965 -0.0082070045 0.02052914
-0.006793089 -0.13218497 -0.018060617 -0.1346284 -0.13736007 -0.010117777 0.0061892103 -0.01834858
0.008864632 -0.027574558 -0.19807167 0.10523529 0.08857106 -0.041370373 -0.0500908 -0.26356757
-0.034288853 0.02192706 0.094489604 0.042810135 -0.18747461 0.012666043 -0.010101039 -0.042390484
0.43272462 -0.31187335 -0.09874398 0.007743031 -0.12704748 0.1347366 0.12629892 -0.20646366
0.040766206 -0.20971976 0.20262747 -0.2391677 0.0036656745 -0.04996403 0.03152024 0.1380523
0.075759806 -0.16059032 -0.21985123 -0.18808989 0.019528676 -0.15024494 0.09028287 -0.31495807
0.008016922 -0.2615995 -0.0009910762 0.07859533 -0.10194123 -0.005447816 0.006024521 -0.027090222
0.0070783547 0.057081547 0.042512972 -0.036011893 0.07198683 0.015486852 -0.1345294 -0.15617879
-0.18748082 0.022463845 -0.24982643 0.0098955035 0.14834565 0.14232415 -0.009397984 -0.08421335
-0.07534044 -0.040776134 0.013342302 -0.018070232 -0.0064020897 -0.061699357 0.006382996 0.050723936
-0.27519125 0.10742279 0.15239078 0.03334329 0.06964811 -0.070660695 -0.11881611 0.030029435
0.023480877 0.07117618 9.322866e-05 -0.15986767 -0.053593703 -0.01612262 0.07515355 -0.30853054
-0.19823866 0.2054509 -0.16430233 0.24118751 -0.20289838 0.045932237 0.09760119 -0.15619256
-0.26202986 0.096405 -0.2103176 -0.01683414 0.068422586 0.060858537 -0.047406647 0.044394225
-0.005130389 -0.06936683 -0.21147443 -0.13253596 0.05141982 0.035829548 -0.008438001 0.048432056
-0.100508295 -0.16675948 0.03926258 -0.20465654 -0.024698209 -0.029179037 0.04598969 -0.034635387
0.0433335 -0.09577449 -0.0072518587 0.04867788 -0.1276516 0.03050452 -0.034507334 0.03116471
-0.20053457 0.12766802 -0.2979106 0.02036928 -0.2921962 -0.2091938 0.011636753 -0.010740202
00000000: d5dc 55be 940d 253c 447b 823e 348a b3bd
00000010: 68e2 b7bd 3cbf 46be 9f80 63be f92b 2d3e
00000020: 16a4 a63e 8a6d efbd 7795 14be 5530 333d
00000030: 10de 4b3d 9ef0 aa3c a311 9b3d b895 8fbc
00000040: cd61 db3d 1986 12be 345f 0ebe 1be2 72be
00000050: 0e0a debc a88c e4bb 0447 06bd 7888 e03d
00000060: 684c ad3d e8f2 413e 4ed1 6dbd 54e8 36be
00000070: 4283 49be f657 f73d f009 f9be 1ed8 a23d
00000080: 0bce 8cbd b5d2 fd3d 4bd8 cebd 8f0a d73c
00000090: a5c7 13be 8b9d debc ae5e 13be 56b3 86be
000000a0: 83d2 a1be 5316 95be f743 1abf f940 363d
000000b0: 9699 87bd a9b6 b93d 4459 d1bd 33d9 a1bd
000000c0: fbed 00be 6d56 913d c964 a43d e2d6 13be
000000d0: 5959 3abe 260c 063d aec8 4b3d d83c c8bc
000000e0: d1b8 2dbf 6f58 983d dd9b 8ebe 2539 0e3e
000000f0: ae2c 323d 067a cabd 28f0 1ebd 955e 97bc
00000100: 4d32 62be 52d4 9fbc 92b4 bebe 4aa0 debe
00000110: b615 c7be 0f79 193c 685e a1bc 3e93 83be
00000120: c3dd 5b3e 5124 453d c99f feb9 c1b7 82bd
00000130: 3d78 d8bc 8304 07be 3f2d 4fbe c62f 193d
00000140: 20fe 06bd dd32 6abe 06ac 12bd e23b af3c
00000150: a15b a9be 93ec 47be 55a8 93be 6e4f f83b
00000160: eaca 1c3e 533f 3d3d c4f5 933d 5ec1 c23e
00000170: c34e a1bd fc4c ae3e 65e5 99be 1034 133e
00000180: 54f8 9cbd b70a 1bbe ae59 c9bd 9552 d33b
00000190: ec87 11be f78e 823c e04e 39bd 11b3 4fbe
000001a0: 5167 163e 03fb e4bd 1d73 19be f2d4 a5be
000001b0: ef38 86be 6ab8 16bd ac76 06bc ba2c a83c
000001c0: 9098 debb 7f5b 07be dcf3 93bc 07dc 09be
000001d0: 1ea8 0cbe 08c5 25bc dcce ca3b c34f 96bc
000001e0: f63c 113c 0ae4 e1bc 4dd3 4abe 9a85 d73d
000001f0: be64 b53d fb73 29bd 032c 4dbd 54f2 86be
00000200: 7872 0cbd 61a0 b33c c483 c13d ae59 2f3d
00000210: 58f9 3fbe 3c85 4f3c d47e 25bc a5a1 2dbd
00000220: 158e dd3e ddad 9fbe 493a cabd 40b9 fd3b
00000230: bc18 02be 64f8 093e 8154 013e 366b 53be
00000240: 77fa 263d c7c0 56be 937d 4f3e 61e8 74be
00000250: d03b 703b 15a7 4cbd 5e1b 013d 955d 0d3e
00000260: f527 9b3d ca71 24be ae20 61be a39a 40be
00000270: 9afa 9f3c cfd9 19be 3ae6 b83d 2f42 a1be
00000280: 6859 033c 5ff0 85be 00e7 81ba 97f6 a03d
00000290: 90c6 d0bd 9883 b2bb 5869 c53b 50ec ddbc
000002a0: 8bf1 e73b 57ce 693d 1522 2e3d 3581 13bd
000002b0: d56d 933d 91bc 7d3c 13c2 09be 55ed 1fbe
000002c0: f9fa 3fbe 1906 b83c 80d2 7fbe c020 223c
000002d0: ece7 173e 6cbd 113e 00fa 19bc 0d78 acbd
000002e0: 174c 9abd e004 27bd ac99 5a3c 0608 94bc
000002f0: 9fc8 d1bb 77b8 7cbd 7428 d13b e7c3 4f3d
00000300: dee5 8cbe 7b00 dc3d 540c 1c3e f992 083d
00000310: aba3 8e3d 8eb6 90bd dc55 f3bd 4a00 f63c
00000320: f85a c03c d1c4 913d c183 c338 5ab4 23be
00000330: 1285 5bbd 9613 84bc 1bea 993d b7f7 9dbe
00000340: 13ff 4abe b961 523e df3e 28be dcf9 763e
00000350: 98c4 4fbe 7123 3c3d 22e3 c73d f1f0 1fbe
00000360: c728 86be fc6f c53d 7f5d 57be c0e7 89bc
00000370: 2421 8c3d cd46 793d 792d 42bd b8d6 353d
00000380: d21c a8bb 3210 8ebd c18c 58be 82b7 07be
00000390: 979d 523d 01c2 123d 8b3f 0abc b160 463d
000003a0: 4bd7 cdbd ffc2 2abe cdd1 203d 7c91 51be
000003b0: e653 cabc e008 efbc af5f 3c3d d6dd 0dbd
000003c0: 787e 313d 6a25 c4bd 00a1 edbb 7562 473d
000003d0: 1ab7 02be 9de4 f93c 9057 0dbd 224d ff3c
000003e0: ef58 4dbe 68bb 023e bd87 98be 7add a63c
000003f0: be9a 95be e636 56be 14a8 3e3c acf7 2fbc

bias f4 [300]
-0.0146295475 -0.049891107 -0.04334575 -0.014882579 -0.00023639458 0.11390065 0.0848628 -0.05347337
-0.02232778 -0.039395966 -0.054063216 0.022733463 0.0142858215 -0.008087854 -0.01508596 -0.054426398
-0.38972715 0.087528944 -0.013828743 -0.06275593 -0.1529293 -0.0060389405 -0.07354886 -0.04939198
0.1003034 -0.17285514 -0.067236 0.04618372 -0.020918295 -0.061546654 0.402514 -0.038866892
0.0029904258 -0.23268434 -0.031054992 -0.027304443 0.0944071 -0.01820397 0.0004167819 0.040768057
0.008813214 -0.034770906 -0.07251646 -0.021418918 -0.007296396 -0.093835525 -0.066834524 -0.05674712
-0.014467929 -0.04506483 0.21780245 -0.014262762 0.15239295 -0.053820886 0.10888715 0.0014640421
-0.07957846 -0.0064889514 0.022982428 -0.028294379 -0.00396356 0.045700077 -0.039944567 -0.026232865
-0.061181903 -0.039486762 -0.01337067 -0.046593957 -0.00969707 -0.04101136 -0.10390128 0.13279362
0.0023352348 -0.13398995 0.13172626 -0.025575673 -0.0009911864 -0.16695713 0.09249613 -0.42264888
-0.05442427 0.0020849628 0.04906565 0.008456635 -0.027279943 -0.040319942 -0.124114856 0.053031564
-0.043496143 -0.019966409 0.046790045 -0.102961525 0.0817017 -0.060229126 -0.060814396 0.0031361873
-0.027213514 -0.06396341 -0.0033329052 0.15444228 -0.009610034 0.008631332 -0.026457917 -0.0041378587
0.0015589806 -0.01540421 -0.04003458 -0.28422832 -0.006420759 -0.027605277 0.004890535 0.33850905
0.030921515 -0.035951067 -0.091418386 0.10655588 0.41005987 -0.023592727 -0.012601492 0.07355509
0.0060609877 0.14662936 -0.048311926 0.28137818 -0.035931204 0.08246841 -0.005803598 -0.07060953
-0.11713674 0.040883034 0.119187534 0.18113554 -0.020998925 0.32251126 -0.017370984 -0.05466799
0.3532609 -0.019349659 -0.05497881 0.017781664 -0.031846218 -0.03843058 0.005069989 -0.046735995
-0.16075367 -0.039637506 0.003364472 0.03007525 -0.061954796 0.013218357 -0.02743987 0.12626477
0.19716854 -0.12737097 -0.07054007 0.07261008 -0.06504013 -0.028384617 0.12766777 -0.016681585
-0.047365207 -0.031021722 -0.010642867 0.2798714 -0.059077088 0.12064947 -0.035144676 0.024032677
0.00450013 -0.038959716 0.07946823 -0.046267487 0.10350652 -0.004401513 -0.048622053 -0.018882837
-0.05500143 -0.044266842 0.0720644 0.00013828053 -0.04249742 -0.010535559 0.037306726 0.067218184
-0.044312928 -0.051261593 -0.1036253 -0.060207102 0.0037275355 0.019123396 0.066552125 0.07965434
0.07692963 -0.026515078 0.24479386 -0.02648531 -0.01103794 -0.018229313 -0.016201736 -0.057424124
-0.2026503 -0.019687241 -0.2887461 -0.05525418 -0.021578068 -0.034493476 -0.045566346 0.19868971
-0.06543039 -0.020294346 -0.029079584 0.0035999464 -0.06823663 0.03912125 0.122094534 -0.023800068
-0.11748629 0.050153792 0.04150131 -0.004198586 0.0043591084 -0.03054937 0.03465249 -2.621709e-05
0.063313186 0.0705212 -0.064111225 -0.005191705 0.27613115 -0.0142948255 -0.080015 0.032755937
-0.030410966 -0.123133756 -0.06027323 0.13552873 0.060816444 -0.11605276 -0.043347713 -0.06312553
-0.06548921 0.10280091 -0.074453115 -0.066476375 0.10124837 -0.027483113 -0.015979465 -0.0026422464
0.08697157 -0.047390908 0.22556962 0.06132657 0.03746306 -0.028807215 -0.11143287 -0.05735354
00000000: c5b0 6fbc 9e5a 4cbd 508b 31bd 10d6 73bc
00000010: b0e0 77b9 be44 e93d 8ccc ad3d e406 5bbd
00000020: c0e8 b6bc aa5d 21bd 6471 5dbd 873b ba3c
00000030: 140f 6a3c eb82 04bc 1a2b 77bc 37ee 5ebd
00000040: 518a c7be 6042 b33d f491 62bc 2e86 80bd
00000050: 8099 1cbe 4ee2 c5bb c9a0 96bd 3f4f 4abd
00000060: de6b cd3d f000 31be 07b3 89bd 242b 3d3d
00000070: d85c abbc 5818 7cbd 5116 ce3e e432 1fbd
00000080: 05fb 433b ce44 6ebe 0a67 febc 91ad dfbc
00000090: 8258 c13d 7e20 95bc 8583 da39 68fc 263d
000000a0: 4c65 103c f06b 0ebd 8383 94bd ba76 afbc
000000b0: 9b16 efbb d72c c0bd 8ae0 88bd ab6f 68bd
000000c0: e40a 6dbc e695 38bd 9b07 5f3e 5cae 69bc
000000d0: e60c 1c3e 4a73 5cbd 3a00 df3d 1ae5 bf3a
000000e0: 08fa a2bd 45a1 d4bb a545 bc3c 9dc9 e7bc
000000f0: c0e0 81bb 0130 3b3d ea9c 23bd 4ee6 d6bc
00000100: e099 7abd dfbc 21bd a810 5bbc 4ed9 3ebd
00000110: 76e0 1ebc 87fb 27bd 32ca d4bd 0dfb 073e
00000120: bd0a 193b a934 09be 40e3 063e 1384 d1bc
00000130: b2ea 81ba cff6 2abe 9c6e bd3d 6f65 d8be
00000140: fceb 5ebd dfa3 083b 10f9 483d b38d 0a3c
00000150: 307a dfbc 8626 25bd ee2f febd a037 593d
00000160: 0329 32bd 9890 a3bc eba6 3f3d 7edd d2bd
00000170: 3953 a73d d1b2 76bd 8418 79bd 7e88 4d3b
00000180: e0ee debc 40ff 82bd df6c 5abb 1e26 1e3e
00000190: 6773 1dbc 6e6a 0d3c 46be d8bc e096 87bb
000001a0: b556 cc3a f161 7cbc 4dfb 23bd 6086 91be
000001b0: 3b65 d2bb 7624 e2bc c840 a03b 0f51 ad3e
000001c0: 1e4f fd3c 6d41 13bd 9039 bbbd f839 da3d
000001d0: 5ef3 d13e 8945 c1bc 7d76 4ebc 0da4 963d
000001e0: 409b c63b 0226 163e bae2 45bd cd10 903e
000001f0: 992c 13bd 33e5 a83d 1c2c bebb bb9b 90bd
00000200: 63e5 efbd f874 273d 9818 f43d 987b 393e
00000210: f005 acbc 3220 a53e 984d 8ebc 8beb 5fbd
00000220: 9dde b43e 2d83 9ebc 7631 61bd daaa 913c
00000230: 2e71 02bd 6269 1dbd 2622 a63b 3e6e 3fbd
00000240: 9c9c 24be f05a 22bd 797e 5c3b 5f60 f63c
00000250: 50c4 7dbd cf91 583c 94c9 e0bc 8d4b 013e
00000260: 8de6 493e 896d 02be 5077 90bd 98b4 943d
00000270: c233 85bd db86 e8bc 57bb 023e d2a7 88bc
00000280: 0502 42bd 4421 febc 6b5f 2ebc 4e4b 8f3e
00000290: d1fa 71bd 1217 f73d ddf3 0fbd 2de0 c43c
000002a0: d475 933b 3994 1fbd 3dc0 a23d fa82 3dbd
000002b0: 3afb d33d 913a 90bb eb27 47bd 2eb0 9abc
000002c0: 2e49 61bd 2651 35bd 8096 933d 66ff 1039
000002d0: c611 2ebd 569d 2cbc f0ce 183d b0a9 893d
000002e0: 7981 35bd adf7 51bd 8039 d4bd b99b 76bd
000002f0: ab49 743b aba8 9c3c 7b4c 883d d121 a33d
00000300: 488d 9d3d 2636 d9bc 3eab 7a3e b9f7 d8bc
00000310: 7ad8 34bc a455 95bc 81b9 84bc 8f35 6bbd
00000320: 8f83 4fbe 2347 a1bc 87d6 93be 3552 62bd
00000330: 7dc4 b0bc 0849 0dbd c7a3 3abd 5175 4b3e
00000340: 5e00 86bd 5440 a6bc 4f38 eebc 14ed 6b3b
00000350: a5bf 8bbd 9b3d 203d b30c fa3d 5cf8 c2bc
00000360: a79c f0bd 106e 4d3d 47fd 293d 4b94 89bb
00000370: dad6 8e3b ac42 fabc c5ef 0d3d c6ec dbb7
00000380: 58aa 813d 6b6d 903d bf4c 83bd 2e1f aabb
00000390: 1061 8d3e d834 6abc e8de a3bd 172b 063d
000003a0: 6b20 f9bc 8d2d fcbd 10e1 76bd 0bc8 0a3e
000003b0: aa1a 793d 12ad edbd 5f8d 31bd f547 81bd
000003c0: 351f 86bd 4989 d23d e07a 98bd c424 88bd
000003d0: 4e5b cf3d 4424 e1bc 5ee7 82bc 8a29 2dbb
000003e0: 271e b23d f81c 42bd b9fb 663e 9231 7b3d
000003f0: de72 193d 1cfd ebbc eb36 e4bd 8ceb 6abd

weight f4 [1, 300]
0.24695063 -0.00067852857 0.00829255 -0.009694845 1.27092 -1.0510867 0.6221963 -0.008114578
0.002581939 -0.00066142157 -0.018123392 -0.3311199 -0.3150803 0.0040535857 0.6420568 -0.011766463
6.8998003 -0.70951796 -0.53848183 0.0022125572 -0.5982879 0.005804644 -0.0101691345 0.0028589084
0.8416409 0.74498045 -0.013296309 -0.70979846 -0.0020307084 0.033479128 -0.67258847 -0.01265433
-0.3092521 -0.23458411 -0.009204198 0.002037048 1.1858582 -2.03254 0.0057529733 0.35738134
-0.0034939907 -0.0026225855 -1.1710446 -0.006297469 -0.009625919 -0.15387698 -0.005929895 -0.013937192
0.010286791 -0.0018455109 -2.152197 -0.0067845793 1.6025461 -0.028201155 1.2313253 -0.005611271
-0.055360787 -0.0052654375 -0.5509892 -0.026200723 -0.7965133 -0.4840318 -0.0050830073 0.0039520175
-0.015786901 0.0027254217 -0.017157882 -0.03314916 0.004700425 -0.0027712479 -0.9561262 -0.3345917
-0.0026748732 -1.0888375 -0.42521527 0.0010233253 0.3205672 -0.3030465 -0.8148061 -0.63457793
-0.006763868 -0.15198776 -0.7513217 0.0007453152 -0.0047544357 -0.0028846068 -0.603034 -1.9613434
-0.018327637 -0.0040814355 -0.10192114 -0.18129994 -0.4507164 -0.017517092 -0.0084741395 -0.7044604
0.005381751 -0.0092861345 -0.0009991552 0.6558529 -0.009549107 -0.00017386411 -0.019749597 -0.025679385
0.0031628876 -0.00059573946 -0.0053033317 0.56667316 -0.0006155416 -0.03855445 0.6261756 1.0482885
-0.88820654 0.0029967588 0.80037105 -1.0812367 -0.63209754 -0.005711326 0.0049089952 -0.11993488
-0.19617462 -0.30615312 -0.0020567614 -0.57784534 0.0045780037 -0.5161898 0.00010882095 -0.0071273856
0.36222315 0.54563797 -1.2484072 1.0201639 -0.00024646058 -2.2581851 -0.02664427 0.0013216002
-1.7985224 -0.0061060777 -0.0016299004 -0.48197004 0.0032591016 -0.000904732 0.5810828 -0.01179998
0.8435418 0.00012022535 -0.00019678398 0.41379815 -0.0013993349 -0.59177095 -0.019269608 -0.9664717
0.5182924 -0.2255524 -0.033782534 -0.6881607 -0.01484043 -0.013339671 0.513469 -0.012648872
0.0010799691 -0.015907433 -0.0030728728 -1.2563018 -0.3016908 -0.48020026 -0.024266534 -0.73462856
-0.001714927 -0.051374756 -1.4223213 0.062578484 -0.68411887 0.003204403 0.0012025661 0.0029187843
-0.021902928 0.5043247 -0.5559611 -0.40261218 0.0012018033 0.002059249 0.2732982 0.23968114
-0.00017155916 -0.0024426267 0.27588525 0.043632314 -0.01415519 -0.3356403 -0.71482587 1.0561274
-0.4659934 -0.022630673 -0.5307741 -0.0034777569 0.50764495 -0.0026742124 -0.017232636 -0.0032774832
-1.6337433 -0.29783756 1.243305 -0.035172287 -0.37783846 -0.01299754 -0.015101968 -1.0141165
-0.013407877 -0.0028877421 -0.0056969966 -0.03045177 -0.0075499304 -0.4959213 -0.42438298 -0.022925964
0.6148476 -0.40612394 -0.32176292 0.003653341 0.0012743303 -0.003931142 -0.65828407 -0.0008869438
0.5917461 1.4842342 -0.019087562 -0.54038703 -0.9457324 -0.04246551 0.81880677 -0.30197558
0.003979441 0.34776428 0.00198032 -0.29422548 -0.8682087 -0.38982254 -0.0028604239 -0.012200067
-0.015010876 -0.23653154 -0.0074272766 -0.028072465 -0.46849388 -0.0023761375 -0.0016500833 -0.02630207
-0.28161258 -0.019823907 -0.9991671 -0.72645044 -0.5414529 -0.006293901 -0.43149605 -0.053306833
00000000: a0e0 7c3e 48df 31ba 7add 073c 21d7 1ebc
00000010: 82ad a23f 028a 86bf 4248 1f3f 02f3 04bc
00000020: c035 293b 4063 2dba 8277 94bc 8c88 a9be
00000030: 3552 a1be f1d3 843b d65d 243f 1fc8 40bc
00000040: 2acb dc40 f8a2 35bf f2d9 09bf 8d00 113b
00000050: 6529 19bf e234 be3b 719c 26bc 865c 3b3b
00000060: c775 573f 0ab7 3e3f c3d8 59bc 5ab5 35bf
00000070: a215 05bb 6921 093d c22e 2cbf 1b54 4fbc
00000080: 4b56 9ebe d136 70be 34cd 16bc ff7f 053b
00000090: 34ca 973f 2315 02c0 7083 bc3b b0fa b63e
000000a0: 70fb 64bb afdf 2bbb cae4 95bf 005b cebb
000000b0: 08b6 1dbc ed91 1dbe 914f c2bb d258 64bc
000000c0: ee89 283c 12e5 f1ba 98bd 09c0 2d51 debb
000000d0: 3b20 cd3f 1c06 e7bc 119c 9d3f c1de b7bb
000000e0: fec1 62bd b189 acbb a10d 0dbf e6a2 d6bc
000000f0: 4ce8 4bbf 04d3 f7be 5b8f a6bb ed7f 813b
00000100: 8853 81bc fd9c 323b b08e 8cbc 6ac7 07bd
00000110: 0606 9a3b d39d 35bb b0c4 74bf 9a4f abbe
00000120: ed4c 2fbb 075f 8bbf d1b5 d9be 1921 863a
00000130: 6221 a43e e928 9bbe 2297 50bf b373 22bf
00000140: 70a3 ddbb aea2 1bbe 9e56 40bf 4261 433a
00000150: 19cb 9bbb ac0b 3dbb 7060 1abf 4d0d fbbf
00000160: d723 96bc 90bd 85bb 08bc d0bd b1a6 39be
00000170: 4dc4 e6be 0180 8fbc 1ed7 0abc 8457 34bf
00000180: 6659 b03b df24 18bc 16f6 82ba fae5 273f
00000190: dc73 1cbc 4b4f 36b9 e8c9 a1bc 935d d2bc
000001a0: 7348 4f3b 662b 1cba 92c7 adbb 7e11 113f
000001b0: 4c5c 21ba 45eb 1dbd 0b4d 203f 512e 863f
000001c0: 8161 63bf 4565 443b 1ee5 4c3f f765 8abf
000001d0: 25d1 21bf 1326 bbbb a3db a03b 6ba0 f5bd
000001e0: 00e2 48be 1ac0 9cbe bbca 06bb aced 13bf
000001f0: 1403 963b 0425 04bf cd36 e438 d88c e9bb
00000200: 5075 b93e eeae 0b3f cfcb 9fbf bb94 823f
00000210: 6137 81b9 1b86 10c0 1645 dabc 8b39 ad3a
00000220: fb35 e6bf 7e15 c8bb 62a2 d5ba c7c4 f6be
00000230: a796 553b 892b 6dba d8c1 143f b454 41bc
00000240: 5bf2 573f 7e21 fc38 cc57 4eb9 5add d33e
00000250: e369 b7ba 4d7e 17bf 4cdb 9dbc b06a 77bf
00000260: d0ae 043f 35f7 66be 8e5f 0abd 4d2b 30bf
00000270: 4625 73bc a38e 5abc b472 033f 373d 4fbc
00000280: c08d 8d3a 4e50 82bc 4062 49bb 7fce a0bf
00000290: 3777 9abe cfdc f5be 9cca c6bc 9e10 3cbf
000002a0: 67c7 e0ba 566e 52bd a00e b6bf 2629 803d
000002b0: 6a22 2fbf f600 523b 6c9f 9d3a 1349 3f3b
000002c0: c56d b3bc 6c1b 013f 7753 0ebf 2f23 cebe
000002d0: d485 9d3a 77f4 063b beed 8b3e f96e 753e
000002e0: 90e4 33b9 7a14 20bb d540 8d3e ccb7 323d
000002f0: 2ceb 67bc 0cd9 abbe d4fe 36bf 2f2f 873f
00000300: b096 eebe f663 b9bc d0e0 07bf 14eb 63bb
00000310: 05f5 013f d741 2fbb 752b 8dbc 0bcb 56bb
00000320: 801e d1bf 2a7e 98be 9e24 9f3f d110 10bd
00000330: 0b74 c1be a2f3 54bc 3f6e 77bc 92ce 81bf
00000340: b6ac 5bbc 4640 3dbb dfad babb fe75 f9bc
00000350: 6865 f7bb 66e9 fdbe ba48 d9be 3bcf bbbc
00000360: a766 1d3f 7aef cfbe 1cbe a4be e46c 6f3b
00000370: 6e07 a73a cfd0 80bb 4e85 28bf ca81 68ba
00000380: ac7c 173f 63fb bd3f 855d 9cbc ce56 0abf
00000390: 851b 72bf 51f0 2dbd 529d 513f 8b9c 9abe
000003a0: f865 823b 290e b23e 42c8 013b b9a4 96be
000003b0: ed42 5ebf d296 c7be f375 3bbb cae2 47bc
000003c0: 2df0 75bc 5335 72be 8360 f3bb 3af8 e5bc
000003d0: 6ede efbe f9b8 1bbb 9c47 d8ba 7077 d7bc
000003e0: 862f 90be bf65 a2bc 6ac9 7fbf a8f8 39bf
000003f0: a89c 0abf 113d cebb 0ded dcbe 4458 5abd
