pretrained_models/ddpg_moderate1_extended/q.pt (torch_old, 528360 bytes, 5 tensors)

weight f4 [400, 22]
0	0x3b3d7663	0.0028909675
1	0x3d27e7a6	0.0409924
2	0xc001b007	-2.0263689
3	0xbe3b7f87	-0.18310367
4	0x3ecb667e	0.39726633
5	0xbc910998	-0.01770477
6	0x3e02527b	0.12726776
7	0x3e1340ba	0.1438016
8	0xbe8e9340	-0.27846718
9	0xbdb01bc7	-0.08599048
10	0xbdd48b2a	-0.10378106
11	0xbdb7f948	-0.089830935
12	0x3dde2c93	0.108483456
13	0xbe8780e1	-0.26465514
14	0xbcaf2423	-0.021379536
15	0xbd1d9f76	-0.038482152
16	0x3d9440c4	0.072389156
17	0x3e0b0c35	0.13578875
18	0xbe9db5f8	-0.30802894
19	0xbe0d0321	-0.13770725
20	0x3e13139e	0.14362952
21	0x3c3b2996	0.011423489
22	0xbdcb6261	-0.09930874
23	0x3ee40173	0.44532356
24	0xbe2e9935	-0.17050631
25	0x3d2e491f	0.042550202
26	0xbe89040e	-0.26760906
27	0x3e1b7146	0.15179929
28	0xbe86c52a	-0.263223
29	0xbd99fc05	-0.07518772
30	0xbe7063ab	-0.2347552
31	0x3efa25d7	0.48856995
32	0xbef032d2	-0.46913773
33	0xbe14fec0	-0.14550304
34	0x3d4cdbbc	0.050014243
35	0x3df9a518	0.12189692
36	0xbe5aacad	-0.21354933
37	0x3e0ab710	0.13546395
38	0x3d836a68	0.0641678
39	0x3f195a72	0.59903634
40	0x3e350e6f	0.17681287
41	0xbf014488	-0.50495195
42	0x3ec00800	0.37506104
43	0x3d002836	0.03128835
44	0x3cc8f29c	0.024529748
45	0xbda693c4	-0.08133653
46	0x3d41d775	0.047324616
47	0x3d7d2615	0.061803896
48	0x3f019515	0.50618106
49	0x3cd03b63	0.025418943
50	0x3e9410a7	0.28918955
51	0x3e116cb0	0.14201617
52	0x3e25ed19	0.16203727
53	0x3e0931bb	0.13397877
54	0x3e6826c6	0.22671041
55	0xbe4442f5	-0.19166167
56	0xbd120125	-0.035645623
57	0xbdec0edb	-0.11526271
58	0xbe848257	-0.2588069
59	0xbe2ded5d	-0.16985078
60	0x3ceb0efe	0.028693672
61	0x3f605b98	0.8763976
62	0x3d51c7ff	0.05121612
63	0xbf09f58e	-0.5389031
64	0x3f087abd	0.53312284
65	0xbcdc7011	-0.026908906
66	0x3dd6aba2	0.10481955
67	0x3d081273	0.03322072
68	0xbf61bd58	-0.8817954
69	0x3daa567a	0.08317275
70	0x3f3554f1	0.70832735
71	0xbdc40bbd	-0.095725514
72	0xbcd71fb4	-0.026260234
73	0x3d82afa5	0.06381158
74	0xbcabf8db	-0.020992687
75	0x3e8bf809	0.27337673
76	0x3e623fe3	0.22094683
77	0xbea7785a	-0.32709008
78	0xbe7042b8	-0.23462951
79	0xbdf7cc13	-0.12099471
80	0xbcddb1a8	-0.027062252
81	0x3d4ae11e	0.049531095
82	0x3d32ad86	0.043622516
83	0xbe4b4136	-0.19849095
84	0x3e6eca53	0.23319368
85	0xbec19a60	-0.3781309
86	0xbe295777	-0.16537271
87	0x3b9620bc	0.004581539
88	0x3dfe161d	0.124065615
89	0xbe878be8	-0.26473927
90	0xbe74d1b0	-0.23908114
91	0x3dbe79de	0.09300588
92	0x3f212ed7	0.62962097
93	0xbe18ec8b	-0.14933984
94	0xbe9a05b7	-0.30082485
95	0xbe39c8fd	-0.18143077
96	0x3f230bf0	0.6369009
97	0x3e56cd8d	0.20976849
98	0xbee2cd09	-0.44297054
99	0xbd916a7a	-0.07100387
100	0xbce60f02	-0.028083328
101	0x3e1d85ba	0.15383044
102	0xbe8c409c	-0.27393043
103	0x3bd9a7bc	0.00664231
104	0xbe825eb9	-0.25462893
105	0x3d518b19	0.051158044
106	0xbf171bf7	-0.59027046
107	0xbe210d49	-0.15727724
108	0xbd4123ca	-0.04715327
109	0x3bf8ec96	0.0075965626
110	0x3da8c9e8	0.082416356
111	0x3cd4669c	0.025927834
112	0xbfde5107	-1.7368478
113	0x3e1c91a7	0.15289937
114	0x3f955ced	1.1668984
115	0xbe911094	-0.2833296
116	0xbdb86718	-0.090040386
117	0xbce604eb	-0.028078517
118	0xbc8fab10	-0.017537624
119	0x3d4730fa	0.048630692
120	0x3e048468	0.12941134
121	0xbd13159f	-0.03590929
122	0xbe156c05	-0.14591987
123	0x3d103173	0.03520341
124	0xbe12f09a	-0.14349595
125	0xbe34697e	-0.17618367
126	0xbdb98ee9	-0.09060461
127	0xbdbdadd4	-0.09261671
128	0x3dddb8b8	0.10826248
129	0xbf13af9a	-0.5768982
130	0xbdc619e8	-0.0967291
131	0x3b60280f	0.0034203564
132	0xbdac39ae	-0.08409439
133	0xbdea4863	-0.11439588
134	0x3fb09235	1.3794619
135	0xbd8a8a32	-0.0676464
136	0x3fbdaae0	1.4817772
137	0xbdcaee76	-0.09908764
138	0x3e00efd6	0.1259149
139	0x3da7db1e	0.0819609
140	0x3e9110a5	0.2833301
141	0x3eb25eaa	0.34837848
142	0x3f26c180	0.6513901
143	0xbd5420ba	-0.051789023
144	0xbdce7760	-0.10081363
145	0xbc89e9a2	-0.016835038
146	0x3e2ad29f	0.16681908
147	0xbcfbf2d0	-0.03075543
148	0xbdec86e1	-0.115491636
149	0xbef7e09e	-0.48413557
150	0x3dd47ace	0.10374986
151	0xbf37e5bb	-0.71834916
152	0x3e9aeb13	0.30257472
153	0xbc3ee738	-0.0116518065
154	0x3dec1018	0.11526507
155	0xbed5c271	-0.4174991
156	0x3dda9766	0.10673408
157	0xbe3d526b	-0.18488471
158	0x3fb686cf	1.425989
159	0xbea072c0	-0.31337547
160	0xbf0a8d30	-0.54121685
161	0xbd69dd83	-0.057096016
162	0xbe760e75	-0.24028952
163	0xbeb00907	-0.34381887
164	0xbd852e85	-0.065030135
165	0xbd0caa2a	-0.03434197
166	0xbca312cb	-0.019906422
167	0xbdf380ee	-0.11889826
168	0xbe615f5c	-0.22009033
169	0xbd52f07f	-0.051498886
170	0x3e50518e	0.2034361
171	0xbe3d6091	-0.18493868
172	0x3f0204ed	0.50788766
173	0xbf4fd4cd	-0.81184083
174	0xbe952d6f	-0.29136226
175	0x3c278f72	0.010227071
176	0xbc5ee806	-0.013605123
177	0xbe170e31	-0.14751507
178	0x3f91648e	1.1358812
179	0xbe8ce3f3	-0.2751766
180	0xbf15bc69	-0.58490616
181	0xbab8e2d4	-0.0014105686
182	0xbd5c8e40	-0.053846598
183	0xbe0cc5b6	-0.13747296
184	0x3b2b83b8	0.002617104
185	0x3e4cf253	0.20014314
186	0xbe1eb912	-0.15500286
187	0xbde4606c	-0.111512035
188	0xbc035135	-0.008014967
189	0x3e03b102	0.12860492
190	0x3e02b9d2	0.12766197
191	0x3da34645	0.07972387
192	0xbd722448	-0.05911663
193	0xbeb09491	-0.34488347
194	0xbe529320	-0.20563936
195	0x3e570041	0.2099619
196	0x3ca0d5b7	0.019633157
197	0xbd7536ae	-0.0598666
198	0x3b61052c	0.0034335358
199	0xbc7999c7	-0.015234417
200	0xbfa10a13	-1.25812
201	0xbc2530bb	-0.010082419
202	0x3ebb39c5	0.36567512
203	0xbe2429e5	-0.16031606
204	0xbe94567c	-0.28972232
205	0x3c01d182	0.007923486
206	0xbd00a83d	-0.031410445
207	0x3ee099ab	0.4386724
208	0x3ec2efd3	0.38073596
209	0xbdf07fa7	-0.11743098
210	0xbe3c45c6	-0.18385991
211	0x3ceb74f0	0.028742284
212	0x3e8135f4	0.25236475
213	0xbe3c6787	-0.18398868
214	0xbda3003b	-0.07959028
215	0x3d0dc97a	0.03461597
216	0xbdddbf53	-0.10827508
217	0xbe47f1ed	-0.19525881
218	0x3ece82f2	0.40334278
219	0x3c5e17e5	0.013555502
220	0xbec14084	-0.37744534
221	0x3d53ebee	0.051738672
222	0x3fc259ee	1.5183694
223	0xbcaf6812	-0.02141193
224	0x3ec1a8cf	0.37824103
225	0x3c6a01b4	0.014282633
226	0x3dc7440b	0.09729775
227	0xbd990947	-0.07472473
228	0xbe9019d3	-0.28144702
229	0xbe0f750d	-0.14009495
230	0x3f948662	1.160351
231	0x3e230a1e	0.15921828
232	0x3c9c3b84	0.019071348
233	0x3db36e70	0.08761299
234	0x3ed4d4d9	0.4156864
235	0xbe22b3fe	-0.15888974
236	0x3dbd9bb2	0.09258212
237	0xbe5d0a26	-0.21585903
238	0xbdacbb4d	-0.08434162
239	0x3d4325db	0.047643524
240	0x3e922f64	0.2855178
241	0x3cbb7876	0.022884589
242	0xbe03b23b	-0.12860958
243	0xbe8f53a0	-0.27993488
244	0xbf05f98c	-0.52333903
245	0xbeac5651	-0.33659604
246	0xbfd337ff	-1.6501464
247	0xbeeb6dda	-0.45982248
248	0xbed9ec0e	-0.42562908
249	0xbe258451	-0.16163756
250	0xbf01fff2	-0.50781167
251	0xbecc0770	-0.39849424
252	0xbf0966ae	-0.536723
253	0xbe23bf92	-0.15991047
254	0xbf0484a9	-0.51764923
255	0xbeaff00c	-0.3436283

bias f4 [400]
0	0x3df4ac55	0.11946932
1	0xbe3bc7c1	-0.18337919
2	0xbdc23d97	-0.094844036
3	0xbc06bbb5	-0.008223464
4	0x3e5e6535	0.21718295
5	0x3d8bbe82	0.06823446
6	0x3d02b3de	0.031909816
7	0xb8cde870	-9.8184566e-05
8	0xbd510a17	-0.051035013
9	0x3d2ad1f0	0.04170412
10	0xbc13e10e	-0.009025825
11	0xbc71732a	-0.01473693
12	0x37d27359	2.5087664e-05
13	0x3df9d84b	0.12199458
14	0xbe5db1b4	-0.2164982
15	0xbe3de1a4	-0.18543106
16	0xbe060901	-0.13089372
17	0xbd277688	-0.040884525
18	0xbe248cb1	-0.16069295
19	0xbe634bd5	-0.22196896
20	0xbe9053e6	-0.2818901
21	0x3e01efaa	0.12689081
22	0x3de70d56	0.112818405
23	0x3dc016a4	0.09379318
24	0x3d616cbe	0.055035345
25	0xbe58921f	-0.21149491
26	0xbd3fd096	-0.046829782
27	0x3e09cd1e	0.13457152
28	0xbd0df5e5	-0.03465833
29	0xbe27bb70	-0.16380095
30	0xbe2fadd7	-0.17156158
31	0xbe71f4a2	-0.23628476
32	0xbd731e00	-0.059354782
33	0x3e08b596	0.1335052
34	0x3db03a0d	0.08604822
35	0xbe362c41	-0.17790319
36	0xbd7e4511	-0.062077586
37	0xbd1c3d2f	-0.038144287
38	0xbe466c9c	-0.19377369
39	0xbe06b29d	-0.13154073
40	0x3d036637	0.0320799
41	0xbd903d20	-0.07042909
42	0x3df03d26	0.11730413
43	0xbdba6198	-0.09100646
44	0x3e05076f	0.12991117
45	0xbe335fa0	-0.17516947
46	0x3dfb8c2c	0.12282595
47	0x3e0a9e3e	0.13536927
48	0xbd92b3ed	-0.07163224
49	0x3d16deda	0.03683362
50	0xbd02e6be	-0.031958334
51	0x3d9b1034	0.0757145
52	0x3e20c705	0.1570092
53	0xbe4d3b97	-0.20042263
54	0xbe0c9d41	-0.13731863
55	0xbe88c372	-0.26711613
56	0x3d5ebce1	0.054379348
57	0xbe110210	-0.14160943
58	0xbe46b792	-0.19405964
59	0x3dc09698	0.094037235
60	0x3dc21b40	0.09477854
61	0x3b62c3e4	0.0034601623
62	0x3d60859b	0.054814916
63	0xbe37b9b7	-0.17941938
64	0xbdc3325b	-0.09531089
65	0xbd4b4655	-0.04962762
66	0x3dd562c9	0.104192324
67	0xbdb9f576	-0.09080021
68	0xbd582c2f	-0.05277651
69	0x3da3a9e9	0.07991392
70	0x3da92b94	0.08260265
71	0xbd8d1233	-0.06888237
72	0xbe73af6f	-0.23797391
73	0xbd30816b	-0.043092173
74	0x3e0f2cef	0.13981985
75	0x3e3baef3	0.18328457
76	0x3e02ca76	0.12772545
77	0x3d007524	0.031361714
78	0x3d4ae7bc	0.049537405
79	0x3c1c9338	0.009556584
80	0xbd3ad475	-0.04561277
81	0x3dd1b0ac	0.102387756
82	0x3df41320	0.1191771
83	0xbd79a50a	-0.06094841
84	0x3c25af5c	0.01011261
85	0x3e04153d	0.12898727
86	0xbd0f6e82	-0.035017498
87	0xbd03abaa	-0.032146133
88	0xbd52b66f	-0.051443513
89	0xbe346347	-0.17615996
90	0xbe41f5cb	-0.18941419
91	0x3dadaaa6	0.08479814
92	0x3d8f95d7	0.070110016
93	0xbe191f67	-0.14953385
94	0x3d9a7f03	0.07543757
95	0xbe07c54b	-0.13258855
96	0xbda6ea33	-0.08150139
97	0xbd2d1c67	-0.042263415
98	0xbe43e9fd	-0.19132228
99	0xbe1b15f6	-0.15145096
100	0xbd1eeafe	-0.038798325
101	0xbda3ab27	-0.07991629
102	0x3d66b80a	0.056327857
103	0xbd1e993a	-0.038720347
104	0xbe4c3cbf	-0.19945048
105	0xbe31fc0a	-0.17381302
106	0x3e3277b7	0.1742848
107	0x3d3b15fa	0.045675255
108	0xbe6b46b1	-0.22976185
109	0xbe2c7d47	-0.16844665
110	0xbe756661	-0.23964836
111	0x3e0a072b	0.13479297
112	0x3bfd09ea	0.007722129
113	0x3c213521	0.009839327
114	0x3d8cd502	0.068765655
115	0x3d824b75	0.063620485
116	0x3d300c5c	0.042980537
117	0xbe6da569	-0.2320763
118	0x3e1c940b	0.15290849
119	0x3dc4fb6d	0.09618268
120	0xbbd5920e	-0.006517655
121	0x3d4aa077	0.049469437
122	0xbc4d4496	-0.012528559
123	0xbdee4ed5	-0.1163613
124	0xbc4cd1db	-0.012501205
125	0xbe0c777c	-0.13717455
126	0xbd8c450e	-0.06849109
127	0xbdbcc208	-0.09216696
128	0xbc7fe4b9	-0.015618497
129	0x3d89974d	0.067183115
130	0x3d8fffec	0.07031235
131	0xbe50dd1d	-0.20396848
132	0xbe1d2c85	-0.15349014
133	0xbe6bd807	-0.23031627
134	0x3e473e42	0.19457343
135	0xbe20440c	-0.15650958
136	0x3e0f3dcd	0.13988419
137	0x3c641c1d	0.013922718
138	0xbbddd74c	-0.00677005
139	0xbceb7789	-0.028743522
140	0x3c831daf	0.016005365
141	0xbe5bb930	-0.21457362
142	0xbe951933	-0.29120788
143	0xbd941074	-0.07229701
144	0xbc93a54d	-0.018023157
145	0xbe2f435c	-0.1711554
146	0xbd9c82b6	-0.07642119
147	0x3dbf96df	0.09354948
148	0x3e196f73	0.14983921
149	0x3d9effc4	0.07763627
150	0x3e11bfc2	0.14233306
151	0xbdb2cd27	-0.08730536
152	0xbbc8eb7b	-0.006131587
153	0x3d4ada18	0.049524397
154	0x3d9f774a	0.077864245
155	0xbd986f3c	-0.07443091
156	0x3e05b20c	0.130562
157	0xbe348f88	-0.17632878
158	0xbe21e310	-0.15809274
159	0xbe5c97e8	-0.21542323
160	0x3d36d115	0.04463299
161	0xbe33cb8e	-0.17558119
162	0x3db19491	0.08670915
163	0xbe478b17	-0.19486652
164	0x3d35d236	0.044389926
165	0x3e0b742c	0.13618535
166	0x3dc5b0d0	0.09652865
167	0xbdac23f3	-0.08405294
168	0x3cd6da8d	0.02622726
169	0x3d1caa48	0.03824833
170	0x3daa420d	0.083133794
171	0xbd1b57e5	-0.03792562
172	0xbe517c38	-0.20457542
173	0x3e4ebcbb	0.20189182
174	0xbe1d6488	-0.15370381
175	0x3e2754b5	0.16340907
176	0x3d2e6ae4	0.042582408
177	0x3d9e6da9	0.0773576
178	0x3db8070e	0.089857206
179	0x3cec9297	0.028878493
180	0x3e17b783	0.14816098
181	0xbe631273	-0.22175007
182	0x3e56ea58	0.20987833
183	0xbdc8e53d	-0.09809349
184	0xbe48af66	-0.19598159
185	0xbea27ead	-0.3173727
186	0x3dc23565	0.094828404
187	0x3dd2741e	0.10276054
188	0xbe4ce9ab	-0.20011012
189	0x3cb6e8b6	0.022327762
190	0x3dbb36f7	0.09141343
191	0xbe654b0f	-0.22391914
192	0x3d323b23	0.04351343
193	0xbdd645c9	-0.10462529
194	0x3cd1cea1	0.025611224
195	0xbe45df86	-0.19323549
196	0x3e0b2c87	0.13591205
197	0xbe85d0ae	-0.26135772
198	0x3dc30973	0.09523287
199	0xbd3fe2fa	-0.04684732
200	0x3b7f479a	0.003895259
201	0x3d2d9d92	0.0423866
202	0xbe61164f	-0.21981166
203	0xbdd0c295	-0.101933636
204	0xbd24e7ab	-0.04026
205	0x3d0d7698	0.034536928
206	0xbdb2c8f2	-0.087297335
207	0x3e21d895	0.15805276
208	0xbdd0ebd3	-0.1020123
209	0xbdf40fb4	-0.11917058
210	0x3dc701b5	0.097171225
211	0xbd808912	-0.06276144
212	0xbcff00f0	-0.031128377
213	0x3e1a22d4	0.15052348
214	0xbe082667	-0.132959
215	0x3dd71ebd	0.1050391
216	0x3dc414fc	0.09574315
217	0xbd3f919a	-0.046769716
218	0x3e50de7c	0.20397371
219	0x3dc8d52f	0.098062865
220	0x3db7aa39	0.08968014
221	0x3df870ee	0.12130915
222	0x3dad9514	0.084757
223	0xbb608b4a	-0.003426271
224	0x3d95f6e7	0.073224835
225	0x3deebfa4	0.11657646
226	0x3c07e22c	0.00829367
227	0x3cd6f152	0.026238117
228	0xbe2bd4fd	-0.16780467
229	0xbce8a860	-0.0284006
230	0xbca3500e	-0.019935634
231	0xbc941ef6	-0.01808117
232	0xbd924e00	-0.071437836
233	0x3d1a32c7	0.03764608
234	0xbd9b56d1	-0.07584918
235	0x3d1f9e72	0.038969465
236	0xbdd2498d	-0.10267935
237	0xbd4cf0cd	-0.050034333
238	0xbcf4a120	-0.029861987
239	0x3bc1279a	0.0058946135
240	0xbe47b1e3	-0.19501452
241	0xbe7c6fc4	-0.2465201
242	0xbd29ddfc	-0.041471466
243	0x3e3636e4	0.17794377
244	0x3d2a4fc6	0.041579984
245	0xbcd488fc	-0.025944225
246	0xbdc9bf2a	-0.09850915
247	0xbe5048a4	-0.2034021
248	0xbe42a1ad	-0.19006987
249	0x3d2750de	0.040848605
250	0xbdb7ff6a	-0.08984263
251	0xbe8c3ba4	-0.27389252
252	0x3d1b2a61	0.037882213
253	0x3d83f1dc	0.064426154
254	0xbceec766	-0.029147815
255	0x3ddc14bf	0.107461445

weight f4 [300, 400]
0	0xbe140fb4	-0.14459115
1	0xbe3dafb9	-0.18524064
2	0x3d44d99f	0.048059102
3	0x3bd384bc	0.006455032
4	0xbd62eb3d	-0.055400122
5	0x3c7f6d46	0.015590018
6	0x3d531ae7	0.051539328
7	0x3e327f35	0.17431338
8	0xbd647f38	-0.055785388
9	0x3d1245ea	0.035711206
10	0xbd90137b	-0.070349656
11	0x3f058434	0.5215485
12	0x3e0d0023	0.13769583
13	0x3de5ae1e	0.11214851
14	0xbcd71a9f	-0.026257811
15	0xbc2eee8d	-0.010676992
16	0xbec6863e	-0.38774294
17	0xbe455aed	-0.19272967
18	0xbd9e63ff	-0.077339165
19	0xbe1ff4e3	-0.1562076
20	0x3e99fe67	0.30076906
21	0xbc5533b2	-0.013012813
22	0x3df21ad2	0.11821522
23	0x3d18828c	0.037233874
24	0xbe5202a9	-0.20508827
25	0xbd70b6f4	-0.058768228
26	0xbd015ba7	-0.031581547
27	0xbf4aa6aa	-0.7916056
28	0xbe49bc2f	-0.19700693
29	0x3ca97d4a	0.020689625
30	0xbeb1b755	-0.34710184
31	0x3e3277d8	0.1742853
32	0xbe45d88b	-0.19320886
33	0xbde2e710	-0.11079228
34	0xbeee9a29	-0.4660199
35	0xbd1ea9ed	-0.038736273
36	0x3d5bc8d5	0.053658325
37	0xbab9d68b	-0.0014178319
38	0x3da97a55	0.08275286
39	0x3d0e57e7	0.0347518
40	0x3dfe7988	0.12425524
41	0x3e18b089	0.14911093
42	0xbd2db574	-0.042409375
43	0xbc10f001	-0.008846284
44	0xbed8c303	-0.42336282
45	0xbc612c54	-0.013743479
46	0xbcf41977	-0.029797299
47	0x3d170094	0.036865786
48	0xbe334c17	-0.17509495
49	0xbf84243d	-1.0323559
50	0xbcbc33bf	-0.022973893
51	0xbe1ef89f	-0.15524529
52	0x3e8c5c3f	0.27414128
53	0x3c4219da	0.011846984
54	0x3da8bc6b	0.08239063
55	0xbd9a87e6	-0.07545452
56	0xbd95cdf8	-0.07314676
57	0x3d3bc773	0.045844506
58	0x3df078e9	0.11741812
59	0x3d9512cd	0.072789766
60	0x3d0719f1	0.032983724
61	0x3b405002	0.0029344563
62	0xbe51f56f	-0.20503782
63	0xbd3d45a2	-0.046208985
64	0x3d42ed78	0.04758975
65	0xbe378ed5	-0.1792558
66	0xbd811a89	-0.06303889
67	0x3d2bf345	0.041980047
68	0xbe4e0b9d	-0.20121618
69	0x3c03f821	0.008054764
70	0xbf646238	-0.8921237
71	0x3e2e399b	0.17014162
72	0x3a9d9b89	0.0012024503
73	0x3e7e1b91	0.24815203
74	0xbc11902c	-0.008884471
75	0xbf84e3fe	-1.0382078
76	0xbd44c27f	-0.04803705
77	0xbdf07370	-0.11740768
78	0x3cad38c4	0.021145232
79	0x3e7c1ac9	0.24619593
80	0x3e376aef	0.17911886
81	0x3dd952db	0.106115066
82	0x3e3b7f98	0.18310392
83	0xbe612e24	-0.21990258
84	0xbe56a2c1	-0.20960523
85	0x3c972a30	0.018452734
86	0xbda840a6	-0.08215456
87	0xbea3a886	-0.3196451
88	0xbe542518	-0.20717275
89	0xbd51608f	-0.051117476
90	0x3dab189d	0.08354304
91	0xbefe1011	-0.49621633
92	0x3ccc2ee7	0.024924709
93	0xbd2a9c4d	-0.041652966
94	0xbc75cbfc	-0.015002247
95	0xbecf32fe	-0.4046859
96	0xbfb4fec8	-1.4140253
97	0xbe8f7654	-0.28019965
98	0xbe008de0	-0.12554121
99	0x3e362632	0.17788008
100	0x3efce7c0	0.4939556
101	0x3d6fb88f	0.05852562
102	0xbd42c437	-0.047550406
103	0x39a456f8	0.00031345314
104	0x3cabb2c2	0.020959262
105	0x3cd3af9b	0.025840571
106	0x3ec843a1	0.39114097
107	0x3d1b2306	0.037875198
108	0x3b5b5db0	0.003347259
109	0xbda8963a	-0.082317784
110	0x3e0fbe6e	0.14037487
111	0x3de1d97b	0.11027809
112	0xbe039865	-0.12851103
113	0xbdc2cd06	-0.09511761
114	0xbe9f991a	-0.31171495
115	0xbda0dd64	-0.07854727
116	0xbdd26080	-0.10272312
117	0xbdc786a2	-0.09742476
118	0xbe2e4c7e	-0.17021367
119	0x3d8691d6	0.06570785
120	0x3d28215c	0.04104744
121	0xbe444cfa	-0.19169989
122	0x3e03da4f	0.12876247
123	0x3b046a94	0.0020205127
124	0xbec1709a	-0.3778122
125	0x3e586afd	0.21134563
126	0x3dddd22e	0.10831104
127	0xbefc4505	-0.49271408
128	0x3d2bba04	0.041925445
129	0xbd988e53	-0.07449021
130	0xbc9830ca	-0.018577952
131	0xbea8ea53	-0.32991275
132	0xbd1839eb	-0.03716461
133	0xbd66be8d	-0.056334067
134	0xbc23731f	-0.0099761775
135	0x3e8ac976	0.27106827
136	0xbb7293bf	-0.0037014333
137	0x3d1997f3	0.037498426
138	0xbcff8974	-0.031193472
139	0x3d1ab192	0.037767
140	0xbef6f77c	-0.4823569
141	0x3d1a8045	0.037719984
142	0xbd06b195	-0.0328842
143	0xbf1b5734	-0.60679936
144	0x3da79f37	0.08184665
145	0xbe1d720d	-0.15375538
146	0xbdd79530	-0.10526502
147	0x3e4c3a53	0.19944124
148	0xbda06933	-0.07832565
149	0x3d760d83	0.06007148
150	0xbdf4bbc2	-0.119498745
151	0x3cc8441d	0.024446541
152	0xbfe2028c	-1.7657027
153	0x3da802b2	0.08203639
154	0xbf107943	-0.5643503
155	0x3dc5de89	0.09661586
156	0xbdc8be32	-0.09801902
157	0x3d3e8bb7	0.04651996
158	0x3dcf2e86	0.101162955
159	0x3d3ad497	0.045612898
160	0xbd60e309	-0.054904018
161	0x3cd59fac	0.026077114
162	0x3da8c2b3	0.08240261
163	0x3d805d35	0.06267778
164	0xbf0f032b	-0.5586421
165	0xbe6e0c99	-0.23246993
166	0xbeb612d7	-0.3556125
167	0xbcfcc3a2	-0.030855004
168	0xbe05ef29	-0.13079514
169	0xbcd306d7	-0.025760097
170	0xbdc883c4	-0.09790757
171	0x3e40fe51	0.18847014
172	0x3e32f76c	0.17477196
173	0xbead3f9a	-0.33837587
174	0xbf42d962	-0.7611295
175	0xbde79c71	-0.11309136
176	0x3d9bf71b	0.07615491
177	0xbb9cf91a	-0.0047904374
178	0xbb7dc88c	-0.0038724272
179	0x3dc71676	0.09721081
180	0x3c3d8f97	0.011569879
181	0xbe077d18	-0.13231313
182	0xbe84df27	-0.25951502
183	0x3eb41b5e	0.3517713
184	0x3df12302	0.11774255
185	0xbd3f3334	-0.04667969
186	0xbee3ed4f	-0.4451699
187	0xbee18fa7	-0.4405491
188	0xbeb4ec1f	-0.35336396
189	0x3d682c64	0.05668296
190	0xbd0f82ee	-0.035036974
191	0x3e2d2965	0.16910322
192	0xbee5485c	-0.44781768
193	0x3ce9c512	0.028536353
194	0xbf235571	-0.6380225
195	0x3e500c30	0.20317149
196	0xbf07f3d5	-0.53106433
197	0xbe2f6353	-0.17127733
198	0xbc9a6224	-0.018845625
199	0x3d7d5c95	0.06185587
200	0x3c447d87	0.011992819
201	0x3db83af8	0.089956224
202	0x3db6c797	0.089247875
203	0xbceaafc4	-0.028648265
204	0xbea611e7	-0.32435533
205	0xbecae481	-0.3962746
206	0xbd0a4aae	-0.033762626
207	0x3f281176	0.65651643
208	0x3f1c5808	0.61071825
209	0x3dbf197a	0.09331031
210	0xbef38954	-0.4756571
211	0xbdb1ffa1	-0.086913355
212	0xbe20ebaf	-0.15714906
213	0xbc346c4b	-0.011012147
214	0x3b2e1b9c	0.002656675
215	0x3e5c090a	0.21487823
216	0xbf115c18	-0.5678115
217	0xbdf25c21	-0.118339784
218	0xbc0947bf	-0.008378922
219	0xbe9f94c6	-0.31168193
220	0xbd96989b	-0.07353326
221	0xbd9e1ca7	-0.07720309
222	0x3ef5adaf	0.47984073
223	0x3d027e45	0.0318587
224	0xbf8e2739	-1.110572
225	0x3c9f673c	0.019458406
226	0xbffb052e	-1.9610956
227	0xbd8b35c3	-0.067973636
228	0x3de26978	0.11055273
229	0xbd88f0ed	-0.06686578
230	0xbe82d39b	-0.25552067
231	0x3f2cd142	0.675068
232	0xbd76e088	-0.060272723
233	0xbccf4109	-0.025299566
234	0xbe99f59f	-0.30070207
235	0xbe4426c4	-0.19155413
236	0xbe261038	-0.16217124
237	0x3996295b	0.00028641042
238	0xbde6675c	-0.11250183
239	0xbeae231c	-0.3401116
240	0xbed1a407	-0.40945455
241	0x3e90d340	0.2828617
242	0xbbbd1a30	-0.005770944
243	0x3c243587	0.010022528
244	0xbd6a6ea2	-0.057234414
245	0x3dab2952	0.083574906
246	0x3c0464bb	0.008080657
247	0x3bd7722f	0.006574891
248	0xbccecf6e	-0.025245395
249	0x3c80ba36	0.015713792
250	0x3e92c948	0.2866919
251	0x3d4d0475	0.05005308
252	0xbeb5c482	-0.35501486
253	0xbe9d661c	-0.30741966
254	0xbcd7f16b	-0.026360234
255	0x3dbf628a	0.09344967

bias f4 [300]
0	0x3db8bbe9	0.09020216
1	0xbd5a4bc4	-0.053294912
2	0xbcdd9518	-0.027048633
3	0x3d9d157a	0.07670112
4	0x3d777c16	0.060421072
5	0x3e02ba6a	0.12766424
6	0xbe965268	-0.29359746
7	0x3d60eef9	0.054915402
8	0x3e494373	0.19654636
9	0x3df40505	0.1191502
10	0xbd2f82cd	-0.04284935
11	0xbe41eb36	-0.18937382
12	0x3c9480cd	0.018127823
13	0x3c7429ac	0.0149025135
14	0x3e65fef2	0.22460535
15	0x3d9f5329	0.077795334
16	0x3dd74e3c	0.10512969
17	0x3dc501f8	0.09619516
18	0xbea8c8ec	-0.3296579
19	0x3d1a5527	0.037678864
20	0x3ca799a3	0.020459002
21	0x3e4dc539	0.20094766
22	0x3d8d5d15	0.069025196
23	0x3ccec4bb	0.025240293
24	0x3d4fd55e	0.050740592
25	0xbda70ce5	-0.08156756
26	0xbd4075ba	-0.046987273
27	0x3e28bfaf	0.16479371
28	0x3e1bb724	0.15206581
29	0x3bd88575	0.006607706
30	0xbe2a3178	-0.16620433
31	0x3e1fa5da	0.15590611
32	0x3e4d827a	0.20069304
33	0xbd108192	-0.035279818
34	0x3e1b5711	0.15169932
35	0x3e49de8a	0.19713798
36	0x3d3227b1	0.043494884
37	0x3d0e4334	0.03473206
38	0x3daca854	0.084305435
39	0x3e0d2bed	0.13786288
40	0x3df666e3	0.12031343
41	0x3d45b54c	0.0482686
42	0x3cf4d877	0.029888375
43	0x3e597b79	0.21238507
44	0x3e179cb4	0.14805871
45	0x3b2d4948	0.0026441384
46	0xbdd41181	-0.10354901
47	0x3e0b6591	0.13612963
48	0x3d9b619f	0.07586979
49	0x3e98ef25	0.29869953
50	0x3d645477	0.055744614
51	0x3de9a4db	0.11408397
52	0xbed706f0	-0.4199748
53	0x3e1950d5	0.14972241
54	0x3e6037a0	0.21896219
55	0x3dd98382	0.10620786
56	0x3e00d55f	0.12581395
57	0x3e0c1b9b	0.13682406
58	0x3e3541be	0.1770086
59	0x3df25ab2	0.11833705
60	0xbdd3752e	-0.103250846
61	0xbc7d5850	-0.01546295
62	0x3d78abf7	0.060710873
63	0x3e59220d	0.21204396
64	0x3d99068f	0.07471954
65	0x3dc6197c	0.096728295
66	0x3db80074	0.089844614
67	0x3e541aad	0.20713301
68	0x3ae31e88	0.0017327825
69	0x3dae757b	0.08518501
70	0x3de3f27d	0.11130235
71	0x3de47f91	0.11157144
72	0x3e55e68b	0.20888726
73	0x3e0097e3	0.1255794
74	0x3e57b342	0.21064475
75	0x3df38395	0.11890332
76	0xbd08a61c	-0.03336154
77	0xbce2272a	-0.027606566
78	0x3d9d75a8	0.07688457
79	0xbd45cf03	-0.048293125
80	0x3ccbe0b6	0.024887424
81	0x3daa467b	0.08314224
82	0x3d82f506	0.06394391
83	0xbd023ad0	-0.03179437
84	0x3dccee2a	0.10006364
85	0xbc121aa2	-0.008917483
86	0x3de726f9	0.1128673
87	0x3e250ba1	0.16117717
88	0x3e0df583	0.13863187
89	0xba89bc41	-0.0010508375
90	0xbad7b973	-0.0016458466
91	0x3e0847b9	0.1330861
92	0x3d7c1dbc	0.061551794
93	0x3dd8d587	0.10587602
94	0xbe625b1a	-0.22105065
95	0x3c87b87d	0.016567463
96	0x3e6f7ab2	0.23386648
97	0x3e24b1fb	0.16083519
98	0x395f629f	0.00021303676
99	0x3e70d277	0.23517786
100	0x3dcce571	0.100047
101	0x3dd71d5f	0.10503649
102	0x3e1a72ac	0.15082806
103	0xbd8d433f	-0.06897592
104	0x3e2d97ff	0.16952513
105	0x3dd164ae	0.10224281
106	0x3d523e3b	0.05132888
107	0x3e051b8d	0.12998791
108	0x3d252a5d	0.040323604
109	0xbe9d4a26	-0.30720633
110	0x3e2b0995	0.16702874
111	0xbd48e35b	-0.049044948
112	0x3e37c613	0.17946653
113	0xbd07a37f	-0.033114906
114	0xbd6e99f2	-0.058252282
115	0x3db39c28	0.08770019
116	0x3e2c043d	0.16798492
117	0x3e64cddb	0.22344153
118	0x3de2f4b3	0.11081829
119	0x3e8ad8f9	0.27118662
120	0x3e45f191	0.19330432
121	0x3e2fb3a6	0.17158374
122	0x3d37e002	0.044891365
123	0x3cca3773	0.024684643
124	0x3dd706a6	0.10499315
125	0xbe1b358a	-0.15157142
126	0x3e434db9	0.19072618
127	0x3a112a74	0.0005537637
128	0x3d4ded83	0.050275337
129	0x3e5ca766	0.21548232
130	0x3e129795	0.14315636
131	0x3e77852c	0.24171895
132	0x3e12924a	0.14313617
133	0x3e1dc4ca	0.154071
134	0x3c88bfdf	0.016693054
135	0xbca5e2ee	-0.02024981
136	0x3d2c45b2	0.042058654
137	0xbd0d7ca7	-0.034542706
138	0x3d8c80f4	0.06860533
139	0xbd0fbcfa	-0.03509233
140	0x3e8279e7	0.2548363
141	0xbd575da9	-0.052579556
142	0xbc85975c	-0.016307525
143	0x3dadab9d	0.08479998
144	0xbd12a54e	-0.035802178
145	0x3d8b1701	0.06791497
146	0xbba3d5ef	-0.004999868
147	0x3d8f61d5	0.07001082
148	0x3e8e8819	0.2783821
149	0xbd78b69d	-0.06072103
150	0xbd3cd583	-0.04610206
151	0x3d1aae3b	0.037763815
152	0x3dcddc54	0.1005179
153	0x3e61ca42	0.22049811
154	0x3e3ca8fd	0.18423839
155	0xbd6f6398	-0.05844459
156	0x3da79def	0.0818442
157	0x3d296fb1	0.041366283
158	0x3ce7bd2a	0.028288443
159	0x3d9b8510	0.07593739
160	0xbd32a55a	-0.043614723
161	0xbd0f1dd0	-0.03494054
162	0x3e1c3b09	0.15256895
163	0x3e69dab5	0.22837336
164	0x3add93a0	0.0016904958
165	0xbdb1e6fb	-0.08686634
166	0x3dfb662a	0.122753456
167	0x3e5a1f32	0.21300963
168	0x3c443c89	0.011977323
169	0xbc978e75	-0.018500546
170	0x3e658ef7	0.22417818
171	0xbb826718	-0.003979575
172	0xbdad7918	-0.084703624
173	0x3c922623	0.01784045
174	0x3e8b82bd	0.27248183
175	0x3e49a0e4	0.19690281
176	0xbdd8bce5	-0.10582904
177	0x3e39783d	0.18112274
178	0xbd0af4de	-0.03392493
179	0x3e114ef8	0.1419028
180	0xbcb141a8	-0.021637753
181	0xbec90fd0	-0.39269876
182	0x3e4f9e0d	0.20275135
183	0x3e1177e6	0.14205894
184	0x3e853b0d	0.26021615
185	0x3e2a0726	0.1660429
186	0x3e307613	0.17232542
187	0xbd3545b5	-0.04425593
188	0x3cbd148e	0.02308109
189	0x3de5c953	0.1122004
190	0x3bd08c40	0.0063643754
191	0x3dd24260	0.10266566
192	0x3df40500	0.11915016
193	0x3d32ac5c	0.043621406
194	0x3dba5772	0.0909871
195	0x3d9aae7d	0.07552812
196	0xbca0cc49	-0.01962866
197	0x3e07b450	0.13252378
198	0x3e36b86c	0.17843789
199	0x3e544ad2	0.20731667
200	0x3e4a4c62	0.197557
201	0x3e659bc6	0.22422704
202	0xbd7d3372	-0.06181664
203	0x3e224b1c	0.15848964
204	0xbe2b5b8a	-0.16734138
205	0x3d9179ed	0.071033336
206	0x3d5feaba	0.054667212
207	0x3da393fb	0.079872094
208	0x3e15f609	0.14644636
209	0x3e124138	0.14282691
210	0x3e2a5b0f	0.16636299
211	0xbd3d694a	-0.04624299
212	0x3bec4e0b	0.007211452
213	0xbde57d69	-0.11205561
214	0x3e37740f	0.17915367
215	0x3e3687f0	0.17825294
216	0x3e61564b	0.22005574
217	0x3e23c8cc	0.15994567
218	0x3b2e141a	0.0026562274
219	0x3d2e53ab	0.04256026
220	0x3b51afc8	0.0031995643
221	0x3e5fc36a	0.21851888
222	0x3e32f673	0.17476825
223	0x3d9e75f6	0.07737343
224	0x3e227c97	0.1586784
225	0x3e26a60d	0.16274281
226	0x3dcc541e	0.099769816
227	0x3e47a3cb	0.19496076
228	0xbd7941f5	-0.060853917
229	0xbc1c56c5	-0.009542172
230	0x3da19c16	0.07891099
231	0xbde2dcc5	-0.11077265
232	0x3dcc4ed9	0.099759765
233	0x3dd094d3	0.10184636
234	0x3c814f9d	0.015785033
235	0x3d6f6b8f	0.058452185
236	0xbcb99d10	-0.022657901
237	0x3e23ac40	0.15983677
238	0x3d7dcb3a	0.06196139
239	0x3e7c3487	0.24629413
240	0xbd3da164	-0.046296492
241	0x3db4ba10	0.08824551
242	0xbb92683f	-0.0044679935
243	0x3d541a0f	0.051782664
244	0x3d19dcfd	0.037564266
245	0xbc898355	-0.016786257
246	0x3d480062	0.04882849
247	0xbc103f0a	-0.008804092
248	0x3cbbf5ae	0.022944298
249	0x3e8c19c9	0.27363423
250	0x3e0b9f46	0.13634977
251	0x3c07878b	0.008272062
252	0x3e19df32	0.15026549
253	0xbe8164cc	-0.25272214
254	0x3de4a939	0.11165089
255	0x3defc93f	0.117083065

weight f4 [1, 300]
0	0xbee8524d	-0.4537529
1	0x3bac9d26	0.005267757
2	0xbb38f4eb	-0.0028222154
3	0xbefa9433	-0.48941192
4	0xc0897aa0	-4.296219
5	0xbffc5a03	-1.9714969
6	0xbed576a1	-0.4169207
7	0xbf4189a2	-0.75600636
8	0xbfce79dc	-1.6130939
9	0xc0174b07	-2.3639543
10	0x3ace84a2	0.001575608
11	0xbf1c1e19	-0.60983425
12	0xbecd83dc	-0.40139663
13	0xbe90de5e	-0.28294653
14	0x3e176201	0.1478348
15	0xc019900a	-2.3994164
16	0x3dd84641	0.10560275
17	0xbf12daa2	-0.5736486
18	0xbf0e8a00	-0.5567932
19	0xbf2d91f4	-0.6780083
20	0xbae16a2c	-0.0017197779
21	0x3da51abd	0.080617405
22	0xbf96a116	-1.176791
23	0xbbfe0290	-0.0077517703
24	0x3e71157c	0.23543352
25	0xbf2b7a90	-0.6698389
26	0x3b003310	0.0019561686
27	0x3dab2ac3	0.083577655
28	0xbfd838d1	-1.6892339
29	0xbfd62b11	-1.6731893
30	0x3dfc3374	0.123145014
31	0x3e49fe41	0.19725896
32	0xbfa81016	-1.3129909
33	0xbbb0d2ed	-0.005396238
34	0xbfbbf74d	-1.4684845
35	0xbfce2895	-1.6106135
36	0xc087ccd6	-4.2437544
37	0x3f002b56	0.50066125
38	0xc00ecaa5	-2.2311184
39	0x3dc09e8b	0.0940524
40	0x3e31cf8d	0.1736433
41	0xbed1a01e	-0.40942472
42	0xbfa4f9db	-1.288875
43	0x3e4bae1a	0.19890633
44	0xbfc7f777	-1.5622395
45	0xbdc2f4a1	-0.095193155
46	0x400cb291	2.1983988
47	0xbff4760d	-1.9098526
48	0xc01f4109	-2.4883444
49	0x3eb1bd9f	0.34714982
50	0x3ee6f57e	0.4510917
51	0xbeefa8e9	-0.46808556
52	0xbec118b3	-0.37714157
53	0xbee337b6	-0.44378442
54	0x3e99a5e9	0.30009392
55	0xc0783184	-3.8780222
56	0xbf02e129	-0.5112482
57	0xbf54b772	-0.83092415
58	0xbfd31d73	-1.6493362
59	0xbf4e73ef	-0.8064565
60	0xbf73e88e	-0.95276725
61	0x3aaa1642	0.0012976604
62	0xbf098bdd	-0.5372904
63	0xbf98d344	-1.1939473
64	0xc0284d5f	-2.6297224
65	0x3f0d1cee	0.5512227
66	0xbfe8a0f2	-1.8174117
67	0x3ec12739	0.37725237
68	0x3b015315	0.0019733359
69	0xbfe25932	-1.768347
70	0xbffd80af	-1.9804896
71	0xbee1c724	-0.44097245
72	0xbfe65498	-1.7994566
73	0x3e5172f5	0.20454009
74	0x3dbc445b	0.09192725
75	0xc024ba13	-2.573857
76	0x38ea9d4a	0.00011187287
77	0x3e7c6039	0.24646081
78	0xbdbded61	-0.09273792
79	0x394efdb2	0.000197402
80	0xbc428813	-0.011873263
81	0xc032d22a	-2.7940774
82	0xbfc769b2	-1.5579131
83	0x40810b0b	4.032598
84	0xc025125f	-2.5792463
85	0x3a989c88	0.001164333
86	0x3e3a1bdf	0.18174694
87	0xbfce3b27	-1.6111802
88	0x3e74caaa	0.23905435
89	0xbb190b3f	-0.002335265
90	0x39a3d21f	0.00031246335
91	0xbeb189dd	-0.34675494
92	0xbff0f2a4	-1.8824048
93	0xc0163441	-2.3469393
94	0xc01bd135	-2.434644
95	0x3aa883ba	0.001285664
96	0x3ed550f5	0.41663328
97	0x3ea80e1a	0.3282326
98	0x3b267c63	0.002540373
99	0x3db15449	0.08658654
100	0x3e6dc726	0.232205
101	0xbfa3bae6	-1.2791412
102	0xbed1941a	-0.40933305
103	0x3eaaf79d	0.3339204
104	0xbfb28bee	-1.3948953
105	0xbfb66e81	-1.4252473
106	0xc02fb9d4	-2.745717
107	0xbf5de561	-0.8667813
108	0xbf2f2e55	-0.6843007
109	0x3f57eb92	0.84343827
110	0x3dc271e0	0.09494376
111	0xbfb99567	-1.4498719
112	0x3e6c7090	0.23089814
113	0xb8a65232	-7.930807e-05
114	0x39a7e095	0.0003202005
115	0xbfca3524	-1.5797467
116	0xbfd14d97	-1.6351804
117	0x3dc9c04c	0.09851131
118	0xbfed1fc5	-1.852532
119	0x3e920423	0.2851878
120	0xbf486a27	-0.78286976
121	0x3eb00292	0.3437696
122	0x3f43a68e	0.7642602
123	0x3f1e6163	0.6186735
124	0xbffb68b2	-1.9641325
125	0xbfbd66e6	-1.4797027
126	0xbfea0f2e	-1.8285882
127	0x3b0099b8	0.0019622874
128	0xbf9f0cf7	-1.2425832
129	0x3e8bce06	0.2730562
130	0xbfc0b8b3	-1.5056366
131	0x3dfdeeb5	0.123990454
132	0xbec3cfb9	-0.38244417
133	0xbf88d6b7	-1.0690526
134	0x382510d0	3.9354723e-05
135	0x3bb794fe	0.005602478
136	0xbefbe290	-0.4919629
137	0x3ba8adf8	0.005147692
138	0xbff123c8	-1.8839045
139	0xbfa1c51a	-1.2638276
140	0x3e0145cd	0.12624283
141	0x3f46a706	0.7759861
142	0xb9e8c934	-0.00044400396
143	0xc0075762	-2.1147084
144	0xbb6e61b9	-0.0036374165
145	0xc0226b35	-2.5377934
146	0x3b8d717b	0.0043165064
147	0xc018f404	-2.3898935
148	0x3e0c2f7c	0.13689989
149	0xbff0d0aa	-1.8813679
150	0xbb40ff5c	-0.002944908
151	0xbe174ec1	-0.14776136
152	0xbf85675c	-1.0422168
153	0x3ec7f72c	0.39055765
154	0xbfe2a785	-1.7707373
155	0xbb3dde25	-0.002897152
156	0xbdde795b	-0.108629905
157	0xc02e5e2c	-2.7244978
158	0xbec94e8f	-0.39317748
159	0xbed6cc87	-0.41952917
160	0x3b68e5e8	0.0035537425
161	0x3fbfedc8	1.499444
162	0x3ea2b995	0.31782213
163	0x3e7996c8	0.24373925
164	0xba8b3216	-0.0010619785
165	0x3fcc907b	1.5981592
166	0xbf805a5b	-1.0027574
167	0x3ea10b1f	0.31453797
168	0xbf161d90	-0.5863886
169	0x3b3efff3	0.0029144257
170	0x3f2e82e3	0.6816847
171	0xbe11b4f5	-0.14229186
172	0xbefec1dd	-0.4975728
173	0xba9c22c0	-0.0011912212
174	0x3e970f6b	0.2950395
175	0xbfca4b6e	-1.5804269
176	0xbf7e0bd6	-0.9923681
177	0x3e2c42c3	0.16822343
178	0xba4b397b	-0.00077524007
179	0xbf902cf1	-1.1263715
180	0xc003c682	-2.058991
181	0xbea5d992	-0.32392555
182	0x3d9fe282	0.07806875
183	0xbff22093	-1.8916191
184	0xbe68c01e	-0.22729537
185	0xbee590ee	-0.44837135
186	0x3dcce499	0.10004539
187	0x36437aae	2.9128673e-06
188	0xbb19dd94	-0.0023478018
189	0xbfda11c4	-1.7036672
190	0xba0facea	-0.00054807833
191	0xbea56c72	-0.323093
192	0xc036bc85	-2.8552563
193	0xc032f5f8	-2.7962627
194	0xbe31cbf8	-0.17362964
195	0xc0064e6a	-2.098536
196	0xba93eb50	-0.0011285339
197	0xbf6a357e	-0.9148787
198	0xbfe08b20	-1.7542458
199	0x3eadf00f	0.33972213
200	0xbff921ab	-1.94634
201	0x3ddb6470	0.10712516
202	0xbb4ab460	-0.0030930266
203	0x3e734bc4	0.23759371
204	0xbe3d8911	-0.18509318
205	0x3d994ed0	0.074857354
206	0xbefbe7a6	-0.4920017
207	0x3e68b017	0.22723423
208	0x3e545b6f	0.20738004
209	0xbfb7d213	-1.4360985
210	0xbfd52650	-1.6652317
211	0x39d6cbd4	0.00040969125
212	0xbb567e28	-0.0032729004
213	0x3f8a3649	1.0797817
214	0x3ebb0a4d	0.36531296
215	0x3df4932b	0.119421326
216	0xbf84b4b0	-1.0367641
217	0x3ef38a9a	0.47566682
218	0xbeae9421	-0.34097388
219	0xc0286707	-2.6312883
220	0xba6f4c3d	-0.0009128487
221	0x3dc8b0be	0.09799336
222	0xbfc9d773	-1.5768875
223	0x3e84cdb1	0.2593818
224	0xbf71c75b	-0.9444482
225	0x3e20d058	0.15704477
226	0x3f1c6be4	0.6110213
227	0xbef8bb58	-0.48580432
228	0xbee38f8d	-0.44445458
229	0x3e4ad3a6	0.198073
230	0xbea1c9c6	-0.31599253
231	0xbf2630b1	-0.6491805
232	0xc00c665f	-2.1937482
233	0xbea5b296	-0.32362813
234	0x3e4cfa26	0.20017299
235	0xbec9d759	-0.3942211
236	0xbeda4131	-0.42627862
237	0xbfc3b1e8	-1.5288668
238	0xbf91f31b	-1.1402315
239	0x3ddd86ee	0.108167514
240	0x39475c24	0.00019012444
241	0xbff7a359	-1.9346725
242	0x3b0f2a0c	0.002184513
243	0xc025c4b8	-2.5901318
244	0xbe28e9e8	-0.16495478
245	0x3f3a7e4e	0.72848976
246	0xbec7a940	-0.38996315
247	0xbfc3e62f	-1.5304621
248	0xbfec944b	-1.8482755
249	0x3e978292	0.29591805
250	0xbe274d50	-0.16338086
251	0xbf43f477	-0.765449
252	0xbe2b3d00	-0.16722488
253	0xbeaa78da	-0.33295327
254	0xbec88e8a	-0.3917125
255	0xbf4f45d5	-0.8096593
