pretrained_models/ddpg_fast1_extended/policy.pt (torch_old, 527487 bytes, 5 tensors)

weight f4 [400, 21]
00000000: 2b15 22be 7c09 3f3d 78d0 42bf b846 22be
00000010: ea82 cebe 68f8 cebd 8187 0abf 015b 10bd
00000020: 6b12 f23d 25a6 7d3e c7c5 2dbe ce9e 18be
00000030: 8215 0b3f 4850 643e a476 8cbe 4aa0 1a3d
00000040: 3277 a93d 7108 d23e c885 923e 0013 38bf
00000050: d575 86be e3bb b2bc 8ff5 5b3d 2334 1fbf
00000060: 8931 163d 6d28 e13e 7e09 f73d f795 08bf
00000070: 48d3 153e 97c3 313e 1820 debc 31a6 613e
00000080: d536 673d 8fa4 6e3e 0273 103e 8de2 ba3c
00000090: d4b9 413e d9ec acbd cbb9 273f 4da9 47bf
000000a0: 1067 933f ed19 31bf d327 153f ed15 a43e
000000b0: 4c90 183f ac70 553e a4b6 a23e 548e 463d
000000c0: 2220 8fbd 52a4 d0bd e670 113f 0757 123d
000000d0: c9a4 323e 8401 22bd 301b 78be 8cf7 ed3d
000000e0: 18a6 423e 3c6c 343e 7cc2 aebd 1684 973d
000000f0: 5b6b cd3f 4992 4ebf bb8d 083e afbb e8be
00000100: a437 f13d 677d c33f 224f fabc 8eea 83bf
00000110: fc32 0a3e b5ba d93e aba5 043e 4cdc 0f3f
00000120: 176f 19be f69b 173f 1628 b7bc cbbf cfbd
00000130: 89b9 4f3d c0bb 4c3e ec91 3ebe cde0 dd3c
00000140: 69b2 9bbe 14ef 7e3d 5a9a fa3c b626 6cbe
00000150: 6e63 26be 930d 80be 8255 3a3c 1eea e13d
00000160: 4410 d9be 3af8 15bf e6f4 aebe c0e0 7dbd
00000170: e9ec 0d3f 583a 1dbe 69a9 2d3e 4cc7 343b
00000180: 4b3c cbbd 0bbe cfbe 3504 0ebe 1378 483d
00000190: d2cd 91bc 8823 693f 5505 93be 5925 b7bd
000001a0: 8603 a5be 537f 02bf c15a 083f 3236 e6bd
000001b0: 757f ab3c fb40 18bf 42c6 bb3e d4db a13d
000001c0: 442d e93d af2d f8be 8cb6 d43d 85cc efbe
000001d0: 60c8 9d3c 781b e0be 6c2f be3d 4bdb 66bd
000001e0: fac7 09be 49a7 023e 2a6a 273f 31c3 3dbf
000001f0: fdd0 fc3e d6b2 adbe c0e9 503e b9fe debc
00000200: 1eca c6bd c60d 1fbe 9817 82bc 4d62 c7bc
00000210: 98bf 43be 217c 82bd 310e bebe 106d b3bd
00000220: 4519 0ebe 7005 ccbd 789d 153e 7d0c 82be
00000230: 638a 6abe ee61 56bd e3cb f03d fbbd 35bf
00000240: 93fa 4e3e a1b3 e5be 4bf5 41be 086c 23be
00000250: 6a2b dabe ee74 1ebe e7fd 243e 037f 593f
00000260: 01bc 74be fd56 573d 3587 c23c 791c c43d
00000270: 1b32 62bd eabe bb3e 9a7d d5bd 97b0 4e3e
00000280: 3b78 47be 340f f5bd 746d 973d 9dad f83d
00000290: 2894 1f3f 79fa cabe adbc 4a3f 1936 2d3e
000002a0: 2e7b e8bc fb9c 77be 2ace 1cbf 2eac 02b9
000002b0: 9d62 18bf 2ee3 ff3d 9858 00be a91c 513e
000002c0: 42eb 633e cbc3 333e 4859 203e 2910 233d
000002d0: 42ce 793e 4dd1 c1bd 4399 e53d 2e1c 82be
000002e0: 9b56 e8bb bebc 81be 9760 69be cf2c ee3d
000002f0: 4aee 0fbd 8ad0 2d3f fd7a 2f3e e3d3 1b40
00000300: 3159 0a3d 90e3 b63e 74f8 bc3d 3880 f13c
00000310: 5394 dabd e0ec cf3d 43f0 94be 2907 833e
00000320: 68c9 febd 6d4b 09bc 7aec 20be 28ee eebd
00000330: d6d2 4b3e 889e 4ebe dbd0 89bd 63fc 8c3d
00000340: 67be 84bd 1e7b c73b 8405 dabc 6a56 e43e
00000350: 787a 273e e5de 9cbe 0d10 923d d35e e93e
00000360: aacb 473e 6b44 94be cf56 9cbd 1b98 7f3d
00000370: 41c3 c43c 6ef1 5dbe feb8 f7bd 0c0e e23d
00000380: e449 953e 7f3c 88be 4172 08bf 9300 80be
00000390: 5c90 87be d62a 47be 6406 bf3c bafa 92be
000003a0: 5f72 d9bd 0c9e 29bf 1be7 b83d 5586 ddbe
000003b0: 5c80 f33d 9779 69be bf99 c83b 8cb2 5c3c
000003c0: fbd5 cebd 3150 9fbc 2f65 49be 9e02 b13c
000003d0: d438 54be 7a70 e33d 0972 cd3b 73f2 a0bd
000003e0: 3898 b33e 5c41 b73e 4273 b2be 4448 b2be
000003f0: 78e5 003f 825e 33bd 88f1 d4bf f4d7 44be
-0.15828387 0.046639904 -0.7609935 -0.1584729 -0.40334255 -0.101059735 -0.5411301 -0.035243038
0.11819919 0.2477041 -0.16969977 -0.14904329 0.54329693 0.2229625 -0.27434266 0.03775052
0.08274688 0.41022065 0.28617692 -0.7190399 -0.26261774 -0.021818107 0.05370098 -0.6218893
0.036668334 0.43976155 0.12062357 -0.5335383 0.14631379 0.17359768 -0.027114913 0.22036053
0.056448776 0.23304962 0.14106372 0.022813106 0.18918544 -0.084436126 0.6551787 -0.7799271
1.1515827 -0.69180185 0.5826389 0.32047978 0.5959518 0.20843762 0.3177997 0.04847558
-0.06988551 -0.101875916 0.56812894 0.035727527 0.17445673 -0.039552227 -0.24229121 0.116194814
0.19008672 0.17619413 -0.08533189 0.0739824 1.6048387 -0.80691963 0.13335316 -0.4545569
0.11778191 1.5272645 -0.030555312 -1.0305955 0.13496011 0.4252526 0.12953822 0.5619552
-0.14983784 0.5922235 -0.022357982 -0.101440035 0.05071405 0.19993496 -0.18610352 0.027084732
-0.30409554 0.06223972 0.030591179 -0.23061642 -0.16248867 -0.25010356 0.011372926 0.110309824
-0.42395222 -0.5858189 -0.34171218 -0.061981916 0.5543962 -0.15354288 0.16959156 0.002758461
-0.09923609 -0.4057468 -0.13868792 0.048942637 -0.017798338 0.9106984 -0.28715006 -0.089426704
-0.3222925 -0.5097553 0.5326348 -0.11240806 0.0209348 -0.5947415 0.36674696 0.07903257
0.11385587 -0.48472354 0.103863806 -0.46835724 0.019260585 -0.43770957 0.09286389 -0.056361478
-0.13455191 0.12759127 0.6539637 -0.74125963 0.49378195 -0.33925503 0.20401669 -0.02722107
-0.097065195 -0.15532598 -0.015880391 -0.024338866 -0.19116056 -0.06371332 -0.37120202 -0.087610364
-0.13876827 -0.099619746 0.14610851 -0.25400153 -0.22904353 -0.052339487 0.11757638 -0.7099301
0.20212774 -0.44863608 -0.18941228 -0.1595918 -0.42611247 -0.15474293 0.16112481 0.8495943
-0.23899843 0.052573193 0.023746112 0.09575743 -0.055223566 0.36669093 -0.10424347 0.20184551
-0.19479458 -0.119657904 0.073939234 0.12142489 0.62335443 -0.3964422 0.79194146 0.16915168
-0.02837905 -0.24180977 -0.6125208 -0.00012461908 -0.5952547 0.12494503 -0.12533796 0.20421089
0.22257712 0.17555158 0.15659058 0.039810333 0.24395087 -0.09463749 0.11210873 -0.25412124
-0.0070904023 -0.2533931 -0.22790752 0.1162964 -0.03513936 0.6789633 0.1713676 2.4348075
0.033776466 0.3572049 0.09227076 0.029480085 -0.10672822 0.10152602 -0.29089555 0.255914
-0.12440759 -0.008379799 -0.15715209 -0.116665184 0.19904646 -0.20177662 -0.06729289 0.068840764
-0.06481629 0.0060876748 -0.026613958 0.4459718 0.16355312 -0.30638805 0.07131968 0.45580158
0.19511285 -0.2895845 -0.07633745 0.06240092 0.024018886 -0.2167413 -0.12095831 0.110378355
0.29157937 -0.26608655 -0.5329934 -0.25000438 -0.26477325 -0.19449934 0.023318477 -0.28706914
-0.10617518 -0.66256785 0.09028455 -0.4326655 0.11889717 -0.22800289 0.0061218436 0.013470303
-0.10099407 -0.019447418 -0.19667505 0.021607693 -0.20724803 0.111054376 0.0062696976 -0.078587435
0.3507707 0.35792053 -0.3485356 -0.3482076 0.5035014 -0.0437913 -1.663621 -0.19223005

bias f4 [400]
00000000: 7d85 eb3d af61 22bd 9fec c8bd a95b 5b3d
00000010: cff9 42be 2a05 943d 8aa2 003e f604 ccbd
00000020: e066 16bd 9862 3bbc 1d2a b9bc e6c6 dcbb
00000030: 8bba ba3d d9b4 1bbe b3e2 a83d 3aa1 37be
00000040: 967c 3ebe f325 5d3e 7edf 40be 45f6 29be
00000050: fb8b 21bd 0215 d3bd 402c 703c 40e3 19bd
00000060: 9767 173e c937 4d3e f734 043e 83dd 05be
00000070: 8802 acbd c3f4 903d 3194 223e 16ee 2fbe
00000080: c38f 0ebe 2983 66bd 4092 d5bd 3ad0 633c
00000090: 1095 9cbd a5de 36be c4cc d63d 3bdf 893d
000000a0: 0725 bb3d c3f0 39be 79fa 18bc 5ac2 35bd
000000b0: 5fb8 c43c addf 9ebe 376a fa3d 5e6a f83d
000000c0: 513f 12be 4d51 753d f140 4abe 8279 1abd
000000d0: 22a1 963d eb87 bfbd 398a 7e3d 1a37 2fbe
000000e0: 8ff2 923d 2c9d e33d de6e 063e caf1 a4bd
000000f0: 631e 0dbe 1a78 333e 44c4 2fbe fee2 cc3d
00000100: 3dc5 c7bd ba8e 80be 6588 073d 2db3 a1bc
00000110: 4e0a 7dbd 9a7b af3b 4b6f 90bd 467d 293c
00000120: 89e8 27be cadd 24be c73d 94be 172c 903d
00000130: 00f5 a8bd 127f 223d de04 74bd ed25 9abe
00000140: 5e89 ebbd f8a9 35ba 67be d43d ba55 d3bd
00000150: ac99 73bc 381c f33c 1dcc f6bc 9c72 9f3d
00000160: 6b79 31bc 1cfe f23d 2e8a 3ebe d5ee 15be
00000170: f2ca a5bd 7f52 74be 4120 95be e40e 353e
00000180: b064 31bd 488e b13b 3538 193e 781c e33d
00000190: fad4 4abe 3c6d 32be a492 52be 45ab 84bd
000001a0: c45e 0b3e d1a7 fb3d 5d3d b43d 54c5 18be
000001b0: 5b20 e5bb 4a04 9b3d 3094 19bc bac1 29be
000001c0: 7a0e 01be 769f 94bc 943f 7f3d 9e84 45bd
000001d0: 04d3 013e ba17 adbd e505 1bbe 621f 913d
000001e0: 217e 91bd 61e7 cdbd e191 dd3b bdf0 d6bc
000001f0: 9fff 84be b979 42be 3dd2 f1bd 6a25 a93d
00000200: 1759 06be 3142 8ebe e65e 033e c8d5 87bc
00000210: 1388 f23d 75f4 d5bd 7cff 43be b6e8 593e
00000220: 3abe 37be 4a45 80be bf00 07be b283 fa3d
00000230: 6643 703c 0c5c e3bc 345f 573e 2469 1b3e
00000240: cf8f 693d 7de5 8d3c 8f0d ddbd bdd0 afbd
00000250: 5e11 2fbe 9bec d03d fb5e 98be 320a 88be
00000260: ffb5 0dbe 2767 983c 5083 6e3e ebfa 913b
00000270: c24e 093e 15f4 123d 2d44 1e3d 5f6f f5bc
00000280: c8bd 57be ee2d 613e d24e 2cbe 55f3 1ebe
00000290: 6994 46be 98de f4bc 649e a93d 459d 40be
000002a0: b379 9e3c 0f06 1f3e e6a3 5dbe 5b58 4abe
000002b0: c389 e9be 907d 253d 9713 2dbd da46 233d
000002c0: f79b 8a3d 8075 1f3e 48ae 593e 0d63 cabd
000002d0: 98e5 153e 7c8f 9dbd 58ce f7bc 45b4 9cbc
000002e0: 24f9 3fbd 6bf3 1abe d84b 0ebe 4f40 37be
000002f0: 64ea fe3d 68ae 0c3d 12fc 523c 3df3 21be
00000300: c6c9 fc3d 2abd 25be a44e ecbd 663f b5bd
00000310: 840a fa3d 041e 55be 4d80 36bc 837e 42be
00000320: 8f32 2dbd cb5e 0cbe a25e 32be 4c96 62bc
00000330: 0eb7 11be b98e e0bd 332f 373d af3a 353d
00000340: cf4e 0ebe e96d c63d 1687 263c 561c c7bd
00000350: d325 1cbe 5eb3 a0bd 4f12 013d b4e4 a93d
00000360: bb21 0c3e 531a 08be ad9b 553e 308a 2ebe
00000370: 3c84 09bd fa4c 21be c83c 283e a0fc 83be
00000380: 9930 4cbe 2321 033e 0529 f83b 7129 6b3d
00000390: 77e6 e0bd 3a9e 5e3d fddd b53d 17ef 58be
000003a0: b85e 5e39 d04e 02be 2da2 39be aa7b b33d
000003b0: 3d44 90be d949 5ebe 5c5a 64bd d489 5abd
000003c0: 6969 7d3d 8aef 62bd 86f8 a43d ecd2 16bd
000003d0: 12c1 883d f92e 8fbd a248 dcbd 5441 a9bd
000003e0: 8916 42be ac96 c9bb f37a d63d f086 2fbe
000003f0: ae38 8cbd a60c 41be 2185 0e3e 34e0 bbbd
0.1150007 -0.03964394 -0.09810757 0.05355421 -0.19040607 0.072275475 0.12562004 -0.09961884
-0.036719203 -0.011437081 -0.022603089 -0.0067375777 0.091176115 -0.15205707 0.082463644 -0.17932597
-0.18602213 0.21596508 -0.18835256 -0.1659785 -0.039440136 -0.10306741 0.0146589875 -0.037570238
0.1478561 0.20040812 0.1291083 -0.13072781 -0.0839892 0.070779346 0.15876843 -0.17180666
-0.13922028 -0.056277428 -0.104282856 0.013904626 -0.07645619 -0.1785837 0.10488275 0.06732031
0.09137922 -0.1815825 -0.009337061 -0.0443748 0.024013696 -0.31030026 0.1222729 0.12129663
-0.14281966 0.059891988 -0.19751336 -0.037713535 0.073549524 -0.09352096 0.06214354 -0.17110863
0.07175171 0.111139625 0.1312823 -0.0805393 -0.13781123 0.17526284 -0.17164713 0.10004233
-0.09754417 -0.25108892 0.03308906 -0.019738758 -0.061777405 0.0053553106 -0.070524774 0.010344809
-0.16397299 -0.16100231 -0.28953382 0.070396595 -0.08249855 0.039671965 -0.059574954 -0.3010706
-0.1150081 -0.00069299294 0.10387879 -0.103190854 -0.014868181 0.029676542 -0.030126626 0.07785532
-0.010832171 0.11864874 -0.18607399 -0.14641888 -0.08095349 -0.23859595 -0.2912617 0.17681462
-0.043308914 0.0054185726 0.14962848 0.11089414 -0.19807807 -0.17424482 -0.20563751 -0.064779796
0.13610369 0.12287868 0.088007666 -0.14919025 -0.0069923825 0.075691774 -0.00937371 -0.16577807
-0.12603179 -0.018142443 0.062316492 -0.048222177 0.12678152 -0.08451791 -0.15138967 0.07086064
-0.07104135 -0.10053898 0.006761775 -0.02623784 -0.25976273 -0.18991746 -0.11807678 0.08259089
-0.13119923 -0.27784875 0.1282917 -0.016581431 0.1184236 -0.10447017 -0.19140428 0.21280178
-0.1794366 -0.25052863 -0.13183878 0.1223215 0.014664507 -0.027753852 0.21032411 0.15176827
0.057021912 0.017321343 -0.10793602 -0.085847355 -0.17096469 0.10201379 -0.29759964 -0.26570278
-0.13838957 0.018603874 0.23292279 0.0044549606 0.1340895 0.035877306 0.038639236 -0.029960332
-0.2106849 0.21990177 -0.16826943 -0.15522511 -0.19392551 -0.029891297 0.08282164 -0.18809994
0.01934514 0.15529655 -0.21644554 -0.19760267 -0.45612916 0.04040295 -0.04225501 0.03986249
0.06768029 0.15572166 0.2125789 -0.09882174 0.14638364 -0.07693383 -0.03024976 -0.019128928
-0.04686846 -0.15131919 -0.1389612 -0.17895626 0.1244705 0.034346014 0.012877481 -0.15815444
0.12343173 -0.16185442 -0.11538437 -0.08849983 0.12209037 -0.20812231 -0.011138988 -0.18993573
-0.042284545 -0.13708036 -0.17418912 -0.013829779 -0.14229986 -0.10964722 0.044722747 0.04424542
-0.1389725 0.096889324 0.010164043 -0.097222015 -0.15248804 -0.078467116 0.0315116 0.08295575
0.13684742 -0.13291292 0.20860167 -0.17044902 -0.033573374 -0.1575202 0.16429436 -0.25778675
-0.19940414 0.1280561 0.0075732493 0.05741257 -0.10981458 0.054350115 0.088802315 -0.21184956
0.00021206855 -0.12725377 -0.18128271 0.087638214 -0.28177062 -0.21707858 -0.055750236 -0.0533541
0.061868105 -0.055404224 0.080552146 -0.036822245 0.0667745 -0.06991381 -0.10756041 -0.082644135
-0.18953909 -0.0061519947 0.104726695 -0.17141318 -0.06846748 -0.18852481 0.13917972 -0.09173623

weight f4 [300, 400]
00000000: da0f dbbc 1baf 48bd 2768 5cbd cf61 ab3c
00000010: b3d5 c03c d082 5e3c ab31 8abd fd69 8cbd
00000020: 080d 79bd 5c6c ccbc 3fa3 1dbd 97d3 183d
00000030: 1337 013d 9ef0 aa3c 8b73 843c 141f 8d3c
00000040: 1f13 04bc 0d75 533c 944a 92ba 4eed a23c
00000050: b33e 83bd 6b07 07bc c4b4 ddbb f541 c23c
00000060: b7f8 083c 2bbc ae3c e537 53bd 893d ebbc
00000070: 7ba9 fb3b b69a d83c 893a 74bd ec0e dabc
00000080: f254 a03c b3b9 d8bc 56bc 26bd 0924 48bd
00000090: 6682 3dbb e169 41b9 bbbe 14bd 9bc2 44bd
000000a0: 860f ebbc 178b 47bd 5693 bfbb f940 363d
000000b0: 2467 153d e31a 193d 2abe e43c c415 84bc
000000c0: 555e 9fbc 9d40 aa3c cdf7 c8bb b790 c23b
000000d0: 21b0 ed3c ab88 c43c 685f 35bd e884 80bc
000000e0: 6903 803c 58e8 30bd 378d a7bc a8af 8fbc
000000f0: 6c8b 83bd 1075 a13b 28f0 1ebd 3307 5cbd
00000100: 966a 73bc 8cb3 0e3d 7be8 ff3c fd3d 32bd
00000110: 889a 4cbc 0db3 8d3b 9ac0 a7bc 1b89 62bd
00000120: e3ae 80bc 5124 453d 2182 1fbd c94d 87bd
00000130: 3d78 d8bc bc2e 0cbd 650b 1e3d 47cc a4bb
00000140: 20fe 06bd eb03 7abd eb68 14bd e23b af3c
00000150: c401 db3c 2a0d 18bd 247e 87bc e2ce 053d
00000160: b6e8 073c e52f 2b3c af15 e73c 0e1e 0c3d
00000170: 23ce 333d 6ed0 4bbc c7f9 21bd b2fb d43c
00000180: 41a9 8cbc 9893 22bd 5ab8 67bd 570b b03c
00000190: 46e5 0a3d 58e1 ad3c 3826 89bd 7144 66bd
000001a0: 8745 333d 1a03 8b3c 21bb b9bc 2caa ef3c
000001b0: ae96 cabc 6ab8 16bd ac76 06bc ba2c a83c
000001c0: 9098 debb 4a7e 9abc dcf3 93bc a2b8 4abd
000001d0: 242e 4d3b ba7d f23c 23a9 d7bb 2d19 1b3d
000001e0: 46ba e93c 0ae4 e1bc 2434 babc ca84 143d
000001f0: 4872 fbbc fb73 29bd 519c dabc 9e6e f3bb
00000200: 9527 af3c 7b08 6fbb 058b 09bd d07b c53c
00000210: a96c 1dbb 6ef6 37bd 5ae7 24bc a450 87bd
00000220: 7383 01bc 66ec 90bc bda7 2fbd 40b9 fd3b
00000230: 5361 953c d8ce b53a 1dd5 6a3c e5c3 bebc
00000240: 11cb 8bbc df75 303c 856d 4cbc c695 d0bb
00000250: 4342 533b 937c 103c 0439 4fbd 82bf 4e3c
00000260: 9d67 38bc ef47 ebbb f309 3dbd b1ef 35bd
00000270: c0f2 a23c f200 b3bc b7ce 92bc c0fa c0bc
00000280: 6859 033c 99ff 06bc be10 87bc 1686 1ebd
00000290: f61d 15bd 9883 b2bb 5869 c53b 50ec ddbc
000002a0: 3be9 6dbd 00fd 89bd 1522 2e3d 3064 633c
000002b0: 382c 053d b32e 27bd d296 de3c 0c20 5dbd
000002c0: d5e3 de3c 0e09 b73c 1170 66bd c020 223c
000002d0: 9624 ad3c a5be 7ebc 00fa 19bc 3df4 0abd
000002e0: 6d69 853b e004 27bd ac99 5a3c 6e33 1fbd
000002f0: e6b9 3c3d 139f 28bd 4364 38bd befe 4cbc
00000300: 792a 85bd 5918 11bc d5db c0bc f992 083d
00000310: 9ed6 2b3d 2ed0 0fbd 1df6 02bd 4a00 f63c
00000320: 9d84 76bc 3c7f 2e3d 6cc7 d3bc 4236 ee3c
00000330: 5ca4 c9bc 9613 84bc fd62 b13c e9b3 9f3c
00000340: 0521 ddbc a910 023d d617 283d 87c8 d83c
00000350: 0e0a 90bb 7123 3c3d 8068 43ba 6095 45bd
00000360: 197b 293c f1b7 733c df0d 9ebd c0e7 89bc
00000370: 7590 53bd c50c 3cbd 1bdd ad3c 938f 76bd
00000380: fb96 fbbc 6ee5 34bd 3656 c4bb b342 f4bc
00000390: 29e3 98bc 01c2 123d b842 0abc b160 463d
000003a0: 0fba 36bd 6d8e 87bb 4804 a33c 7a1e 2cbc
000003b0: 2183 28bd e008 efbc af5f 3c3d d6dd 0dbd
000003c0: cd9c 8ab9 df2e 45bc 00a1 edbb 6d90 0c3d
000003d0: 566c 913b e98e 1c3d 9057 0dbd 224d ff3c
000003e0: 9908 d4bc 4a02 eb3b 1701 8abc 7add a63c
000003f0: 0784 92bc 04b5 21bd 14a8 3e3c acf7 2fbc
-0.026740957 -0.04899512 -0.053810265 0.020920662 0.0235394 0.013580993 -0.06747755 -0.06856153
-0.060803443 -0.024954014 -0.03848576 0.037311163 0.031546663 0.020866688 0.016168376 0.017226733
-0.008061199 0.012906325 -0.0011161142 0.019888546 -0.06408443 -0.008241515 -0.0067659337 0.023713091
0.0083600795 0.02132996 -0.051566977 -0.028715866 0.0076801158 0.02644096 -0.059626136 -0.026618443
0.019571755 -0.026455736 -0.040706955 -0.04886249 -0.0028916835 -0.00018445357 -0.036314707 -0.048037153
-0.028693926 -0.04871663 -0.0058464212 0.044495557 0.036475316 0.037379157 0.027922709 -0.01612366
-0.01945416 0.020782763 -0.006133056 0.0059376615 0.029014649 0.02399095 -0.04428044 -0.015688375
0.015626626 -0.04319033 -0.020453079 -0.017539814 -0.06423077 0.004927285 -0.03880325 -0.053717803
-0.014856955 0.034839198 0.031238785 -0.043516148 -0.012488015 0.004324323 -0.020477582 -0.055306535
-0.015708392 0.048130337 -0.03894246 -0.06606633 -0.026424522 -0.034224257 0.038585085 -0.0050292346
-0.032957196 -0.061038893 -0.03623287 0.021390859 0.02673424 -0.03712193 -0.01653964 0.032668002
0.008295229 0.010448431 0.028208582 0.03420835 0.04389776 -0.01243983 -0.039544847 0.025998924
-0.01717055 -0.039691538 -0.056572296 0.021489782 0.03391006 0.021225616 -0.06696743 -0.056217615
0.04376748 0.016969252 -0.022672238 0.029255949 -0.024730053 -0.036796965 -0.0082070045 0.02052914
-0.006793089 -0.018859047 -0.018060617 -0.049492486 0.003130802 0.029600967 -0.006581442 0.037865806
0.028531205 -0.027574558 -0.02272994 0.03625945 -0.030694142 -0.041370373 -0.026685866 -0.007428958
0.021381179 -0.003647356 -0.033579845 0.02410689 -0.0024021065 -0.044912748 -0.010064924 -0.06607178
-0.007904875 -0.017690849 -0.042884577 0.007743031 0.018234884 0.0013870848 0.014333037 -0.02328677
-0.017064603 0.01077029 -0.012477283 -0.0063655106 0.003223554 0.008818763 -0.050591484 0.012618901
-0.011255172 -0.007180206 -0.046152066 -0.04441804 0.019891143 -0.021851037 -0.017920835 -0.023557067
0.008016922 -0.00823965 -0.016487475 -0.038702093 -0.036405526 -0.005447816 0.006024521 -0.027090222
-0.058083754 -0.06737709 0.042512972 0.013878867 0.032512873 -0.04081602 0.027171526 -0.05398564
0.027208248 0.022343185 -0.05625922 0.0098955035 0.02113561 -0.015548383 -0.009397984 -0.03392433
0.0040714056 -0.040776134 0.013342302 -0.038867407 0.046075724 -0.04116733 -0.045017492 -0.012511907
-0.06502242 -0.008855903 -0.023542324 0.03334329 0.04195272 -0.035110645 -0.031972993 0.030029435
-0.015046266 0.04260181 -0.025851928 0.029078607 -0.024614505 -0.01612262 0.021653647 0.019494968
-0.026993284 0.03175417 0.041038357 0.026462806 -0.00439573 0.045932237 -0.00074542314 -0.04823816
0.01034429 0.014875398 -0.077174895 -0.01683414 -0.051651437 -0.045910615 0.021223595 -0.060195517
-0.030711642 -0.044164114 -0.0059917225 -0.02981696 -0.018663006 0.035829548 -0.008438759 0.048432056
-0.044611033 -0.0041368515 0.019899502 -0.010505313 -0.04114068 -0.029179037 0.04598969 -0.034635387
-0.00026438237 -0.012035101 -0.0072518587 0.034317423 0.0044379635 0.038222227 -0.034507334 0.03116471
-0.025883006 0.0071719037 -0.016846223 0.02036928 -0.017885221 -0.03947927 0.011636753 -0.010740202

bias f4 [300]
00000000: 3f44 93bc 0ed0 67bd 7526 8dbb 4dbe 44bd
00000010: aff2 64bd 9c1b 46bd 9b6f 08bd 7824 59bd
00000020: fde5 aabc bbb6 06bd 1635 45bd bea5 aabe
00000030: af84 08bd ee49 983e c681 af3c 688f 1c3e
00000040: 6862 d5bc 1ab7 8cbc 27ca 4bbb 4592 75bd
00000050: 507d 573d 17f6 8b3c 02d1 873d 6cde 053e
00000060: 9a41 71bd 1922 45bd 7fb6 48bd 85d4 6b3e
00000070: ba72 84bd 64a3 23bd 79a8 8a3b d4ff fcbc
00000080: 23f3 93bb aba1 4dbd 890a b2bc 6b66 0dbd
00000090: 8136 8fbd c6f6 05bd b294 8a3d 8cde a6bd
000000a0: 2b99 1ebd a9b0 c03e 7a44 193e 6fcc b8bb
000000b0: 4987 7c3e 094f e03c 8324 50bd b6de 3dbd
000000c0: 0584 37bd a630 13bd f387 52bc 8328 7cbc
000000d0: 2c31 8dbd 5b49 3b3e 607b b9bb b6d2 2c3e
000000e0: 039c 58bd 45aa a83a 8d5f b13c 7f90 fd3a
000000f0: d9ba fabc 1c0b 48bd 665c 1c3e df3d 60bd
00000100: 9e00 5abd 8980 d3bd b512 2f3e e281 21bd
00000110: dc79 4bbd ebdd 20bd 84d7 933b f664 8bbd
00000120: ebd9 313e fad0 dd3c 4eff 883e 6842 ad3d
00000130: 6375 33bd 5e99 8f3e 5e7b 17be c594 c1bd
00000140: 4df7 3bbd e392 103c 81ca d5bc b966 24bd
00000150: 30fa dbbc c0d5 65bd ddd0 193d 0692 10be
00000160: 3583 1fbd b12b b83e 4957 e5bc 2bbf 21bd
00000170: e836 d7bb c670 06bd 63f0 98bd ac76 dbbd
00000180: 15c8 ed3d 8c32 1dbd 9e7a 10bd c63d 083c
00000190: 1f30 9b3b 1d29 153e a64a 9dbc 661f a43d
000001a0: b837 82bc df95 693b ecf2 aabd f883 733d
000001b0: 4e84 0abc f601 22bd fdcf 77bd 4f56 11bd
000001c0: 4ef2 97bd d23b 6cbd ece2 0f3e 539c 8dbd
000001d0: 7e80 c7bb a731 a53d 4e66 963b 1174 cc3c
000001e0: 7456 0e3b 4808 22bd 73f4 8f3e 1370 05bd
000001f0: b8a2 8bbd c166 5e3e 7603 833e 5427 7fbd
00000200: 1023 ff3d 18e8 023d 9ec2 ebbc e610 debe
00000210: ef5c 2d3c 29a5 f8bc 68e6 c0bb 2fc5 20be
00000220: 8b65 353a 3296 cbbc 6a4c 56bd 7c01 613c
00000230: cc45 0bbe 2462 e6bc b5a2 133a 0f21 c03d
00000240: 5ef8 863e 5e78 d0bc 4c7f aa3c d474 c7bc
00000250: 50f4 02be 8810 9a3c 9b86 a6bc 1eff 93bd
00000260: 1cb5 06bd f1df 04bc 8011 49bd 782f 61bd
00000270: 7eaf 6fbd 3cd3 f2bb 144c 0a3e d304 b3bb
00000280: c972 ac3d 691f fd3b 4666 0c3e 10bc b33c
00000290: 1903 9e3e 8771 22bd 10d1 f1bc 563f bcbc
000002a0: c2f6 ad3d 1e2a c4bc fde9 88bc 43f7 9a3e
000002b0: 87d8 2fbd 9b6b b2ba 4a14 07be db70 39bc
000002c0: ac35 37bd 48ac 70bd a4ad a6bd ad77 fabb
000002d0: d54e 1bbd 2af8 35bb 64bd 80bd 76b3 203e
000002e0: 53d9 4abd d29d 39bd b174 963e 83d1 3a3d
000002f0: 6adc 653e a166 b5bd 1039 af3c ccd0 2bbc
00000300: 5ee1 973b aaad 57bc 5647 8abc 4103 783c
00000310: badd 0f3d 0b71 59bc 84cd 1eb9 7555 7fbd
00000320: 710f 4dbc 7764 a73d 1c17 b3bd d381 5bbd
00000330: c308 8b3d 3afc 29bd 1fbb 9abd d089 2839
00000340: 8ff9 953b 036f 85bc 8ad5 a03c 0811 773c
00000350: 58e7 17bd 5076 5ebd f8c4 4f3e 2838 99bd
00000360: 5dc3 a23e 0c1e 77bc 0e72 ecbb 742b b83d
00000370: f432 db3d 04fa 203e f0e9 cc3e 785b b03a
00000380: 6621 de3d ff31 66bd 05bc 2ebd 0ecb be3b
00000390: a7b0 0239 2965 0ebd 7df8 32bd 063f 7e3d
000003a0: 92ea 17bd a6e7 733e c07a 6bbd 5f8a 32bc
000003b0: d87c 2c3c 6434 05bd 509b 30bd 012a 7b3e
000003c0: c9ce 78bd f411 8f3b c6e0 80bd eb24 1e3d
000003d0: e3dc 813d c19b 5ebc 1f5b 9ebc 9ec4 b73e
000003e0: ca30 b63b fcf0 e5bd 60fd 393c f133 18be
000003f0: 23c0 4dbd cd23 3fbc 13ee 7cbd 9828 36bd
-0.017976878 -0.0565949 -0.004307563 -0.048033047 -0.055895504 -0.048366174 -0.03330956 -0.053013295
-0.02086162 -0.03288911 -0.04814633 -0.33329576 -0.033329662 0.29743904 0.021424185 0.1528908
-0.0260479 -0.017177153 -0.0031095834 -0.059953947 0.05260974 0.017085118 0.06631662 0.13073128
-0.058900453 -0.04812822 -0.049002167 0.23030289 -0.06467195 -0.039950743 0.0042315093 -0.030883707
-0.004515068 -0.050203007 -0.02173354 -0.0345215 -0.06992818 -0.032706045 0.06766643 -0.08147916
-0.03872029 0.3763478 0.14967528 -0.0056396048 0.24660982 0.027381437 -0.05081607 -0.04635497
-0.044803638 -0.035935067 -0.012849796 -0.015390518 -0.068941444 0.18289702 -0.0056604594 0.16877255
-0.05288316 0.0012868127 0.021652007 0.0019345431 -0.030606674 -0.04883872 0.15269622 -0.054746505
-0.053223245 -0.103272505 0.1709698 -0.039430507 -0.04967676 -0.039274137 0.0045117754 -0.06806366
0.17368285 0.027077187 0.26757282 0.084599316 -0.04381312 0.28046697 -0.14793155 -0.09452204
-0.04589014 0.008824083 -0.026097538 -0.040137026 -0.026852697 -0.05611205 0.037552703 -0.14118204
-0.03894349 0.35970834 -0.027995722 -0.039488953 -0.0065678246 -0.032822393 -0.07467725 -0.10715994
0.11610428 -0.038378283 -0.035273187 0.008315509 0.004735961 0.14566465 -0.019200634 0.08013801
-0.01589571 0.0035642309 -0.08347115 0.059452027 -0.008454395 -0.03955265 -0.060501087 -0.0354827
-0.07419263 -0.057674237 0.14051408 -0.06914582 -0.0060883155 0.08066111 0.0045898324 0.024957689
0.002171901 -0.03955868 0.28116187 -0.032577585 -0.068181455 0.21718885 0.25588578 -0.062293366
0.124578595 0.031959623 -0.028779324 -0.43372267 0.010581239 -0.030352192 -0.0058868416 -0.1570022
0.0006919733 -0.024851892 -0.052318968 0.013733264 -0.13600844 -0.028122969 0.000563185 0.093813054
0.26361364 -0.02544802 0.020812653 -0.0243477 -0.1278851 0.01880671 -0.020327857 -0.07226394
-0.032887563 -0.008110032 -0.049088955 -0.05497691 -0.05851697 -0.007410435 0.13505584 -0.0054632216
0.08420331 0.0077246916 0.13710889 0.021940261 0.30861738 -0.03965905 -0.029518634 -0.02297942
0.08494331 -0.023945864 -0.016713137 0.3026677 -0.042931106 -0.0013612391 -0.13191333 -0.011318411
-0.04472892 -0.05875805 -0.08138588 -0.007643661 -0.037916977 -0.0027766326 -0.062861234 0.15693459
-0.049523663 -0.045316525 0.29385903 0.045609962 0.22447363 -0.088574655 0.021389514 -0.010486793
0.00463502 -0.013163963 -0.016879719 0.015137495 0.035123564 -0.01327158 -0.00015144615 -0.062337358
-0.012515889 0.08173459 -0.08744642 -0.053590607 0.067887805 -0.041500308 -0.07555222 0.00016073068
0.004576869 -0.016288286 0.019633073 0.015079744 -0.03708586 -0.05431205 0.20289981 -0.07481414
0.31789675 -0.015082847 -0.007215745 0.08992663 0.10703078 0.15720373 0.4002223 0.0013454994
0.10846214 -0.056200024 -0.04265978 0.005822546 0.00012463574 -0.034764443 -0.04369401 0.062071823
-0.037088938 0.23818836 -0.05749011 -0.010897248 0.010527812 -0.032520667 -0.043116868 0.24527742
-0.06074408 0.004366154 -0.06292872 0.038609426 0.06340959 -0.013586939 -0.01933056 0.35892195
0.0055600153 -0.11227605 0.011351913 -0.14863564 -0.050232064 -0.01166625 -0.061750483 -0.044472307

weight f4 [1, 300]
00000000: 625a c33a 1566 273b 2132 c3b9 321f f8bc
00000010: 38d3 833b 14dc d1be b82e 89be bb27 bcb9
00000020: d76b 513b 909b 713b bc6b 183c 4797 5bc0
00000030: 1aae a73b b922 4fc0 ad43 253f 25e1 afbe
00000040: 4241 853d 48d4 cdba 5433 bebe e09e 8dba
00000050: 32ae 0b40 8258 06bb 4931 d7be 2fe7 5ebf
00000060: 22cb 9eb9 4ea9 633b f71e 35bb 0ebf 9f3f
00000070: 047b b1be a2d5 d1ba 1f75 633d 03b1 e3ba
00000080: 1230 88bb 2f91 b33b e4d1 873b bd58 b2be
00000090: b411 eebe cdb9 843f a4d6 8f3e 88a5 5a3e
000000a0: eb4c 0abf c544 8f3e d77f 0bc0 d00f 93bb
000000b0: 375d 2ec0 1c47 513e 867c 853b c86b ac3b
000000c0: 96cd d9be d189 c2be e531 763c 30a7 85bb
000000d0: dcdb 523e ee73 b9be ebf7 b63d b0bf 263f
000000e0: 9895 fab9 ca66 f43a 8932 80be e3a1 3bbc
000000f0: ea25 a93b 0f02 b73b 7334 bbbe 4a9d dabe
00000100: e99a 643a 96f1 783a ba29 b4be 3e32 763b
00000110: c5f4 eebe 8a8e bebb e798 8338 5cc9 eebe
00000120: 94ea 0bc0 e16f 0ebc 8b61 49c0 f7ce 403f
00000130: 68f1 fe3d b690 debe bb80 1bbf ad3e a6be
00000140: 800c 973b fbbe 6c3b 032a 0e3b 9203 9dbe
00000150: 4230 b538 9c41 853b 91db 083f 0fe2 28bf
00000160: 3ac4 b13a ce01 41c0 957b a3be 2d5d e538
00000170: a722 ebbb 3e19 a9bd 9577 f33d e6f2 fbbe
00000180: 12e2 193f f2b7 9139 525e 0a3d 7253 a43c
00000190: b489 a8b9 3483 353f eeec cdba 7976 aa3e
000001a0: 8755 003e cbf6 6d3b b7c4 a8be 423e 75bf
000001b0: 3cad 82bb 1252 2bbb 9012 b0bb 2bef 04bf
000001c0: b3ea 74be 5986 b63a 27a5 553f 00b5 a23a
000001d0: ce06 d9b8 7998 8ebf 1502 8ebb 9e8e 6dbb
000001e0: 6db7 943b 1d0d 023c 6dbc 32bf b764 2c39
000001f0: ae4a a0be cced ae3f 6ac8 7dbe d303 e03a
00000200: 2d8d 34be 1ce3 813b addd 403d e577 a73f
00000210: d4f0 8d3b 325e 893a 56a0 22bb 6b5d c53f
00000220: b554 89bc fe30 533c 368f 67bf 9232 c23a
00000230: 6d37 5ebf 1de7 663b 6124 1ebb ddc5 c83e
00000240: 70d5 6bc0 2da7 b638 360b 76bb cda8 0abd
00000250: d6da be3f 6aa5 f03a a06e 953b dcf4 b2be
00000260: dc73 8f3b 3ae1 acbb 8587 24bb 2567 bf3a
00000270: bf0f 1ebc 10c2 96bb 4ceb 59bf 4d08 013b
00000280: 67fc cd3e 5aaf 5fbd 010d 773e 5265 a43a
00000290: b348 533f 6b82 523b f33b 403d 9175 b53c
000002a0: 7249 b63e 67f1 1d3a 8007 62be 7310 593e
000002b0: 17c6 1e3a 441d a638 a953 14bf b7fa 153d
000002c0: 6747 313b 9b3b 18be 65d5 a6be 22b8 06bb
000002d0: dcf4 7339 5d2a 27bb 81bf 583b b426 25bf
000002e0: 03bf adbd 3eeb babb 27e6 283f ceee 353f
000002f0: dd56 4ebf 3b59 dcbe 78de afbb 463d 733b
00000300: 287a b2b9 8a94 993b 8223 02b9 a682 053e
00000310: 0501 5bbc 50b7 a23b 77f2 ccba 8ff4 fc3a
00000320: 4752 403b f0b1 f7be 4bd9 dbbf a5a2 f1bb
00000330: b1d8 ff3e ff59 323b f3ca bf3c 69e7 efbb
00000340: 6112 183f 55d2 a3bb 18c4 c3be 7bb7 b8bb
00000350: 1705 333e e369 89bb 818e 4dc0 dbc9 98be
00000360: 544e dfbf d0a3 a1bb 6f24 e03b ada1 10bf
00000370: 24c8 e63e 1899 cf3e b6a6 b6bf 3540 a7be
00000380: c431 be3e fb14 e7be 310e 173d 89cb 4fbb
00000390: b6e6 9dbb 724e 8bbe a7f4 32bd 6ff4 7d3e
000003a0: ab05 c73a 7f63 cf3f 6255 bfb8 2730 9f3b
000003b0: 0ea7 ed3d 178e d239 157a c4ba 4a4c 96bf
000003c0: 2e73 4abb 3333 2cbb ddb8 1f3a 2e65 133f
000003d0: cdda 68be 2449 97bb 95c3 4a3c 5feb af3e
000003e0: bb60 d63d 2834 d2be 7b4a 763b 7de4 3fbf
000003f0: 3ebc aabe 2d24 b1bb 4434 b5ba a5b1 693b
0.0014904256 0.0025543023 -0.00037230647 -0.030288313 0.004022982 -0.4098822 -0.26793456 -0.00035887756
0.0031955147 0.0036866404 0.00930303 -3.4311082 0.00511719 -3.2364943 0.6455639 -0.3435146
0.065065876 -0.0015703524 -0.37148535 -0.0010804795 2.182507 -0.0020499532 -0.4202979 -0.8707151
-0.00030287454 0.0034738365 -0.0027636865 1.248018 -0.34664166 -0.0016009102 0.055531617 -0.0017371479
-0.004156121 0.0054799537 0.004144894 -0.34833327 -0.4649788 1.0369202 0.28093445 0.21352208
-0.5402362 0.27982154 -2.1796777 -0.004487969 -2.7244394 0.20437282 0.0040736822 0.005261872
-0.42539662 -0.3799577 0.015026544 -0.004078768 0.20591682 -0.3622126 0.08934005 0.6513624
-0.00047795172 0.0018646356 -0.25038555 -0.011452171 0.0051619904 0.005584962 -0.36563453 -0.42698127
0.0008720593 0.00094964483 -0.35188085 0.0037566568 -0.4667112 -0.005815332 6.275047e-05 -0.46638
-2.1861925 -0.008693666 -3.1465786 0.75315803 0.12448388 -0.4346978 -0.607433 -0.32469693
0.0046096444 0.0036124575 0.0021692521 -0.30666786 8.639741e-05 0.004066659 0.5346003 -0.6596994
0.0013562508 -3.0157351 -0.31930223 0.00010936926 -0.0071757617 -0.08256768 0.11888043 -0.49208754
0.6011058 0.00027793605 0.033781357 0.020059321 -0.00032146054 0.70903325 -0.0015710869 0.33293512
0.12532626 0.003631043 -0.32962582 -0.9579812 -0.0039879363 -0.0026141447 -0.0053733066 -0.5192744
-0.23917656 0.0013925537 0.8345513 0.0012413561 -0.00010348634 -1.1140281 -0.0043337443 -0.0036248337
0.0045384676 0.007937697 -0.69818765 0.00016440717 -0.31306976 1.366632 -0.24783483 0.0017090983
-0.1763198 0.003963841 0.047086406 1.3083464 0.0043316875 0.0010480343 -0.0024814806 1.5419134
-0.016764024 0.012890099 -0.904529 0.0014816097 -0.86803323 0.003523297 -0.002413057 0.39213458
-3.6849022 8.709575e-05 -0.0037543303 -0.033852387 1.4910533 0.0018359844 0.0045603067 -0.34952438
0.004377825 -0.0052758725 -0.002510519 0.0014602883 -0.009647309 -0.004600771 -0.8512466 0.0019688786
0.4023163 -0.054610588 0.24126054 0.0012542403 0.82532805 0.0032121192 0.046932172 0.022150787
0.3560291 0.00060250465 -0.22073174 0.21197681 0.00060567394 7.920948e-05 -0.57940155 0.036616053
0.0027050616 -0.14866488 -0.32584682 -0.002055653 0.00023265503 -0.0025507428 0.003307313 -0.6451218
-0.08483698 -0.0057043126 0.65976185 0.7106751 -0.8060129 -0.43036827 -0.0053670965 0.003711538
-0.0003404182 0.0046868967 -0.00012410994 0.1303812 -0.013366942 0.0049657 -0.0015636225 0.0019298958
0.0029345916 -0.48377943 -1.7175688 -0.007374125 0.4997001 0.0027214286 0.023412203 -0.0073212874
0.59403044 -0.0049994388 -0.38235545 -0.005637107 0.1748241 -0.004193531 -3.2118227 -0.29841504
-1.7445779 -0.004932858 0.0068402807 -0.564967 0.4507457 0.4054649 -1.4269626 -0.32666174
0.37147343 -0.45133194 0.03687877 -0.003170701 -0.0048187627 -0.27208287 -0.04369035 0.24800275
0.0015184184 1.6202239 -9.1234935e-05 0.004858035 0.11604129 0.00040160186 -0.0014989997 -1.1742032
-0.0030891406 -0.0026275634 0.00060929154 0.5757626 -0.22739716 -0.0046168733 0.012375732 0.3435926
0.104676686 -0.41055417 0.0037581015 -0.7495802 -0.33346742 -0.005405924 -0.001382478 0.0035658863
