pretrained_models/ddpg_fast1_extended/q.pt (torch_old, 528348 bytes, 5 tensors)

weight f4 [400, 22]
000000 42 5d 31 bc 2e 62 c6 3d 09 93 8b bf 2b 5e a9 be
       -0.010825457 0.09686695 -1.0904247 -0.33079657
000010 b1 32 41 bf 5a f2 05 3d 06 89 3c be a3 b1 e8 3b
       -0.75467974 0.032701828 -0.18411645 0.007101254
000020 2e 53 2d be 50 23 5c 3d e7 28 b3 3d 40 72 f5 bd
       -0.16926262 0.053744614 0.08748036 -0.11984682
000030 fc 37 c7 bd a5 ba 2c be 78 eb ed 3c cb 15 81 bd
       -0.09727475 -0.16868074 0.029042944 -0.06302985
000040 fb 6d 9a 3c 23 81 6e 3e 92 d4 98 be b0 6e f4 be
       0.01885127 0.23291449 -0.29849678 -0.47740698
000050 72 c3 6e 3d 67 2e 84 3c ed 77 1d be 01 9f 6a 3e
       0.05829186 0.016135408 -0.1537778 0.22912218
000060 65 4c 40 bf 9c 5c f5 bd 3a 41 18 3d 65 f8 39 bd
       -0.7511657 -0.119805545 0.03717158 -0.045402903
000070 1e 18 5b be 5f 0e f6 bd ac 95 b6 be 4a a5 a5 3e
       -0.21395919 -0.1201446 -0.35661066 0.32352668
000080 fa fc b2 3d a7 64 70 be d6 e4 64 be 23 38 31 bd
       0.08739658 -0.23475896 -0.22352919 -0.043266427
000090 c2 d4 87 3d c9 bd 41 3d 10 09 8c be fc 24 b2 bd
       0.06632377 0.047300134 -0.27350664 -0.086984605
0000a0 a0 81 e9 3e 1f f1 05 bf 1c a5 3c 3d 9e a8 25 bd
       0.4560671 -0.52321047 0.046055898 -0.04044401
0000b0 a3 ba 0b bf 3d 14 51 3e 34 86 13 bc 91 07 17 bd
       -0.5458166 0.20417877 -0.0090041645 -0.03687245
0000c0 c8 e8 1a bf b6 5a 23 3d 6f 8d 22 be 19 78 85 3d
       -0.60511446 0.03988143 -0.15874265 0.065170474
0000d0 63 68 58 bd 11 54 1b 3e 6b 30 05 3e da 26 93 be
       -0.052833926 0.15168788 0.13006751 -0.2874058
0000e0 d4 91 d7 bd ce 1d cd bd 66 af 45 be 69 2d 84 be
       -0.105258614 -0.100154504 -0.1930519 -0.25815895
0000f0 76 be b8 bd 6a 66 81 3e 3d ed 00 3d 46 09 01 bf
       -0.090207025 0.25273448 0.031476248 -0.50404775
000100 3a 55 3e bc fb 27 53 3d 45 fb e4 bd 79 07 34 3d
       -0.011616999 0.0515518 -0.11180738 0.04395244
000110 f4 3b 44 bf 29 56 9d 3d 8e f9 9d bf 7f d1 a7 bd
       -0.7665398 0.07682449 -1.2341783 -0.08194255
000120 32 42 77 3d 9c 7d 92 3d 2a 28 db 3d a5 90 8a 3e
       0.060365863 0.07152864 0.1070102 0.2706348
000130 5f c1 91 3e a5 54 a5 be 19 95 ad bd 44 e7 c1 bd
       0.28467843 -0.3229114 -0.08475704 -0.094679385
000140 66 53 41 bd 44 90 66 3d 37 69 40 3d 4a ce 07 3d
       -0.047198676 0.056289926 0.04697534 0.033155717
000150 a1 16 3c bd a6 54 88 3d 46 51 91 be b5 20 89 bb
       -0.045920018 0.066567704 -0.2838232 -0.004184807
000160 e3 74 92 be 6b 4f c8 be 3a ae c7 3e 63 0c 3a 3e
       -0.28604802 -0.3912309 0.39000112 0.18168788
000170 4a dc d5 be cf 59 1e be ca c9 6a bf d3 30 8f be
       -0.4176963 -0.15463947 -0.91714156 -0.27966937
000180 77 82 a7 3d 5f 33 3c be 24 da d1 be 48 5b 9e bd
       0.08179181 -0.18378972 -0.4098674 -0.07732254
000190 21 25 c4 3c ff 09 ba bd 3e d0 a0 be 67 d5 3e bc
       0.023943486 -0.09083938 -0.31408876 -0.011647559
0001a0 ba 53 b4 bd 96 6c 9a 3e 2d 64 92 be 62 27 d2 3e
       -0.08805032 0.3016097 -0.28592053 0.41045672
0001b0 32 0f 6e 3c 7e 82 71 3c 26 77 f3 bd 84 a0 00 3e
       0.01452999 0.014740584 -0.1188796 0.12561232
0001c0 74 5f 8a bf 21 2f 07 3e cb 39 09 bf 6e 8d 3e be
       -1.081038 0.13201572 -0.5360381 -0.18608639
0001d0 ae 35 d1 bd dd 5e 1a bd a6 91 00 3e 7f 69 d1 3d
       -0.10215317 -0.037688125 0.1255556 0.102252
0001e0 f9 d8 3f 3e 2d 2f 5a bd 44 c0 2b be 87 a6 f8 3d
       0.18735112 -0.053267647 -0.16772562 0.121411376
0001f0 57 db fb bd 4e 90 43 be 13 52 cc bd be 31 72 bd
       -0.12297695 -0.19098017 -0.09976592 -0.05912947
000200 ab ae 1b 3e 12 67 f9 be ac c7 f6 bd b1 9f 6a 3c
       0.1520335 -0.4871145 -0.12049803 0.0143203
000210 cd af 79 be 68 b5 44 3d bc d6 d3 3f c3 28 dc bd
       -0.24383469 0.048024565 1.6549907 -0.10749962
000220 ee c7 a4 be fc 20 80 3d 93 83 89 bb 7b 6d 47 3d
       -0.32183784 0.06256291 -0.004196593 0.048688393
000230 9b 38 d9 3e 2a bd a0 3e 66 3c 44 3e 87 01 db bd
       0.42426 0.3139432 0.19163665 -0.10693651
000240 c5 20 11 bd 86 b4 77 3b 89 8f 2d 3e 22 b2 b4 bd
       -0.035431642 0.003779681 0.16949286 -0.08823039
000250 87 81 44 be e9 07 31 bd 40 5f a3 be 02 90 d6 bc
       -0.19190036 -0.043220434 -0.31908607 -0.026191715
000260 03 c8 5b bd 9a b6 60 bb bd b9 9d be ed 07 d0 be
       -0.053657543 -0.0034288527 -0.3080577 -0.40631047
000270 54 67 19 3e 64 04 4e be 3d 08 98 bf 05 87 97 be
       0.14980823 -0.20118862 -1.1877514 -0.295952
000280 46 ff c6 be 66 1d 1c bd 8e 0a 8f be 76 c0 98 be
       -0.38866633 -0.038113974 -0.2793774 -0.29834336
000290 e9 31 c4 bd 69 06 73 bd 5b 50 da be 03 c2 d5 bd
       -0.09579832 -0.059332285 -0.4263943 -0.104373954
0002a0 0d 33 9c be bf d5 98 bd 32 b9 31 3e b1 79 9d be
       -0.305077 -0.07462644 0.17355803 -0.30756906
0002b0 ad 6c 14 3f 21 17 0d bf 4f ab ce be 75 a1 31 3c
       0.57978326 -0.55113417 -0.40365073 0.010841717
0002c0 ee 66 c8 3e 26 47 a1 bd 47 d4 c9 3f f0 93 0a be
       0.3914103 -0.078748986 1.5767907 -0.13532996
0002d0 f0 4d 00 3f 18 6e f1 bc 6c 09 02 3e 6f b8 bc 3d
       0.50118923 -0.029471442 0.12698907 0.092148654
0002e0 99 8c 51 be 53 cd f3 bb f8 86 63 be 54 94 25 bc
       -0.2046379 -0.007440248 -0.22219455 -0.010106165
0002f0 8c 83 04 be dd 5e b3 3d 5c 1c e7 3d be 35 3a 3e
       -0.12940806 0.08758328 0.11284706 0.18184564
000300 c1 53 04 be 5f 0c fd 3d 35 73 63 bf f1 ee 70 3e
       -0.12922575 0.12355875 -0.88847667 0.23528649
000310 49 be b6 bd 91 08 03 3c f0 3c b3 be 52 d3 d8 3e
       -0.08923013 0.007997648 -0.3500743 0.42348725
000320 90 0f df be 5d bb 5b 3d ed cf ab bf 8d 3d 91 3e
       -0.4356656 0.05364548 -1.3422829 0.28367272
000330 7b 5e dc be 4d b3 b3 3d c5 2c 2c bf ae 30 33 3f
       -0.43040833 0.08774433 -0.6725581 0.69996154
000340 41 03 87 3e bd d3 48 bd de e8 62 3d 0b 8e cd 3e
       0.2636967 -0.049030054 0.05539786 0.40147433
000350 5f ec 0c 3e 2c bf ea bd f7 71 f6 bd af ab 03 3f
       0.13762043 -0.114622444 -0.12033456 0.51433843
000360 09 10 df be 63 64 c6 be a1 ef f3 3d 79 b4 0c be
       -0.4356692 -0.38748464 0.1191094 -0.1374072
000370 ad 4e 81 3e 4e 26 8d be 82 71 db 3e 20 f0 a5 bd
       0.25255337 -0.27568287 0.42860037 -0.08102441
000380 e8 4e b3 bf d9 0e d9 be 69 7c 7c be c9 0a 36 be
       -1.4008455 -0.4239414 -0.24656834 -0.17777552
000390 21 09 7c 3c 4f 94 ed be c0 de 90 bd 73 a4 9e 3d
       0.015383036 -0.46402213 -0.07073736 0.0774621
0003a0 b2 ee 63 3e 7f 7a 9a be 03 c3 9e 3e 84 cb 94 be
       0.22259024 -0.30171582 0.31008157 -0.2906152
0003b0 c7 63 3e 3e 78 4a 9b 3e b3 06 e9 bc 41 26 1e 3f
       0.1859275 0.30330253 -0.028445577 0.6177712
0003c0 bf 59 07 3e 94 30 1e 3c 2b d9 51 be f8 75 01 be
       0.13217829 0.009655137 -0.20493 -0.12642658
0003d0 cc fa 54 3f 40 8e 72 be 82 e9 35 3f f8 03 98 be
       0.83195186 -0.23687077 0.7105943 -0.29690528
0003e0 26 ea 2d be 90 72 b7 bd 6d c9 80 3d a8 49 02 be
       -0.16983852 -0.08957398 0.06288419 -0.1272341
0003f0 fc 57 96 3e 31 70 8c bd 14 7c 21 be 46 ef 4b be
       0.29364002 -0.06857336 -0.15769988 -0.19915494

bias f4 [400]
000000 eb 2d b7 3d 39 96 8b be 48 2a 43 be d5 7c 84 bb
       0.08944305 -0.27263048 -0.19059098 -0.0040432015
000010 52 ec 57 3e b0 60 50 3d 5c 64 be bc 9f 88 cd bc
       0.21086243 0.05087346 -0.023241214 -0.02508956
000020 c3 62 4e 3d cc 7c e1 3d 21 e8 b9 bd b2 e3 9c 3d
       0.050387155 0.11010131 -0.09077478 0.07660617
000030 b5 97 b0 bd 59 80 14 3c 3e f5 83 be ac d2 60 be
       -0.08622686 0.009063804 -0.25773042 -0.21955365
000040 98 c0 41 be b6 28 9a bc 80 c0 d0 bd 6e 00 3f be
       -0.18921125 -0.01881824 -0.101929665 -0.18652508
000050 ed 7e 48 be 7d f9 06 bd 6b 32 00 3e c9 c0 0c 3e
       -0.19579668 -0.032952774 0.12519233 0.13745417
000060 ea 81 4f 3d 1f 9e 80 be 79 c2 b8 3d 8b aa 7d 3d
       0.050661005 -0.25120637 0.09021468 0.06193022
000070 cf 3c ba 3d 57 dd 55 be f1 ef 3f be 3f 5e 97 be
       0.090936296 -0.20885216 -0.18743874 -0.29564092
000080 33 a0 38 3c ae 0d ed 3d 0e 98 1f 3e 15 a0 19 be
       0.011268663 0.11574875 0.15585348 -0.15002473
000090 6b ff 68 bd 38 16 62 bd 30 86 77 bd e7 7b 09 be
       -0.05688421 -0.05519697 -0.060430706 -0.13426171
0000a0 13 cc 01 3d ca 71 15 be 45 1d a2 3d 43 d8 4f bc
       0.03168876 -0.14594188 0.07915739 -0.012685838
0000b0 11 3c 07 3e a0 5f 33 be f4 ab d2 3d 98 8c 23 3e
       0.13206507 -0.17516947 0.10286704 0.15971601
0000c0 80 62 01 be c3 5c 84 3d 0e ae d1 bc 89 50 78 3d
       -0.12635231 0.064630054 -0.025595691 0.06062368
0000d0 22 54 34 3e a5 bb 04 be 64 51 9c bd 12 bf 26 be
       0.17610219 -0.12962206 -0.076327115 -0.16283825
0000e0 d7 c8 f4 3d 42 eb ee bd 2c 96 4c be 54 74 20 3e
       0.1195237 -0.116659656 -0.19979161 0.15669376
0000f0 40 4e e3 3d c8 98 f8 3d 6f c3 d7 3d 7e b1 01 be
       0.110989094 0.12138516 0.10535323 -0.12665364
000100 7e 9e f4 bd 99 a6 9b 3b b9 94 d1 3d 4b f8 89 bd
       -0.119442925 0.0047500846 0.10233445 -0.06736811
000110 9f e2 f7 bb 90 a3 40 3d c0 7b 13 3d e1 d7 50 be
       -0.007564857 0.047030985 0.03600669 -0.20394851
000120 42 e2 17 be cc f3 1a bc c1 bf 86 3c 93 9f 50 3e
       -0.14832404 -0.00945754 0.016448857 0.20373373
000130 5f fb a6 3d f3 7f 80 3d a6 51 cf 3d 45 ae 53 bd
       0.08153414 0.062744044 0.10122995 -0.05167987
000140 4d 33 32 bd 8c 2f c8 3d d6 2d ec 3d 12 4a 98 bc
       -0.043505955 0.09774694 0.1153218 -0.018590007
000150 74 dc 6a bc 71 ec 2c 3e 9c 2f ab 3c 6c 6e 02 bd
       -0.014334787 0.1688707 0.020896725 -0.031843588
000160 2b 1b f5 bd a9 eb 07 be 40 a6 00 be c7 97 cf 3d
       -0.119680725 -0.13273491 -0.1256342 0.10136371
000170 67 b8 7c 3b f8 73 94 bd 8d ac d5 3d df dc d3 bd
       0.003856206 -0.07248682 0.10433302 -0.10344862
000180 5a 1c 94 bd ca fd 0d bd 43 f1 42 be 98 d9 39 be
       -0.0723197 -0.03466586 -0.19037347 -0.18149412
000190 f8 8f 54 bd 80 8e c9 bd 28 3f f8 3d e1 ea fd 39
       -0.05189511 -0.09841633 0.12121421 0.0004843092
0001a0 b1 d8 66 be 0c 43 45 be bb 2d 28 3e 97 15 ba 3d
       -0.22543599 -0.19263858 0.16423695 0.09086149
0001b0 d9 6e 3d be 61 18 22 be c1 d2 10 be ae 5f 03 3e
       -0.18499316 -0.15829612 -0.14142896 0.12829468
0001c0 b1 b3 11 3d 6a 59 82 3c 68 aa f1 3d 39 c1 25 3d
       0.035571758 0.015911777 0.118000805 0.040467475
0001d0 15 fa ba 3d 3b 27 8a be 41 83 c3 3d c3 be c1 3d
       0.091297306 -0.26983055 0.09546519 0.09460213
0001e0 e0 24 d5 bc 7a b3 e9 3d bc 72 55 bd 24 36 65 be
       -0.02601856 0.114111856 -0.052111372 -0.22383934
0001f0 81 1b 01 bd 52 44 6c be 35 bd 34 bd 6d f8 e4 3d
       -0.03152037 -0.23072937 -0.044125754 0.11180196
000200 87 61 8c bd 04 03 1e be ec 81 27 3d 96 21 58 be
       -0.06854539 -0.15430838 0.040895388 -0.21106562
000210 bd 2b 1f be 1c 16 77 be 66 f9 4d 3e 4b 19 30 be
       -0.15544029 -0.24129528 0.20114669 -0.17197149
000220 fd 16 25 bd 15 77 db 3d 99 3e 03 bd 11 65 c5 bc
       -0.040305126 0.107160725 -0.03204212 -0.024096044
000230 ca fe a1 3d 44 e8 68 be b4 c2 80 be 61 3d 0e bd
       0.07909925 -0.22744852 -0.25148547 -0.034726504
000240 44 38 91 bd 31 9d 35 be 38 8b 63 bd c8 f0 b1 3d
       -0.0709081 -0.17735745 -0.05555269 0.086885035
000250 5b ee 07 3e ba d7 2f 3d e9 7e 0f 3e c9 00 a0 bd
       0.13274519 0.042930342 0.14013256 -0.0781265
000260 74 8f 10 bb 66 34 91 3d 4c 93 b0 3d 0c b6 8c bd
       -0.002205816 0.07090072 0.08621845 -0.0687066
000270 38 8d 35 3e 63 b1 de bd 9c 8c 1f be 5a 1e 58 be
       0.17729652 -0.108736776 -0.15580982 -0.21105328
000280 6c 57 25 3c 77 58 4c be 23 40 4a 3e 4b 41 3c be
       0.010091644 -0.19955622 0.19751029 -0.18384282
000290 fe c1 bd 3c e8 65 e6 3d a7 6a a5 3d 55 5c 0a 3d
       0.023163792 0.11249906 0.08076983 0.03377946
0002a0 36 84 0e 3d b8 29 18 3d 65 b7 a6 3d 88 62 f5 bc
       0.034794055 0.03714916 0.081404485 -0.02995421
0002b0 d9 4c 3b be d8 d0 1b 3e 52 c6 f0 bd f5 3a 36 3e
       -0.18291034 0.15216386 -0.117565766 0.17795928
0002c0 f8 a7 60 3d 4a 8a 2e 3d e9 53 de bc 24 2f 98 3c
       0.054847687 0.04261235 -0.02713962 0.018577166
0002d0 76 65 c5 3d f4 1e 8a be a9 05 3f 3e df a4 26 be
       0.09638493 -0.2697674 0.18654503 -0.16273831
0002e0 db a0 53 be 57 3a 44 be 6f 29 fd 3d b5 68 03 3e
       -0.2066683 -0.1916288 0.123614185 0.12832911
0002f0 69 fc 51 be b6 bb b0 bc b8 95 a8 3d 87 7d 44 be
       -0.20506443 -0.021573883 0.082316816 -0.1918851
000300 47 7a 43 3d c9 45 d6 bd 8b f0 0e be 24 03 23 be
       0.047724035 -0.10462529 -0.13958947 -0.15919167
000310 ab 91 0e 3e ba 9c 6a be 5f 8d d6 3d 79 dd de bd
       0.13922755 -0.22911349 0.10476183 -0.10882086
000320 d4 e0 1f bc 27 90 50 bd 19 c8 7e be 34 93 ca bd
       -0.009758193 -0.050918724 -0.24881019 -0.09891358
000330 af 3c 0c bd c6 96 a9 3c 62 cc b7 bd e1 97 ae 3d
       -0.03423756 0.020701777 -0.0897453 0.08525062
000340 7c c9 99 bb d9 81 17 be 05 2a 86 bc 28 4c 02 bd
       -0.0046932083 -0.14795627 -0.016377458 -0.03181091
000350 fe 31 45 3d 4c c2 11 3e e2 02 18 bd 7e 98 00 3e
       0.04814338 0.14234275 -0.037112124 0.12558171
000360 25 3f 15 3e 40 3f 1b 3a 2b db 53 3e 83 11 4c 3d
       0.14574869 0.0005922206 0.20689075 0.049821388
000370 46 a8 78 bc a4 f6 45 3e f7 a6 a3 3d c6 1b 73 3d
       -0.015176838 0.19332367 0.079908304 0.05935266
000380 f3 08 02 3d e4 91 f1 3c f5 b7 85 3d 36 79 42 bd
       0.031746816 0.029488511 0.06529228 -0.047478877
000390 b2 ab 11 be 5b 4b 81 3c 00 86 20 3e 3c c7 4f bc
       -0.14225653 0.015783003 0.15676117 -0.0126817785
0003a0 e6 62 98 bd e7 66 c0 3c 79 fd 2d bd 7b 68 7e bd
       -0.074407384 0.023486568 -0.04247806 -0.06211136
0003b0 7e ac db bc 48 dc 91 bd ba 0d bd bd 94 40 d0 3d
       -0.02681565 -0.071220934 -0.09231134 0.10168567
0003c0 17 1a db bd fc 37 8a be fc dd 29 bd b8 01 8a 3c
       -0.106983356 -0.26995838 -0.041471466 0.016846523
0003d0 a8 98 93 3d be a1 f3 3d 53 c2 01 be 75 f4 54 be
       0.07206851 0.11896084 -0.12671785 -0.20796378
0003e0 eb d7 4e be 72 7d 15 bd 7c ba b8 bd fa 07 76 be
       -0.20199554 -0.036496587 -0.09019944 -0.2402648
0003f0 c4 86 1e 3d 5a 34 c1 3d 37 f0 d6 3c 69 0c 0d 3e
       0.03870274 0.094338134 0.02623759 0.13774265

weight f4 [300, 400]
000000 d2 07 6f be e0 70 ce 3c df 92 90 be c8 ff 90 3b
       -0.23342827 0.025200307 -0.28237054 0.0044250228
000010 31 e8 91 be 0d 23 7e 3d 8c 22 e9 bd bc 22 f7 be
       -0.2849746 0.062045146 -0.113835424 -0.48268688
000020 8a 94 5d 3e 98 e3 e4 3d ad 4b cb bd 64 c9 40 3d
       0.21638694 0.111762226 -0.099265434 0.04706706
000030 e5 e6 7e 3e e8 29 80 3e 01 dd 29 be 67 bf bf 3d
       0.24892767 0.25031972 -0.16588213 0.09362679
000040 ec 09 c5 3e e3 33 df 3e 0f 8b 28 bf 5a 14 0d be
       0.38484132 0.43594274 -0.65837187 -0.13777295
000050 27 e3 10 be 7e 99 d8 be a3 46 53 bd 9c 88 81 3e
       -0.14149152 -0.42304605 -0.051581036 0.25299537
000060 d2 75 21 3e 66 88 8c be 70 08 58 3f f7 fe 82 be
       0.15767601 -0.27447814 0.84387875 -0.25585148
000070 a8 dd 79 3d 70 58 d4 3e 28 6e 14 3e 61 92 74 bf
       0.061002403 0.41473722 0.14495146 -0.95535856
000080 02 7e ec bd 22 2d fe 3e 56 ea e4 3d 57 76 a1 3e
       -0.115474716 0.4964381 0.111775085 0.315356
000090 4f 62 33 3e 66 62 55 3e 7b 35 c5 3d 6f b5 0f 3c
       0.1751797 0.20838317 0.09629341 0.0087712845
0000a0 0d a8 38 be 64 12 09 be c3 1e dd 3e e8 87 33 3d
       -0.18032856 -0.13385922 0.43187532 0.043830782
0000b0 92 67 91 3e 54 2c 61 bc d8 83 d9 3d 15 80 1e 3d
       0.2839933 -0.013743479 0.1062085 0.038696367
0000c0 e1 80 bd 3d 5c ba e3 3e 7a cf 25 bd 11 84 c4 3e
       0.09253097 0.44478118 -0.04048107 0.3838201
0000d0 c3 56 a9 be df 37 d4 bd 16 9d 39 3f ab 99 36 3e
       -0.33074006 -0.10362219 0.7250532 0.17832057
0000e0 7a 22 41 be 04 94 71 be 8c 31 a3 bd 28 f7 53 be
       -0.18860808 -0.2359162 -0.07968435 -0.20699751
0000f0 6a a4 37 3e ba 34 67 bd 7a 60 19 be 2d 6a c4 bd
       0.17933813 -0.05644677 -0.14978209 -0.09590564
000100 a0 51 d4 be 7f a3 0f 3e 53 a5 3b be 53 58 09 be
       -0.41468525 0.14027213 -0.18324785 -0.134126
000110 7f d2 a0 3e 93 6e ce bd 05 9c 0f 3f a2 aa f7 3b
       0.31410596 -0.10079684 0.5609744 0.007558183
000120 c0 48 c0 be f7 a4 27 3f 3c 6f 8d be e1 a0 a4 bd
       -0.37555504 0.6548609 -0.27623928 -0.08038498
000130 fe c7 4a 3f ab 80 23 3e 59 61 2b 3e 72 a4 51 bf
       0.79211414 0.15967052 0.16736354 -0.8189155
000140 07 dc 33 be a4 38 b1 3e 32 6a ea bd 99 d7 01 bf
       -0.17564403 0.34613526 -0.114460364 -0.507196
000150 31 31 5d 3d c9 6e 80 be bc c0 08 be 3f 54 21 3e
       0.05400199 -0.25084522 -0.13354772 0.15754794
000160 f1 e5 87 3e 7c f9 64 bd d2 e5 4a be d9 a8 11 3f
       0.2654262 -0.05590199 -0.19814232 0.56898266
000170 7c ea 1d be 84 af 80 be 4c 32 14 3e 51 63 0b 3f
       -0.1542148 -0.25133908 0.14472312 0.5444842
000180 0a 33 4d 3e 64 54 a5 be d7 ad 48 be bd 8c 86 be
       0.20039001 -0.32290947 -0.19597565 -0.2627925
000190 3b 74 38 bf 7e 23 09 3e 85 ee f6 bc 58 84 89 3e
       -0.72052354 0.13392445 -0.030143032 0.26858783
0001a0 37 55 89 3d 95 d9 9a bd be ed ff 3d fa aa d0 3c
       0.067057066 -0.07561032 0.124965176 0.025472153
0001b0 70 5f db 3c c4 81 92 bd 9f 8c a0 3e 3a 2f 09 bd
       0.026778907 -0.07153657 0.31357285 -0.033492304
0001c0 3a 5d 12 bd 72 b6 0c bd e6 35 d7 3d 7c f6 64 be
       -0.03573344 -0.03435368 0.10508327 -0.22359651
0001d0 72 4a 5b 3e 1b ac 4d be 9b 83 2b be 62 11 22 3d
       0.21415117 -0.20085184 -0.16749422 0.03956736
0001e0 23 35 82 bc 98 16 fa 3d 8b a2 2f bf 8d 98 14 3f
       -0.015894478 0.12211341 -0.68607396 0.58045274
0001f0 df df 4a bd 9f 0e 22 bf bc c8 b1 3b ee 32 a5 3e
       -0.049529906 -0.6330356 0.0054255407 0.3226542
000200 5d cb 95 3e a0 4f 1a bd 60 eb e5 bd 17 09 3c 3e
       0.29256716 -0.037673593 -0.11226535 0.18362843
000210 65 cd 60 3e c7 45 79 3d be 10 27 bd 48 5a f3 bd
       0.21953352 0.06085756 -0.04078745 -0.11882454
000220 13 5c be 3d dd 00 2b 3e 47 cd 84 3d 92 07 ef 3e
       0.092949055 0.16699548 0.06484466 0.46685463
000230 c1 cb 0a bf 32 87 b4 be 9e 90 84 3e cb 41 60 bc
       -0.54217154 -0.35259396 0.25891584 -0.013687561
000240 45 2c 9d be 48 76 71 be d3 ec 9f be f9 ea e4 be
       -0.30697837 -0.23580277 -0.3123537 -0.4471052
000250 f3 34 0c 3e f5 01 7e be 9e 3b 96 bc 53 ef b6 ba
       0.13692074 -0.24805434 -0.018338975 -0.0013956822
000260 d5 3d 12 3f 20 1c 84 3c b1 9f a6 3d 25 16 2b 3e
       0.571256 0.016126692 0.081359275 0.16707666
000270 59 a6 60 3e bf 02 52 bd 37 e4 d5 3d 97 d4 3a 3d
       0.21938457 -0.05127215 0.10443919 0.045612898
000280 67 21 a5 be ea 41 1d be 30 dd c7 be 9e eb 00 bf
       -0.32252046 -0.15357175 -0.3903594 -0.50359523
000290 47 79 b7 3e df 2b 69 3e a9 94 9d 3e ef 18 95 3d
       0.35834715 0.22770642 0.3077748 0.07280146
0002a0 a5 d3 d0 3e 41 a0 7e 3e b2 16 09 be ca af ca bd
       0.40786472 0.2486582 -0.13387564 -0.0989681
0002b0 5a 5b ab be cc 9e 56 bc 65 92 bd be a6 da 0c 3e
       -0.33468133 -0.013099384 -0.37025753 0.13755283
0002c0 65 4a 88 be ee 18 29 be ac 07 7a b9 3f d3 5d be
       -0.2661926 -0.16513416 -0.00023844716 -0.21662615
0002d0 db 49 66 bd ab a2 79 be 13 b7 d2 bc 76 44 2f 3e
       -0.056222778 -0.24378459 -0.025722062 0.1711596
0002e0 fb c9 e1 be cc 4d bf bd dc 97 b0 bd 4e 82 fc bd
       -0.4409941 -0.093410105 -0.08622715 -0.12329541
0002f0 3f 0c b3 3e 31 0b bf 3b 8b 4a be 3e b5 e7 89 bf
       0.3497028 0.0058301915 0.37166247 -1.0773836
000300 c1 b7 54 bd 12 c5 e9 3c cf 49 2d 3e 97 48 17 3e
       -0.051933054 0.028536353 0.16922687 0.14773785
000310 47 36 33 3e ee 38 40 bf 17 df 22 3e 99 ce 94 3d
       0.17501174 -0.7508687 0.15905415 0.07265968
000320 dd f4 56 3e ec 15 da 3d b5 10 c9 bd 26 7b f1 3c
       0.20991845 0.106487125 -0.0981764 0.029477667
000330 4a ba 81 3e 4c 95 9a bd 76 c0 a2 3d c1 28 13 bf
       0.2533744 -0.07548007 0.07946865 -0.5748406
000340 98 e5 71 3e 1e df 36 3e 5a 20 93 be 0d 6d e3 bd
       0.2362274 0.1785855 -0.2873562 -0.11104784
000350 d5 24 c4 3d bf cf bc be 1f de 59 bf ff ea 8f be
       0.09577338 -0.36877248 -0.85104555 -0.28108975
000360 31 f1 7f 3e 7f 5d 9e 3d a5 e1 5d 3e d6 4a 39 bd
       0.24994351 0.07732677 0.21668108 -0.045237385
000370 49 15 a8 3d 22 3f b2 3b 06 50 62 3d 4f 83 81 be
       0.08207185 0.005439655 0.055252098 -0.25295493
000380 69 67 86 be 08 1f 6d bd e1 11 d4 be 9a 4e d5 3b
       -0.2625077 -0.05789092 -0.4141989 0.006509614
000390 d7 67 32 bf bd 92 85 bd 5f ae 18 3e c5 29 07 3e
       -0.696897 -0.06522129 0.14910267 0.13199528
0003a0 0b 7c fc be 14 bb b1 3d b5 6c 75 be 5e b4 9b 3e
       -0.49313387 0.086782604 -0.2396725 0.30411047
0003b0 23 fd ed 3d e1 34 02 bf 35 ce 9a bf e1 fa 7b 3d
       0.116205476 -0.50861937 -1.2094179 0.061518554
0003c0 23 55 ef bd 9a 2e a3 be 30 1a bd bb 94 18 40 3e
       -0.116861604 -0.31871492 -0.005770944 0.18759376
0003d0 9f 77 fb bd 39 d4 13 be f2 73 fd bc ac c4 1b 3c
       -0.12278675 -0.14436425 -0.030939076 0.009507339
0003e0 72 f8 9f 3f d2 6c 22 3f 8d 44 d8 3d 4e 4d 4d bf
       1.2497694 0.63447297 0.1055995 -0.8019608
0003f0 9d de 14 3e 8c 67 7c bc c6 8a 0c bc 75 48 df 3d
       0.14538045 -0.015405547 -0.008578008 0.10902492

bias f4 [300]
000000 7c e7 11 ba 66 78 48 bd b1 2b 97 3e c0 5d b3 3d
       -0.0005565805 -0.048942946 0.2952552 0.08758116
000010 0b 96 2b 3e c5 14 96 3d 2d de b1 3e 13 29 f7 3d
       0.16756456 0.0732818 0.3473982 0.12068381
000020 a6 28 d8 3d 90 76 3a 3e 6c 3c a1 be 73 33 01 bd
       0.10554628 0.1820929 -0.3149141 -0.031543206
000030 d9 ab ba 3d ff 43 ab 3d 83 84 b0 3e 3e 75 1c bd
       0.091148086 0.083625786 0.34476098 -0.03819775
000040 36 40 9d 3e 95 a4 96 3d 1e f4 4b bd 46 83 a5 3d
       0.30713052 0.0735561 -0.049793355 0.08081679
000050 47 a5 06 be 5e 46 1c 3d 65 d8 d4 3d c9 7a 48 be
       -0.13148986 0.038153045 0.103928365 -0.19578089
000060 bd a1 cb 3d ec 2b 64 be 65 92 61 bd d1 09 a8 3e
       0.099429585 -0.2228238 -0.055071253 0.3281999
000070 00 d9 1d 3d 0e 08 b9 3d ad be 80 3d 12 d8 7f 3e
       0.038537025 0.090347394 0.062863685 0.24984768
000080 a4 8b c0 3d 1f 3b b9 3d 9e ed da 3d 34 bc 05 3e
       0.09401634 0.090444796 0.10689853 0.13060075
000090 1a f9 8c 3d 3e 75 9c 3e 6c 88 06 3e d4 dd a6 3e
       0.0688345 0.305582 0.13137978 0.32591116
0000a0 2f 9b cf 3d 51 fc 9d 3d a1 5b 92 3d df da 0d 3e
       0.10137021 0.07714141 0.07146383 0.13853024
0000b0 4d 97 cc 3b 4b f3 51 3d 1c 3c fe 3d 6b e7 d6 3c
       0.0062436224 0.051257413 0.12413809 0.026233396
0000c0 93 e1 fa 3d 76 ee c1 bb ed 6f cc be 13 ee 2a 3e
       0.12250056 -0.0059183193 -0.39929143 0.1669238
0000d0 fc 1c 29 3c 49 97 81 3c 9e dc 11 3e 6d 9d 43 3e
       0.010321852 0.015819209 0.14244315 0.19103022
0000e0 8b 2c 39 bd 88 03 39 3d c3 f7 d2 3d 3a 28 72 3d
       -0.045208495 0.045169383 0.10301163 0.059120394
0000f0 47 85 95 3e b5 a1 b6 bb 18 4a 14 3d 5e 1c 29 3e
       0.29203245 -0.005573476 0.036203474 0.16514727
000100 58 66 1e bd eb ad 6c 3d 66 eb fd 3d 9a 3c 1e 3e
       -0.03867182 0.05778305 0.12398414 0.15452805
000110 1a fc 62 ba 22 d6 d2 3d 1c 4e a0 3d 71 ed 00 3e
       -0.0008658782 0.10294749 0.07827398 0.12590577
000120 71 99 1a bc 7e 9c da 3d 20 cc 88 3e e3 99 27 bc
       -0.009435997 0.1067438 0.26718235 -0.010229561
000130 bf 6f c9 3d 04 8a c5 bc 6a 61 71 be b8 df 64 bd
       0.09835767 -0.024113663 -0.23572317 -0.055877417
000140 c8 32 a8 3d 6f c2 a8 3c fe db 13 3e 04 27 98 3e
       0.08212811 0.020600526 0.14439389 0.29717267
000150 2f f0 af 3e 45 10 36 be 28 96 c0 bc 00 2d e6 3d
       0.34362933 -0.17779644 -0.0235091 0.11239052
000160 5f 9c 1b 3e e4 15 69 bc 5d 83 7b 3b 3c bb c8 3b
       0.1519637 -0.014226411 0.003837786 0.0061258357
000170 d3 12 f5 3d e9 8b 67 3e c6 d6 1d 3e fa 8d b1 3e
       0.11966481 0.22611965 0.15413961 0.34678632
000180 8c 9b c8 3d d3 46 a7 be 8b c6 65 bb 48 ea bd 3e
       0.09795293 -0.32671222 -0.0035060968 0.37092805
000190 9b aa b2 3c 13 69 82 3d 9a 99 22 3e 2c c1 fa bd
       0.021809867 0.063676976 0.15878907 -0.12243876
0001a0 db f8 dc 3d 08 cd ba 3d b8 6d 97 3d 12 07 36 3e
       0.10789653 0.09121138 0.07393974 0.17776135
0001b0 28 db c5 3d 39 c8 eb 3c 24 4f a4 3e 2a 21 09 3e
       0.09660941 0.028781997 0.3209163 0.13391557
0001c0 b7 67 a8 3e 4b ce dc bc 64 80 84 bd 34 79 01 bd
       0.32891628 -0.026953837 -0.06469801 -0.03160973
0001d0 69 44 49 bc 02 4d 01 bd 67 02 b2 3d 3e 5e d5 3d
       -0.012284377 -0.03156758 0.086918645 0.10418366
0001e0 d5 a1 de 3b b8 7d a9 3e e9 55 da 3d b6 ba f2 3d
       0.006794194 0.33103728 0.10660917 0.118520185
0001f0 e4 78 ce 3b de 71 ca 3c 93 2b d8 3d c3 c3 cf bc
       0.0063010324 0.0247125 0.10555186 -0.025361901
000200 a4 45 bb be 3d b2 2b 3e 65 8e a1 3d 89 31 ad 3e
       -0.3657657 0.16767211 0.07888488 0.33826855
000210 14 8d 5d bd af 8b a4 3d 47 cf fc 3d f1 6b 7c 3c
       -0.05408962 0.08034455 0.123442225 0.015406595
000220 2b a7 83 be ce 53 d2 3d 74 44 85 ba 2a cd 6f 3d
       -0.25713477 0.10269891 -0.0010167495 0.05854527
000230 17 1b b7 3e 15 1c 88 3e 9f c0 ae 3d 41 f9 4b 3d
       0.35762855 0.26583925 0.08532833 0.049798254
000240 e9 c4 92 3e ae fa 89 3b 93 b1 6b 3d 09 db 6a 3d
       0.28665856 0.0042107916 0.057542395 0.057337794
000250 bd f3 ce 3d 30 40 63 3d 0a 5e 38 bd dd d4 ff 3c
       0.10105083 0.055481136 -0.045011558 0.03122943
000260 f7 b5 88 3d 42 2a e1 3d 4f e0 50 3d 89 af 64 bd
       0.06675332 0.10994388 0.050995167 -0.055831466
000270 72 bd ca 3d cb ca f8 bd 91 0d 5e 3e 8f 04 c3 3d
       0.09899415 -0.12148055 0.21684863 0.09522354
000280 65 d1 de bd d0 0f 72 bd 4d 05 df 3d 32 54 89 3e
       -0.108797826 -0.05909711 0.10889683 0.26822048
000290 f0 dc 07 3c a6 bd d1 bc e5 e9 51 be 55 d2 34 3e
       0.008292422 -0.025603127 -0.2049938 0.1765836
0002a0 0c db ca be d9 6d b5 3d cc bb 07 be 0f 28 93 3e
       -0.39620245 0.088588424 -0.13255233 0.287415
0002b0 09 91 35 3c f6 4b 88 3c 8f 96 57 3e 67 df 05 3e
       0.011081942 0.016637783 0.21053527 0.13073502
0002c0 80 9c de bc 95 4d a6 3e 7a a5 1e bd c8 55 98 3d
       -0.027174234 0.32481065 -0.03873203 0.074382365
0002d0 9c 61 2d 3d 65 09 e8 bd 8a 59 00 3e e3 27 5c 3e
       0.042329416 -0.11329917 0.12534156 0.2149959
0002e0 d7 34 1f 3e e9 9f ed 3d 25 6e 03 3e 8f 1d 92 38
       0.155475 0.11602766 0.12834986 6.967328e-05
0002f0 9a 03 e5 be c0 09 1d bd 21 17 88 3c d9 67 3b bc
       -0.4472931 -0.038339376 0.016612591 -0.011438333
000300 81 79 f8 3d d4 6a 3e bb f6 82 70 be 93 e7 be 3d
       0.1213255 -0.0029055374 -0.23487458 0.09321513
000310 6f b5 d9 bc 80 0d b8 3d 79 53 00 3c e6 34 a5 bc
       -0.026575772 0.0898695 0.007832401 -0.020166826
000320 07 99 38 3e d9 2a af 3e 85 33 8e bd 9a ed ee 3d
       0.18027125 0.34212378 -0.0694342 0.11666413
000330 65 3e 36 bd 03 6b 82 3e a1 7c 31 bd 1e 31 b7 3e
       -0.044493098 0.25472268 -0.043331746 0.3577966
000340 b3 34 a9 3e 8c be 2e 3d 60 9f eb 3d 19 7d 2b bd
       0.3304802 0.04266219 0.11505008 -0.04186735
000350 df a6 ca 3b f4 76 67 be f0 e7 2d 3e b2 3e 4c 3e
       0.0061844434 -0.22603971 0.16983008 0.19945791
000360 b8 36 2f 3e c0 6a 7d be ae 1b 51 bc 32 fa b3 bd
       0.17110717 -0.24747753 -0.012762947 -0.08787955
000370 51 4e b5 3e 59 ad 00 3e b1 4b 34 3e 21 f0 b7 bd
       0.35411313 0.12566127 0.17606999 -0.08981348
000380 2e 96 0f 3e 3e 06 3a 3e 35 c2 a0 bd 91 a4 a5 3d
       0.14022133 0.18166444 -0.07849542 0.08088029
000390 31 a7 58 3d f4 17 04 3b fd 09 6a 3d 2c 5d a2 3d
       0.05289382 0.0020155879 0.05713843 0.079279274
0003a0 c2 47 06 3e d5 ee 9f 3d b7 4c 3a 3e de 4b d0 3d
       0.13113311 0.078092255 0.18193327 0.101707205
0003b0 45 7d 7f bc 7d 9d d7 3d c2 83 bb 3d d4 75 b5 3e
       -0.015593831 0.105280854 0.0915599 0.35441458
0003c0 e4 f7 88 3e 5c 0c 3d bc 86 37 52 ba ea b2 86 3d
       0.26751626 -0.011538591 -0.0008019138 0.06577094
0003d0 0e 5c 4b bd 52 d3 b6 3e e2 65 f2 3d b8 68 8a 3d
       -0.049648337 0.357081 0.11835839 0.06758255
0003e0 51 f7 2b 3d 02 04 b1 3e f2 39 a7 3d 65 72 d7 bb
       0.041983906 0.3457337 0.08165349 -0.006574916
0003f0 f8 e8 e2 3b a4 04 ee 3d 79 74 dc 3d c8 4a 79 3e
       0.0069247447 0.11621979 0.10764403 0.24344933

weight f4 [1, 300]
000000 ce 60 62 be ca eb 20 bb d5 77 c0 3d 55 c1 50 bf
       -0.2210724 -0.0024554604 0.09397856 -0.81545
000010 a2 b7 d7 bf 02 59 7b bf 4e 8f 02 3e 60 38 50 bf
       -1.6852915 -0.9818269 0.12749979 -0.8133602
000020 16 2c 02 c0 55 2a 7f bf 24 95 85 40 cf 78 6e bf
       -2.0339408 -0.9967397 4.1744556 -0.9315309
000030 9b f5 d5 bf 14 15 59 be 92 ec f9 3d b7 66 80 3a
       -1.6715578 -0.21199447 0.12203325 0.0009796236
000040 6c eb f2 3d db c1 8f bf 3c fc 8f be 73 a9 e1 bf
       0.118613094 -1.1231035 -0.28122127 -1.7629837
000050 ae 2c 5c be 72 1a b2 bf b2 77 f7 bf bc 50 ae 3f
       -0.21501419 -1.391432 -1.9333403 1.3618388
000060 0b 58 9b bf 4c d8 d3 be 0a 9f 90 ba cd 8d fa 3d
       -1.2136244 -0.4137596 -0.0011033725 0.122340776
000070 59 d1 f7 be 76 22 e2 bf 1b 0c 9a bf 90 cd 84 3e
       -0.48401907 -1.7666767 -1.2034944 0.25938082
000080 ca 68 93 be 54 8c de bf 3d 52 bf bf ee 15 a3 bf
       -0.28790885 -1.7386575 -1.4946972 -1.2741067
000090 7e 01 c9 bf 9b ee fb 3d 1d c5 bf bf 0c 9e f7 3d
       -1.570358 0.1230137 -1.4982029 0.12090692
0000a0 da 37 85 bf e5 72 bc bf 30 b6 5d be ba de d9 bf
       -1.040767 -1.4722563 -0.2165153 -1.7021096
0000b0 b1 14 d7 be 71 5e 13 bf 17 d1 05 bf 15 76 6b bf
       -0.42007974 -0.5756598 -0.5227217 -0.91977054
0000c0 07 1f 11 c0 da 02 74 bf 5a 2e 61 be ca a8 81 bf
       -2.2675188 -0.9531685 -0.21990338 -1.0129635
0000d0 6f 02 a3 3b 14 c4 a8 bf 03 05 d6 bf b2 61 c0 bf
       0.0049746553 -1.3184838 -1.672028 -1.5029814
0000e0 cf 75 9d be 72 c2 b7 bf 18 69 ce bf 74 a2 c6 bf
       -0.30753943 -1.4356215 -1.6125822 -1.5518327
0000f0 af 30 02 3e d8 e2 96 bf 3e d5 0e bd 72 f0 37 bf
       0.12713884 -1.1787977 -0.034871332 -0.71851265
000100 2b 9d 77 bb 51 b0 b1 bf 98 23 b7 bf d6 2a cf bf
       -0.0037782888 -1.3881932 -1.4307737 -1.6184947
000110 ef fe 9c bb 7d d3 d5 bf b3 b1 a5 bf 6b 41 96 bf
       -0.0047911326 -1.6705166 -1.2944854 -1.1738714
000120 9d ed a2 bb d3 23 ba bf 6c 99 93 3e ca 5f 1c 3b
       -0.0049721734 -1.4542183 0.2882799 0.0023860806
000130 26 75 f4 bf 10 0a c9 bf 5b 19 93 be 73 08 74 3b
       -1.9098251 -1.5706196 -0.28730282 0.0037236481
000140 98 05 bb be ce 74 f4 be be e2 b5 bf 8d 51 f1 3d
       -0.36527705 -0.47745365 -1.4209821 0.11783133
000150 6d 4b f2 3d 31 04 90 3f 2d d1 88 bf 35 db 37 bf
       0.118307926 1.1251279 -1.0688835 -0.7181886
000160 77 10 b3 bf 3d 82 b1 bb 55 3b ee 3a 55 d7 6a be
       -1.39894 -0.005417137 0.0018175641 -0.22933705
000170 55 80 b3 bf ab 68 48 3e 66 1e c0 bf f7 99 ec 3d
       -1.4023539 0.19571178 -1.5009277 0.11552804
000180 14 5b cf bf 83 26 1a be 6f 71 8e 3b d5 b7 05 3e
       -1.619967 -0.15053754 0.0043470184 0.13058408
000190 c1 04 36 bf 6d bf 62 bf 88 7c ce bf 0d db 58 be
       -0.71101004 -0.8857334 -1.6131754 -0.21177311
0001a0 f4 de 80 bf 17 9f e4 bf 91 60 a6 bf b8 eb 95 bf
       -1.006804 -1.786105 -1.299822 -1.1712561
0001b0 ca 4f c6 bf 0e 15 e1 be 64 53 00 3e 1f 99 c9 bf
       -1.54931 -0.43961376 0.12531811 -1.5749854
0001c0 11 e9 d8 3d 5f 2a a0 3b ea 2b 0b bb 1d 6e 4f c0
       0.10591329 0.0048878635 -0.0021235892 -3.2410958
0001d0 d5 41 27 bf 74 7f 72 bf cf c9 82 bf 37 18 fe bf
       -0.65334827 -0.9472573 -1.0217837 -1.985114
0001e0 d2 20 b8 bf 62 38 f5 3d 8b 79 c5 bf a0 75 f9 bf
       -1.4385016 0.11973645 -1.5427717 -1.9489021
0001f0 14 d8 90 39 42 dc ba bf ea 6c a4 bf cc ad f2 bf
       0.0002762681 -1.4598467 -1.2845738 -1.8959289
000200 42 64 a8 bf 1f d5 87 3e 67 f4 9d bf 2a 03 7c 3e
       -1.3155596 0.26529786 -1.2340211 0.24610582
000210 72 4a 1a be 0b ff be bf 96 84 ea bf 71 69 58 bf
       -0.15067461 -1.4921583 -1.8321712 -0.8453589
000220 26 72 89 be db 8c ef bf d0 a5 cd bf 57 92 a9 bf
       -0.268449 -1.8714861 -1.6066227 -1.3247784
000230 1d 2a 0a 3e d6 4a ad 3d 4e c2 d4 bf 20 b1 25 bf
       0.13492627 0.084615394 -1.6621797 -0.64723396
000240 74 db ed 3d 45 12 7f bf 56 64 67 c0 32 f0 d8 bf
       0.11614123 -0.9963725 -3.615499 -1.6948302
000250 4c 66 c5 bf 55 ff 93 be 06 15 04 3c 16 fd 65 be
       -1.5421844 -0.2890574 0.008061653 -0.22459826
000260 c9 ff 94 bf 28 76 7d bf 9c cb 9b bf ef d5 96 3a
       -1.164056 -0.9900842 -1.2171512 0.0011507849
000270 6f f6 14 bf 7a 98 e0 3e 8d d7 ba bf a4 2c 8c bf
       -0.5818853 0.4386633 -1.4597031 -1.0951123
000280 98 6a f1 bf e4 3f 54 bb 0b 27 ce bf 20 0c 80 3e
       -1.8860655 -0.0032386715 -1.6105665 0.2500925
000290 96 51 e3 bb 7c de b6 bf 78 7a 0a be 38 5b 64 3e
       -0.006937216 -1.4286647 -0.1352328 0.22300422
0002a0 90 fb 5f be 09 67 33 3e 01 fe 7a be 5f d0 17 3e
       -0.21873307 0.17519774 -0.24510957 0.14825581
0002b0 e7 ef e8 bd 3c 51 9b bf a2 35 82 3e 8c f6 89 bf
       -0.11373883 -1.2134166 0.25431544 -1.0778365
0002c0 56 0c 14 3b d5 c4 05 3e 70 e0 3b bb b0 c9 fb bf
       0.002259036 0.13063367 -0.002866771 -1.9670925
0002d0 3b d7 07 bf 23 bb 68 bf 34 a1 88 bf bb fe 92 bf
       -0.5306279 -0.9091055 -1.0674195 -1.1483988
0002e0 9d 34 d1 bf 36 5e a7 bf 99 18 9e bf 2a 14 64 c0
       -1.6344181 -1.3075626 -1.2351257 -3.5637307
0002f0 5e 2c 7d be ca ea a0 3b 85 15 d1 b9 45 3e 28 be
       -0.24723956 0.0049108015 -0.0003987962 -0.16430004
000300 31 a5 66 bf 52 6e 44 c0 74 9d bb be 1d e0 db bf
       -0.9009581 -3.0692334 -0.36643565 -1.7177769
000310 78 fd 63 bb b2 aa 1f bf 17 f4 7a bf 16 00 8f bb
       -0.003478853 -0.62369835 -0.980287 -0.004364024
000320 de 0f 69 bf 68 c6 e8 3d ec 72 4f bb bb 58 b0 bf
       -0.91039836 0.11365968 -0.0031654192 -1.3777078
000330 89 17 00 c0 72 48 b6 3d 28 32 91 bf 41 48 f9 3d
       -2.0014365 0.089005366 -1.1343431 0.121719845
000340 c0 19 fe 3d 8c b0 03 c0 f2 7b 89 bf 2d 89 bf 3a
       0.12407255 -2.0576506 -1.074095 0.0014613025
000350 8b f3 63 bc 9b 86 f2 3e 53 20 9e 3e 0f 8f c4 bf
       -0.013913046 0.4736832 0.30884036 -1.5356158
000360 0e de e6 bf 43 3f 3f 3f 2c a9 9c be a0 47 c8 be
       -1.8036516 0.74705905 -0.30597818 -0.39117146
000370 25 c1 08 3e e3 0e 03 c0 41 59 d5 bf a9 01 a6 bf
       0.13354929 -2.0477836 -1.6667863 -1.2969257
000380 94 9a 6a bf 30 de c5 bf d6 a6 9f 3e 7e 17 ba bf
       -0.9164212 -1.5458431 0.31181973 -1.4538419
000390 41 b3 67 bf 4a 07 d3 be ef 3a 2c c0 da 5b e9 be
       -0.90507895 -0.412165 -2.691097 -0.4557789
0003a0 fa 3b 94 bf 46 09 cf bf b5 6e 68 3e 52 a5 be be
       -1.1580803 -1.6174705 0.22698481 -0.37235504
0003b0 22 41 28 39 61 d7 8d bf 9b 71 e2 bf 9a da e2 3d
       0.00016045992 -1.1081353 -1.769092 0.11076851
0003c0 dd 87 ff 3d fe 41 07 c0 e3 5c ed 3a 8b 7c 02 c0
       0.12477086 -2.1134028 0.0018109347 -2.0388515
0003d0 1a ed 2d 3b 3e ff 14 3e bc e3 f3 bf aa 83 e6 bf
       0.0026539029 0.14550492 -1.9053874 -1.8008931
0003e0 f2 52 2a c0 99 c3 e8 3d 90 af e8 bf d1 54 9a bf
       -2.6613126 0.11365432 -1.8178577 -1.2057134
0003f0 d6 e2 be bb ca bf 5e c0 91 55 d3 bf 0d 07 53 bf
       -0.005825381 -3.4804559 -1.6510488 -0.82432634
